model_params/ceedee_model.pth (torch, 99794 bytes, 17 tensors)

lstm.weight_ih_l0 f4 [128, 7]
00000000: ef50 37be 1181 34be 3908 a13d 7f7c 52be
00000010: 7e3a 49bd db91 26bd 6da9 f4bb 83f7 a3bd
00000020: 690c 1a3d 7264 45bc 3d15 3abc 138f b2bd
00000030: 8bb5 ef3c 855c 013e 1b84 b3bd 3119 1bbe
00000040: f364 ae3d 4d3c 1dbe 3d51 23be 6017 37bd
00000050: f47b ff3d 10e1 7a3e b0a1 8abd cf17 173e
00000060: b05f 033e ac68 a7bc 69da c2bd cbdf 133e
00000070: b121 983d 29e7 113d 4e21 ab3d c722 63be
00000080: e250 45bd 3a91 82bc f52a 32be de36 5ebd
00000090: 04c6 063d 0b8e 813e 5139 7ebc f0c9 433e
000000a0: abb7 333e 6968 2d3d 663c 4a3d aa1a f73c
000000b0: 41d8 4a3d 7730 1dbe 8799 a73d d1f5 e5bd
000000c0: 0456 a7bd 51ad c43b e2f8 bfbc 0e26 803c
000000d0: e01a 403c 4888 063d b3ee c83c 2409 ef3d
000000e0: b1ea 04be fb8c 01be 4671 a2bd 91a4 e23d
000000f0: c37e 1abe 7f00 cdbd 90d9 1fbe d408 60be
00000100: 4de3 efbd 7c2a ab3d 0c0b 4cbe 4eec ca3c
00000110: 2ea3 e5bd d78a 503d 876d a03c a506 0a3d
00000120: 2597 fc3c 7bc1 043e 9d03 c83d 0c5c 0cbd
00000130: 09eb 113e afe1 5cbd 4850 edbd 6381 22bc
00000140: 3c77 023e 9dce 36be e92d 7a3d 871e a2bd
00000150: 47e1 513e 4937 db3d 10e0 113e df80 543e
00000160: fdd6 d0bd c96c 533c bc46 503e 4077 223d
00000170: 8500 5b3e 067a 5b3e af83 ab3d 4e71 64bd
00000180: 7b6c 3bbd d761 38be 7e57 08bd b595 bdbc
00000190: cd2c bd3d d45e 3e3d 36f8 b5bc ad89 673d
000001a0: 1d7f 2dbe 6f33 2dbe c84b a0bc c1f5 2d3d
000001b0: 1dde 3e3d 1e16 4c3d 2a9a 91bd 7cae c9bc
000001c0: 9545 0fbe 1306 fa3d c784 3bbd bf42 57be
000001d0: fef4 fc3c 85af bcbd 4dc1 cdbd 0e30 0a3e
000001e0: 5c18 1e3e eb2c 05bc 7f3d 24bc 0723 fd3d
000001f0: 83bb cdbd 2890 033e 4604 fbbd f21f 97be
00000200: e837 d23d 7b68 8d3d 534e 2abd fe87 84be
00000210: 65fb 443c 03af dd3d 0647 0f3e 049a 123d
00000220: e1f6 3dbd 58c2 f23c f5be 6f3e 8cbc 193e
00000230: 91b6 ebbc 1b3a 1d3e 5046 d63d 88aa 1abd
00000240: f543 c43d f7d9 793e 1e05 c23c 73ee 43be
00000250: 0e32 093d 7534 abbc 0810 083d 11d5 37be
00000260: 93ad 38be 440b 10be 5a1e 29bd a0da 953c
00000270: 903a 2abd 6bce 1a3d 5fa2 5dbe 66d9 ed3d
00000280: cbcf 01be 5568 97bc b44b c63d 80d9 dc3c
00000290: dbe7 e93c dd49 1fbd 3f1c 10be 882f b43d
000002a0: 59a0 5cbe 99c2 af3a 5fec 8f3e d495 3cbe
000002b0: 157f 103e 1e6a 14be 7f43 dfbc 606a 09be
000002c0: d1bb 943e 0b38 7a3e 79e6 103c 2b45 46bd
000002d0: fa53 39be 820f 0bbd da0b fabd bf81 c53d
000002e0: 769c 2bbc 4abb 25be 2d17 f33d ec76 5abd
000002f0: 558c 5d3e c91a 81be 57b2 9c3c 273f 7f3b
00000300: 4faa d4bd 817f 913d 24ec aabd 7bd3 863d
00000310: b91a 0ebe 20d2 153e a0d2 c93c e3d4 873d
00000320: 9524 34be 9f1a 32bd aaef c4bd e487 d83b
00000330: 6962 033e 8985 b43c 2d45 483d 3a32 5bbd
00000340: 9a74 d73c 52ed 373e c9db 3fbe 9185 1e3e
00000350: 2b06 a8bd 45c4 abbc 2d76 33bd fe66 09bc
00000360: cfe5 393e 1dfc 76bc 0fd5 c33d 1c36 1e3c
00000370: 1b5a 3bbb 8e2f bdbc 1a41 ec3d f876 043e
00000380: 23ea e8bd f96d 36be e536 7fbe 4e3b 32be
00000390: 607d d8bd f9e2 1d3e 0e95 493e c56d 873d
000003a0: c01a ecbb 9ef2 ec3c 2422 723d 30a6 a43c
000003b0: 862c a13c 0a87 7abd 7676 28be 52fa 81bd
000003c0: 7eb1 5ebd 42c5 cebd fa78 70bd dd26 d53d
000003d0: 771b 263d 3566 dfbd 1b8f bcbd ab32 b53d
000003e0: 9a28 e03d 75a0 eabd 0bf4 8dbd b5fa c23b
000003f0: 7d61 30be a733 9cbd 97f2 8c3d bb2d c8bd
-0.17901967 -0.1762736 0.078628965 -0.20555304 -0.049128048 -0.040666442 -0.007466486 -0.080061935
0.03760949 -0.012047874 -0.011357603 -0.087186955 0.029261371 0.1263295 -0.087654315 -0.15146329
0.08515348 -0.15355034 -0.15948959 -0.044700027 0.12474814 0.24499917 -0.06769121 0.14755176
0.1282947 -0.020435654 -0.09514315 0.14440839 0.07428301 0.035620842 0.08355962 -0.22181235
-0.04817284 -0.01593839 -0.173992 -0.054251544 0.032903686 0.25303683 -0.015516595 0.19120002
0.17550533 0.0423359 0.049374007 0.030164082 0.049522642 -0.15350519 0.0818358 -0.112285264
-0.08170703 0.0060021062 -0.023434106 0.015643146 0.0117251575 0.03284481 0.024527883 0.11671665
-0.12980153 -0.12651436 -0.079317614 0.11066545 -0.15087418 -0.1000986 -0.15610337 -0.21878368
-0.11713276 0.083577126 -0.19926089 0.024770882 -0.11212765 0.050913658 0.019583477 0.033697743
0.03083379 0.12964432 0.09766314 -0.03426747 0.14249815 -0.053926166 -0.11587578 -0.0099185435
0.12740797 -0.17852254 0.06107894 -0.07915979 0.20496093 0.10703904 0.1424563 0.20752285
-0.10197256 0.012904354 0.20339483 0.039664507 0.21386917 0.21433267 0.08374726 -0.05577212
-0.045757752 -0.18006073 -0.033286564 -0.023142675 0.09237061 0.046477154 -0.022213083 0.056527782
-0.16943021 -0.16914152 -0.019567385 0.042470697 0.046598542 0.04982578 -0.071094826 -0.024619333
-0.13991387 0.1220819 -0.045780923 -0.21021555 0.03087854 -0.09213165 -0.10046635 0.13494894
0.1543898 -0.008128385 -0.010024427 0.123601966 -0.10045531 0.1284796 -0.122566745 -0.2951656
0.102645695 0.06904694 -0.041578602 -0.25885004 0.012022828 0.108243965 0.13991937 0.035791412
-0.04637802 0.029633686 0.23412688 0.15013331 -0.028773578 0.15354197 0.1046263 -0.037760288
0.09583274 0.24399553 0.02368408 -0.1913393 0.033495 -0.020899037 0.033218414 -0.17952372
-0.18034963 -0.14066797 -0.04128871 0.018292725 -0.041559756 0.03779451 -0.21643971 0.11613731
-0.12676923 -0.018482367 0.09682408 0.02695918 0.02855294 -0.0388888 -0.14073275 0.08798128
-0.21545543 0.0013409435 0.28110024 -0.1841653 0.14110978 -0.14493605 -0.027253864 -0.13419485
0.29049543 0.24435441 0.008844011 -0.048405807 -0.18098441 -0.033950336 -0.12209292 0.09643888
-0.010474315 -0.16184726 0.11869655 -0.05333607 0.21635564 -0.25215748 0.019128008 0.0038947554
-0.10384046 0.071043976 -0.083458215 0.065833054 -0.13877381 0.14630938 0.024636567 0.06632402
-0.1759208 -0.04348242 -0.09616025 0.0066079963 0.12830509 0.02203633 0.048894096 -0.053514697
0.026300717 0.17961624 -0.18736185 0.15480639 -0.082043014 -0.020967612 -0.043813873 -0.008386372
0.18154071 -0.015074757 0.09562122 0.009656455 -0.0028587643 -0.023093965 0.11535855 0.12936008
-0.11372783 -0.17815389 -0.24923284 -0.17405435 -0.105707884 0.15418614 0.19685766 0.06612734
-0.0072053373 0.028924283 0.05911459 0.020098776 0.01967455 -0.06116394 -0.1645144 -0.06346573
-0.05436849 -0.10096218 -0.058709122 0.10407803 0.040553536 -0.10908166 -0.09206983 0.08847555
0.10945244 -0.11456386 -0.06931313 0.0059502968 -0.17224689 -0.076270394 0.06882208 -0.097743474

lstm.weight_hh_l0 f4 [128, 32]
00000000: d8e0 fabd 281d 12bd 1c98 38be 8dd3 08be
00000010: 8f70 b63e 91ef e73d 9b14 943e 6b41 20be
00000020: 3fa4 203e 0286 02bd fe08 be3d 4683 8b3b
00000030: c897 89bd f452 d53d 78ed 5dbe e1d3 3d3d
00000040: 0fd1 293e df29 5bbd 8cbc edbd 2c30 42be
00000050: 8f0a a23e 48ee a63d bcd6 97bc 6aa6 9dbe
00000060: 3efe f73d c469 1f3c a456 7b3d dd79 cf3d
00000070: 6fb5 c4bd e594 d93d 8f31 12be 8cf5 08be
00000080: 1c88 6bbe 2e05 19bd b2bb 43be 6ee2 803d
00000090: b5bc 153e f489 b6bb 1a2e b2bb 748e 13be
000000a0: abd4 15be 9462 f1bc 0f97 d43d d2cd 46be
000000b0: 7c4c ff3d d1f3 123e 2cbc 1cbc 05a9 963c
000000c0: 120f 3e3e ed99 72be 885f 263d 0691 5fbc
000000d0: e39f cbbd b4a9 1bbe 8e00 25be 9899 793d
000000e0: 2fa7 2e3e f4d2 86bd e619 f2bd e453 1a3c
000000f0: 8dde 7dbe f07f 7ebd 5670 babd 60bb debd
00000100: e903 f8bd f072 72bd 8909 fd3c 4c1d 8b3d
00000110: f6f6 0c3e ed28 17be 0a96 e3bb 2c0c 023c
00000120: a829 e7bd 8edb f53d 96a6 0dbe 7f07 f23d
00000130: 0452 1dbe f8f4 233e 15a6 e5bd 6eb9 09bc
00000140: 562b e23d 90be 4a3d 4b80 c9bb fc1a 0f3e
00000150: 7b32 523e cb36 79be 3134 8cbe 81ef 72bd
00000160: 2e3c 37bd 17f6 3a3d b25c 6fbc a586 08be
00000170: 11d3 213d 0da2 853d b84a 353e 74c8 cb3d
00000180: c8f8 4fbe eeaa a83c 5bae 493d 4148 443e
00000190: d8f4 0b3d 44bf 393c 6790 123e b2fd 213e
000001a0: 8673 f4bd 06b7 cd3d 6840 33be a439 b3bd
000001b0: 3f12 08be fae1 6e3d e178 bcbd 7d6e 27be
000001c0: e9f1 763d a7e8 84bb 3932 023d 5782 34be
000001d0: a30b 383e e33f 5ebc d792 9abd 6224 5bbd
000001e0: 0d61 5b3e 9159 ffbd 7510 a43b 9372 1c3d
000001f0: 8f74 e43d 8cc4 79bd 6298 353e 634a edbd
00000200: ca53 bfbd 67b9 14bd 3957 ea3d c6d4 20bd
00000210: d14b 2c3e 212b 06be fc1b 57b9 27ff 183d
00000220: 8158 9abd e57d 68be f7d5 3cbe b36e 963d
00000230: bdf3 fe3d 4715 87bd 1c82 033d 5d6e 26be
00000240: 2b25 68bd 801f 55bd cba6 af3d 99f5 1e3d
00000250: 8666 403d ecb6 583d 62a5 3abe 0780 d43b
00000260: b87e d9bc 830c 9abe 5765 bb3c 70cb 223e
00000270: bdd0 453e 8511 a5bd d665 143e 0dcc 2e3e
00000280: b330 663d f26b 6a3e b1c3 073e c536 043c
00000290: ae73 eb3d a588 163e 73da d7bc 88eb 503e
000002a0: 777e 5cbd efe6 b63d aecc 07bd d6d7 c7bb
000002b0: a29a 7c3e d063 603e acaf 3b3e d8be 1e3e
000002c0: eeb8 82bd 3e65 933d ca8d e2bd 63a1 fc3d
000002d0: 18e0 03be d46b 8b3c beb7 5fbc f8a4 e43d
000002e0: e890 0a3e d9af 7fbd b80d be3d 7705 95bd
000002f0: 4259 51be b275 5a3e db84 8fbd a7af a9bc
00000300: 5186 efbc 6855 313e 27d7 78bd 0373 233d
00000310: b213 123e 630a 2abe af7c 243e 7db4 05be
00000320: a12f 6cbd e451 11be 45f3 1abe 4056 1dbd
00000330: b35c 29bd 20f0 263e b44d 79be d2f8 f83c
00000340: 4b48 c2bc fa5b ab3d 64c9 e43d 063b 33bd
00000350: 3dd0 403e 5acf 1abe 7a62 51bd 813d 823d
00000360: 0366 2a3e 95e0 59bd 3584 56bd 2131 e93c
00000370: e2ff 8b3c de15 59be 5cb2 acbd 2693 97be
00000380: ff99 e3bd 22ee 9c3d 6b26 2cbc 724e 253e
00000390: ed9c f03d 181e 27bb 757d 2c3d 29ae 593e
000003a0: 728c f33a 6e6e 6bbd d34d d5bd 6609 cabd
000003b0: 508e 023e f6f3 303d a1ad c23e 46a1 f3bd
000003c0: 0eea 933e 2f12 81be b9b9 34be 6bef a9bd
000003d0: 75d5 04be a9ac 91bd 6ae5 66bd 0263 debd
000003e0: a281 103e addf 7cbd 2a3f 493d 54a6 77be
000003f0: 6826 4dbe 9dbe c23d 7fcf 023e a43b 79be
-0.12249917 -0.035672337 -0.18026775 -0.1336195 0.3563275 0.113249905 0.2892197 -0.15649955
0.15687655 -0.03186608 0.09279059 0.0042575924 -0.06718403 0.10416213 -0.21672618 0.04634464
0.16583656 -0.05350673 -0.11608228 -0.18963689 0.3164868 0.08150917 -0.01853501 -0.30791026
0.1210904 0.009729806 0.061361924 0.101306655 -0.09604918 0.106241025 -0.14276718 -0.13374919
-0.2300114 -0.037358455 -0.19114569 0.06293188 0.14622767 -0.0055706445 -0.0054376246 -0.1440981
-0.14631908 -0.029465951 0.10380375 -0.19414452 0.1246576 0.14350821 -0.009566348 0.018391142
0.18560436 -0.2369153 0.04061845 -0.013645416 -0.09942605 -0.15201455 -0.16113493 0.060937494
0.17055963 -0.06583205 -0.11821346 0.009419415 -0.24791928 -0.06213373 -0.09103458 -0.10875583
-0.12110121 -0.059191644 0.030888336 0.06792697 0.13766083 -0.14761706 -0.0069453763 0.007937472
-0.11287242 0.12004767 -0.13833079 0.11817836 -0.15363318 0.16011417 -0.11213318 -0.008406026
0.11043422 0.04949814 -0.006149327 0.13975137 0.2052707 -0.24337308 -0.2738357 -0.05931044
-0.044735126 0.045644846 -0.014609503 -0.13332613 0.03950793 0.06525049 0.17704284 0.09950343
-0.20309746 0.020589318 0.049238544 0.19168188 0.034169048 0.011337105 0.14312898 0.15819433
-0.11936097 0.100446746 -0.17505038 -0.087512285 -0.1328821 0.058320977 -0.09202743 -0.16350742
0.060289297 -0.0040560546 0.031786177 -0.17627846 0.17973189 -0.0135650365 -0.07547539 -0.053501494
0.2142374 -0.12468255 0.0050068446 0.038195204 0.11155044 -0.060978457 0.1773391 -0.11586454
-0.09342153 -0.036309626 0.11442418 -0.039265417 0.16825797 -0.1310239 -0.00020514423 0.037352707
-0.07536412 -0.22704275 -0.18440996 0.07345333 0.12448833 -0.06595855 0.032106504 -0.16253038
-0.05667607 -0.052031994 0.08576735 0.03880844 0.046972774 0.052908823 -0.18227151 0.0064849886
-0.026549682 -0.3008767 0.022875471 0.15897918 0.19317909 -0.08059982 0.14491972 0.17070027
0.056198787 0.2289274 0.13258244 0.008069699 0.114966735 0.14700563 -0.026349282 0.20402348
-0.053831544 0.08930766 -0.033154182 -0.0060987277 0.24668363 0.21913075 0.18328732 0.15502489
-0.06382929 0.07197045 -0.110622 0.123354696 -0.12878454 0.01701919 -0.013654647 0.11164278
0.1353184 -0.06242356 0.092799604 -0.07276433 -0.20444205 0.2133396 -0.07007762 -0.02071364
-0.029238852 0.17317736 -0.06075206 0.039904606 0.14265326 -0.16605525 0.16063188 -0.13057132
-0.05766261 -0.14191395 -0.15131862 -0.038412333 -0.04134817 0.16302538 -0.24346048 0.030392084
-0.023716113 0.083671525 0.11171225 -0.04375746 0.18829437 -0.15118161 -0.051119305 0.06359387
0.16640477 -0.053192694 -0.052372176 0.02846581 0.017089788 -0.21199748 -0.08432457 -0.29604453
-0.11113357 0.07662608 -0.010507206 0.16143206 0.11748681 -0.0025500115 0.042111833 0.21257843
0.0018581285 -0.05747836 -0.104152344 -0.09865074 0.127496 0.04320141 0.38023093 -0.11895995
0.28889507 -0.25209185 -0.17648973 -0.082976185 -0.12972052 -0.071130104 -0.05637113 -0.10858728
0.14111951 -0.06173675 0.049132504 -0.24184543 -0.20034182 0.09509013 0.12774466 -0.24339157

lstm.bias_ih_l0 f4 [128]
00000000: 4d51 6c3e 5ffb 373d 2c5c e4bd c454 9f3e
00000010: 1c38 cabd 3f1c 5dbd edfd 133e 5335 743e
00000020: dab3 fa3d ef1a 983c 4d2d 4a3d dc7b 543e
00000030: c975 cc3d 2cba fd3d 88eb 533c c31a a8bb
00000040: 658c d23d 55db 6cbd a7d3 563e f27b bc3d
00000050: 30e0 993e b86a 27bb c673 083d be15 513e
00000060: ff0e 68bd 5a4c 863e d1e7 07bc 5ac4 623e
00000070: 9ca3 56bd 65c1 003d 763e fd3d e55d 7c3c
00000080: c2b7 45be 2ee0 63be c171 013e a57a 263e
00000090: 7351 9f3b a8f6 23be 342a 933d 7ee1 16be
000000a0: a984 cfba 8e26 c4bd 4c25 34bd 3aa7 d03d
000000b0: 2177 8abd f9f9 733a 9934 a83d 4264 853e
000000c0: 6c21 0c3e 8793 00be d579 22be 81da e73d
000000d0: d760 f93d a75f aebd 6317 09be c066 50bd
000000e0: b63b b5bd 3c0b 7b3d 52e5 dabc 169b b0bd
000000f0: a1cf 843e 11ab 003e 5906 a7bd 5096 b9bc
00000100: fa11 2c3e e520 ad3b f896 b83c 5535 22bd
00000110: f869 18bd 2aac 6abd 10e1 58bd 3fb4 64bd
00000120: 6008 f9bd bb47 cf3d 67a8 6abc 7e6a edbd
00000130: 8fe2 7a3d 9476 78bd 0481 3e3d 482e 0ebd
00000140: e055 4bbe 015a bfbc cfc5 103e 44ad 453d
00000150: 5a8e 9abd 5ba1 5c3d cf8f 0e3d a235 edbd
00000160: f829 38bd 8546 46bc d199 b7bb 3922 84bc
00000170: 429f 383e 09a6 c7bd 6458 13bd 56a3 0fbe
00000180: ee36 8c3e 8794 903e 3eb6 0bbd 3590 213e
00000190: 089a 1bbe 0454 f03d e68b 023c 2432 913e
000001a0: e155 4ebd e44a 3fbd 7f53 2f3e 9b85 7b3e
000001b0: f86a a43e 9501 553e 6f19 d7bd 845d 383d
000001c0: 1be0 56bd 5463 b53d 6a8b 9b3e aebe 62bc
000001d0: 48e4 783e 87f4 453c 6fbf 32bd 628f 853e
000001e0: 63b9 653e 73ef 71bd ce10 8a3d 2dff ee3d
000001f0: fbc9 8ebd 734c ad3e 842c 913d 54b6 9e3d
0.23077889 0.04491746 -0.11150393 0.3111936 -0.09873983 -0.053982016 0.14452334 0.23848467
0.12241335 0.01856753 0.04935961 0.20750374 0.09983403 0.12389025 0.012934573 -0.0051301434
0.102806844 -0.05782636 0.20979176 0.09203328 0.30053854 -0.0025545787 0.033313535 0.2041845
-0.056654926 0.26230127 -0.008295015 0.22145215 -0.052402124 0.031434435 0.12365429 0.015403246
-0.1930838 -0.22253487 0.1264105 0.16257723 0.0048620044 -0.1601206 0.07185784 -0.14734456
-0.0015832382 -0.09577666 -0.04398088 0.10188146 -0.06761003 0.0009306963 0.08213157 0.26053053
0.13684624 -0.12556277 -0.15866788 0.11320973 0.12176674 -0.08514338 -0.13387828 -0.05087924
-0.088492796 0.06129001 -0.026720677 -0.0862333 0.25939658 0.12565257 -0.081555076 -0.022654682
0.16803733 0.0052834623 0.022532925 -0.039601643 -0.037210435 -0.057293095 -0.05294901 -0.05583596
-0.121598005 0.101211034 -0.014322377 -0.115925774 0.06125122 -0.06065996 0.046509758 -0.034712106
-0.19856977 -0.023358347 0.14137958 0.048260942 -0.07546683 0.053864818 0.034805115 -0.11582495
-0.0449619 -0.012101774 -0.005603053 -0.0161296 0.18029502 -0.097484656 -0.035972968 -0.14027151
0.27385658 0.28238317 -0.034109347 0.15777667 -0.15195477 0.11734775 0.007967925 0.28358567
-0.05037487 -0.04670228 0.17121695 0.24562685 0.3211286 0.20801385 -0.10502898 0.04501106
-0.052459817 0.08856836 0.30379802 -0.013839407 0.24305832 0.012082226 -0.043639597 0.26085955
0.22434 -0.059066247 0.067414865 0.11669765 -0.069721185 0.3384739 0.07088569 0.0774962

lstm.bias_hh_l0 f4 [128]
00000000: eefa f63d 15cf 783e 86e5 303e 2fe0 4c3e
00000010: d76a 173d 1622 363d 0fc4 863e ae01 803e
00000020: e5c4 113e b5ff 16be eb33 d63d 8e6c e53c
00000030: 72fb 343e 5a8c af3a 9ce6 db3d 7c20 edbb
00000040: 118a 473e 0e61 883d 9b44 aa3e 122d bdbd
00000050: 1c37 8f3d b282 be3c 171a 863d 1fe5 c63c
00000060: 4276 84bd 3fd3 66bc 1c9b ad3d 4c3d 0b3e
00000070: 181d 82bd 04a1 d93d 0e69 383e d893 813e
00000080: bea2 0a3e ea43 16be 3493 003e 5c61 cabc
00000090: 47a5 b3bd c469 33be 8831 933c b6e9 9bbd
000000a0: 9922 083e c8c7 9dbc 41c7 b0bd d168 333e
000000b0: f6d1 b5bc 2490 c0bc bdb3 fc3d a7ba 0b3e
000000c0: 1207 aabc dbef 013e 148b 0dbe c804 0abe
000000d0: d6c5 503d a3a8 81be e0ae a93d caa3 0d3e
000000e0: 5dfe 1b3d d623 023d 05b9 1ebe b58c d4bd
000000f0: 17f0 b83d 1d51 193e a97c 3e3d 4434 96bc
00000100: 18ca 9dbc fcde b23d 1d35 cfbd 5548 b83d
00000110: b178 753d 8a1a 41bd cdc3 e03d de59 c93d
00000120: 3b03 0ebe 390a a23d e23d 2c3e 407f 61be
00000130: 4005 e9bd 7c28 de3d 48d6 b9bd 0ba2 cabd
00000140: 7dfc 993c 6737 49bd fd8a b73d e76d cabd
00000150: 0fe1 053e 3f4e 00be 8f93 60bd ad90 c2bd
00000160: 678b b53d 9efe da3d d093 b33d ac36 1d3d
00000170: 4ce7 bf3d 5398 aabd 14b6 383e 7ef2 ecbd
00000180: d262 113d e2fa 7c3e bf2d 5d3e db84 7a3e
00000190: 40dc 9ebc 6cde 6f3d 9ab7 823e b65e 85bb
000001a0: e921 683d 24dd b53d b930 833d 4b68 523e
000001b0: 6fe7 7e3e 6982 773e fb0a 8abd 7c88 8c3e
000001c0: d619 f8bc 474e ddbc 3104 983d db33 553e
000001d0: 1242 953e c386 17be eb62 4a3e 9e5b 533e
000001e0: b8d2 993e 38e1 113e 8007 45bc 3efa 6d3d
000001f0: 55bc b83d 5fe3 5f3e 8b4c 9a3c b74c 783e
0.1205958 0.24297746 0.17275056 0.20007394 0.036967125 0.0444661 0.26321456 0.25001281
0.14235266 -0.14745982 0.10459121 0.028005864 0.17674044 0.0013393268 0.107373446 -0.0072365385
0.19486262 0.06659137 0.33255467 -0.09237112 0.06992933 0.02325568 0.06547945 0.024279175
-0.064678684 -0.014088451 0.084768504 0.13597602 -0.063532054 0.106264144 0.18008825 0.25308108
0.13538644 -0.14674345 0.12556154 -0.024704628 -0.087717585 -0.17520815 0.017967954 -0.07612936
0.13294448 -0.019260302 -0.08631755 0.17520453 -0.022194844 -0.023506232 0.1233897 0.13645421
-0.020755325 0.12689154 -0.13822585 -0.13478386 0.05096992 -0.25323972 0.08285308 0.13832012
0.038084377 0.031772457 -0.15500267 -0.103784 0.090301685 0.14972349 0.046505604 -0.018335469
-0.019261405 0.08733937 -0.101175524 0.08998171 0.059929553 -0.04714445 0.10974846 0.09831594
-0.1386842 0.07912106 0.16820481 -0.22021198 -0.113779545 0.108475655 -0.09074074 -0.098941885
0.018797154 -0.0491251 0.08962057 -0.098842435 0.13074134 -0.12529849 -0.054828223 -0.09500251
0.088644795 0.106930956 0.08768427 0.038382217 0.09370288 -0.08329835 0.18038207 -0.11569689
0.035494633 0.24705079 0.21599482 0.24464743 -0.019392133 0.058561727 0.25530702 -0.0040701283
0.056672964 0.0888007 0.064057775 0.20547597 0.24892972 0.24170841 -0.067403756 0.2744788
-0.030285757 -0.027014865 0.074226744 0.20820563 0.2915197 -0.14797501 0.19764297 0.20640418
0.30043578 0.1424607 -0.012025714 0.058099978 0.090202965 0.21864079 0.018835327 0.24248014

lstm.weight_ih_l1 f4 [128, 32]
00000000: 9cf2 8fbd 77d4 483e f466 a0bd 80ce a83d
00000010: 5ebf 263e 8c21 88be 86c1 4abd 28cd 83bd
00000020: fbbe 933d 6641 0a3c 6c92 53be 0069 c23d
00000030: 34b1 5b3d a0f7 a93c 58ec 2e3e 3841 3dbe
00000040: de55 00bd 7847 49be 889f 343e b260 773d
00000050: 8855 813c e035 c3bd cefb 9bbd 88b0 9b3d
00000060: 0288 65bd fbf0 c7bd 3d86 f8bd 3c9f 5e3d
00000070: 688e 703c d66a d53d de5c fabc 22fa 29be
00000080: 2f4d d0bd ea97 00bc 4076 82bd 5170 923e
00000090: 0966 003e acd4 5bbe 0faa 1b3e 464e d43c
000000a0: 4798 e83d 4e9b 88bd 2939 a2bd 7615 3a3d
000000b0: 1bf5 973e 2638 003b 9e2e 363e 70d2 363d
000000c0: a3fd 093d c61b 9bbd 44fe a03d 50d6 1b3d
000000d0: 776c 30be 7d23 2f3d 8373 9c3d ccd1 9ebd
000000e0: 1432 7c3d 7e1e f5b9 2a5e 1dbd 34ae 383d
000000f0: cf81 e33d 6d73 e83d 1cd0 343e 1e52 3dbd
00000100: 4020 05be 169c 373e 48cc c3bd c0ec 263e
00000110: 52fd bd3d f0b5 b2bd f802 0abe 9f96 be3c
00000120: b703 fcbc 7bef edbd c9d3 dd3c 0374 023d
00000130: 3e5a 183e a888 4f3e cdca 7ebd bd84 a4bd
00000140: 48ed 5cbd ee77 f3bd db1b 92bd 3cce 743d
00000150: 4abd e73d dbc7 a2bd 3fdd 24be 77d5 19be
00000160: 6f46 c8bd 1b90 48be 7edd 78bc 35a9 a13b
00000170: abed 253e 5fbd 113e 64b0 693e e9a4 c53d
00000180: 9d7c c4bd c07d 1bbc 009b 02be b756 f73d
00000190: 5fb9 4abd bc79 33be 2fc2 c43d 193f bb3d
000001a0: 10ca db3c b8fb f53c caaf cdbd 1bc4 503e
000001b0: 3620 ccbc 2959 603c 5543 cc3d fd2c 903d
000001c0: 590d 8c3d b87f 4cbd 57de 0d3d f4ee 6b3d
000001d0: c87a 03bd e5b3 d33c 2d55 66be aa49 b2bd
000001e0: 2432 4f3e 17ba 3e3e fd47 0e3e 9ee5 31bd
000001f0: 5e44 2e3c ef0b abbc c65e 9fbd 899a 173e
00000200: 1324 70be f135 6b3d 9d58 4cbd 0fab 4c3d
00000210: 0e43 8cbd fd5f 89bd 0305 393e 1826 e2bd
00000220: b0dd 923d a0f1 04bd d473 65be b464 593e
00000230: a687 3e3e 82e9 053c 8d23 18be aae7 0fbe
00000240: 2fc6 503e 70aa 1f3e a4ee 6ebe dd51 26be
00000250: 0e8c 0a3e c73d f5bd ce9b 7b3c 412f c4bc
00000260: d424 40be 42b5 8b3c f823 0fbd 0190 57be
00000270: d558 183e 1a8d d7bd ee6f 01be 064d 48be
00000280: 2882 8dbd 6c2d 053d f4ac a9bb 0cdf 573c
00000290: eb53 ae3d 9c72 37be feba fabd e9c7 9c3c
000002a0: cc8f c73d c1ff 493b fef6 5d3d 9ac1 6d3e
000002b0: aa03 203d 91a0 6cbd 5497 9a3d a37e 873c
000002c0: 14a6 563e 8d2b 99bd fd93 5c3c 0e05 023b
000002d0: 630b be3d 74b5 d03b 4487 4bbe a158 dbba
000002e0: cb15 343e 2e63 0d3c 5299 8f3d d773 9fbd
000002f0: 9e0e 88bc 6584 de3d a10f 073e 7eb1 75bd
00000300: 519a 87be 9a8f 1c3e 315c 58be 1abb cb3c
00000310: 11e1 573d 2523 343d caf2 023d fbb0 34be
00000320: 830a 393e e9aa 11be 37ff cc3d 31da a5bd
00000330: d78d 6e3e 0b08 63bd 139f 873d d6ea 793d
00000340: fe59 0e3e 0dfe bc3c aa69 a5be bc5f 6dbd
00000350: 9cff 423e 12d4 5c3c 516a 30bd 85c0 58be
00000360: 3437 3bbe a323 043e 772f e63c fc3a 17bd
00000370: a14b 42bd 22bc 9e3d 6c62 453d 3d83 153d
00000380: e4d6 8bbe 7972 78bc 91fc 3fbe 6cbc 683e
00000390: 46e1 c73d 3261 68be ec46 533e 1610 183e
000003a0: 0d95 063e 3685 18bc 2016 37bd 0f9e c7bc
000003b0: 9785 813e 8db4 e83c 0eb8 8b3d a3c9 bdbd
000003c0: 4fbc bdbc dff4 c4bd 295b 61be b404 313e
000003d0: 633c 8abe 9af3 27be 460e 92be 06c9 80bd
000003e0: b640 12be dc53 41be d241 25bd ba89 0bbe
000003f0: ce7e 99bd e7d5 8ebc 309e 343e 0b80 ab3d
-0.07028696 0.19612299 -0.07832137 0.08242512 0.16283938 -0.26588094 -0.049500965 -0.06435615
0.07214161 0.008438444 -0.20661324 0.094926834 0.05363579 0.02074796 0.17082345 -0.1848191
-0.03133189 -0.1965617 0.17638981 0.06039495 0.015787855 -0.0953176 -0.07616387 0.0760203
-0.05603791 -0.0976276 -0.12134979 0.054351076 0.01468239 0.10420768 -0.03056186 -0.16599324
-0.101709716 -0.007848719 -0.06370211 0.28601316 0.12538923 -0.21467847 0.15201591 0.02591623
0.113571696 -0.06670247 -0.07921059 0.045430623 0.29679188 0.0019564717 0.1779122 0.044634283
0.033689152 -0.07573657 0.07860997 0.03804618 -0.17228876 0.042758454 0.076392196 -0.07754859
0.061571196 -0.0004675276 -0.03841988 0.045088008 0.111087434 0.11350141 0.17657512 -0.04622089
-0.13000584 0.17930636 -0.09560448 0.1630125 0.09276833 -0.08726108 -0.13477695 0.023265181
-0.03076349 -0.11617943 0.027078526 0.03184892 0.14878175 0.20266974 -0.062205125 -0.0803313
-0.053937227 -0.11888109 -0.07134219 0.059766993 0.11315401 -0.07948276 -0.16100024 -0.15022837
-0.09779059 -0.19586222 -0.015189527 0.004933501 0.16203944 0.14232396 0.22821194 0.09650595
-0.095940806 -0.00949043 -0.1275444 0.120770864 -0.04949319 -0.17526907 0.0960735 0.09142894
0.02682975 0.030027255 -0.10043295 0.20387308 -0.024917703 0.013693132 0.0997378 0.07039831
0.06838483 -0.04992649 0.034635868 0.05760093 -0.032099515 0.025842616 -0.2249343 -0.087054566
0.20233971 0.18625675 0.13894649 -0.04343187 0.010636417 -0.020879714 -0.077817485 0.14805044
-0.23451261 0.05742449 -0.049889196 0.04996782 -0.06848727 -0.067077614 0.18068318 -0.11042422
0.0717119 -0.032456994 -0.22407466 0.21229821 0.18606433 0.008173348 -0.14857312 -0.14053217
0.20388101 0.1559236 -0.23333222 -0.16242166 0.13529989 -0.11974674 0.015356971 -0.023948314
-0.18764049 0.017054204 -0.03494641 -0.21051027 0.14877637 -0.1052496 -0.12640354 -0.19560632
-0.06909591 0.03251402 -0.0051780883 0.013175737 0.085121 -0.17914814 -0.12242697 0.019138293
0.09744224 0.0030822607 0.05419063 0.23218384 0.039065994 -0.057770316 0.07548395 0.016539877
0.20961791 -0.0747901 0.0134630175 0.0019839439 0.092795156 0.006369287 -0.19875818 -0.0016734787
0.17586438 0.008629603 0.070116654 -0.077857666 -0.016608533 0.10865096 0.13189556 -0.059983723
-0.26484922 0.15289155 -0.21128918 0.02486949 0.052704874 0.04397883 0.031969823 -0.17645638
0.18070416 -0.14225353 0.10009616 -0.08098257 0.23296295 -0.055427592 0.06622138 0.061014973
0.13901517 0.02307036 -0.32307178 -0.057952628 0.1904282 0.013478296 -0.04307014 -0.2116719
-0.18282777 0.1290422 0.028098805 -0.036921486 -0.047435407 0.07750727 0.048189566 0.03650211
-0.27312386 -0.015164011 -0.1874869 0.22728127 0.097597644 -0.22693327 0.20632523 0.14849886
0.13142796 -0.009309104 -0.044698834 -0.02436736 0.25297233 0.028406406 0.06822215 -0.09266975
-0.023161082 -0.09617018 -0.22007431 0.1728695 -0.26999196 -0.1640152 -0.28526515 -0.06288342
-0.14282498 -0.18879646 -0.040345974 -0.13626757 -0.07494889 -0.017435981 0.17638469 0.08374032

lstm.weight_hh_l1 f4 [128, 32]
00000000: 3a19 063e 9ad1 34be 098d 373b 8985 183e
00000010: 65ee bbbd 8448 91bd 8b8e fb3b 6358 033e
00000020: a054 023e 9ce4 bf3d f703 1fbe 52bc 163e
00000030: 72c4 163d 0d7f 02bd 4d29 a03d f703 943c
00000040: 608a 1b3d df6f 91bc 2ff5 b33d 1385 2fbc
00000050: e559 da3d 0aee 12bd f2c1 0d3e 1bbc fa3c
00000060: 15dd 0a3e e189 6cbd 6722 a23c 101e a3bd
00000070: 4906 493e aa05 f73d 72e6 313d c87c 20bc
00000080: 9823 c0bd b4ef 333e 4da5 d9bd 716e 0abc
00000090: 5e34 2dbe 0bfc abbd 13dc 303d 6c68 b23c
000000a0: 4bdd 4e3e 4707 d5bc 926c 5f3e 1f2f 363d
000000b0: c553 10be 1158 2a3d eeb4 20be c439 0a3e
000000c0: 4820 433e 1d2b 103e 15bb 38bd 4759 58be
000000d0: 332e 0c3c 7ad9 5ebd ca8d 663e 3cf7 733d
000000e0: 7dba ae3d 06e6 f3bd 5e29 213d caca 83bd
000000f0: 701c b3bd 648d 073e aa50 eebd 4d80 0bbe
00000100: f3c6 963d dfaa 543e a95d 90bd 28e7 22be
00000110: e87d cebd 8f4e 1c3d 0e9e 1bbd e8df b3bd
00000120: 99b9 90bc a6ad 0fbd db5c 1c3e 42e8 f1bc
00000130: f778 853d eb0c 4e3e 72f0 803d 28eb e4bc
00000140: 7c9e 65bd 4fca 28bd 9929 2f3e 995e 58be
00000150: faa5 1ebd 23c0 4e3e 5197 9bbd 4a60 463d
00000160: ebaf 843c 8bb3 3dbd 8bd0 733d 7837 1a3e
00000170: 4f7d 36be a6b3 54be f0a2 adbc 5648 c5bd
00000180: 34d6 33be d1f0 413c 6bef 8e3c ccc9 41be
00000190: 0c38 7abe fb01 a5bd a862 0c3e 478a a9bd
000001a0: 6c6d f0bd 9b72 03be 2031 88bd 2abc 68bc
000001b0: e58d 333d d016 dcbd 4fba d5bd 9b06 a5bd
000001c0: a3e7 5e3d 5a09 59be d04e 80bd 98b1 6fbd
000001d0: c248 edb9 a05b ed3d 8de1 953c 51b6 433e
000001e0: 513b 09be f5a5 023e e936 9d3d a5bb 0cbd
000001f0: 7721 993d 17f2 51be fbbd 95bd 4389 7abe
00000200: b905 aebd ad63 973d cace adbd 350b 5b3c
00000210: 6c49 04be bd7c 4dbc 01c2 2c3d 8989 293e
00000220: 3667 513e 1dc0 62be 1b65 6d3a 408e 89bd
00000230: e2de 8f3d a2e9 4b3d c76f a0bd e554 98bb
00000240: 1e43 023e 456a 113e 0dd1 9cbd e7b3 d13d
00000250: 09f7 2e3e dbb4 463d 688f b5bd eacc 903d
00000260: 54d5 233e f72d fbbd a0a2 c33d ae9b eabd
00000270: b17a 0fbe ac5b 0bbe b923 e23d 34dc ef3c
00000280: 69c0 1fbe fb4c 313e c1e9 aa3d a5b8 02bd
00000290: 7abb 4cbe fba6 0c3e cce2 e6bd 2600 10be
000002a0: d209 3c3e 1c94 253d 0ee2 353e 7b05 1abd
000002b0: d676 193b f88c c53d 733b 15be 6698 a13c
000002c0: 9815 033e 9be0 8ebd 394a 213e 2792 65be
000002d0: 3bbb dfbd d53a dfbc 38f9 753e 53b5 0f3e
000002e0: 0a98 cb3d 3817 b13b 7c51 36bd 64bb ca3d
000002f0: ddf8 27be 9378 cabd 8b33 27be 1a63 5ebe
00000300: e375 df3c 4e09 513d f20a 1bbe b7c2 913d
00000310: 92b7 61bd f5c3 363c bc4c 043c 096e 0a3e
00000320: 3b3c b1bd 84ce 783c c0c3 91bb d473 3dbe
00000330: 2348 45be c4dc 5a3e 0785 e43d 9aa9 a53c
00000340: 7d2b 173c 815f 3abe 4d6f 583e 0056 24bd
00000350: 03d2 4b3e 48b5 7f3d 0415 0a3d b367 db3c
00000360: b9ca efbc 4390 34bc ff68 ccbc dfb9 3f3d
00000370: 491e 65be a590 24bd 2e94 efbd 84d0 753c
00000380: 5ccf 983d 9eb1 203e 4492 e5bd b7e1 dbbc
00000390: 7b1f 103d e9af 093e 5a80 d03d 36ea 00bd
000003a0: a84e 883d 9e0d 9e3d f21b 29be 2d2e 3e3e
000003b0: 0b98 193e 22ad 1bbd 9d04 1839 9bdb a43c
000003c0: ba4a 18bb 396d 2a3d 5a61 8ebd 9549 2cbe
000003d0: 4efd 72bb 17dc 3a3e aa02 2f3e 8a54 8abd
000003e0: 2c59 ea3d 1b60 96bd 3d3b c9bd 603a b73d
000003f0: cee0 f3bd e57d febd b8e0 96bd 8d4c f8ba
0.1309556 -0.17658082 0.0028007647 0.1489469 -0.091763295 -0.070939094 0.0076769046 0.12826686
0.12727594 0.09369776 -0.15528856 0.14720276 0.03680844 -0.031859446 0.078203775 0.018068297
0.03797376 -0.01775354 0.087869994 -0.01071288 0.10661677 -0.035871543 0.13843516 0.030607274
0.13560899 -0.05774868 0.019791795 -0.07964718 0.19631304 0.12061627 0.04343266 -0.009795375
-0.09381789 0.17571908 -0.10627232 -0.008449183 -0.16914508 -0.08397683 0.04317863 0.021778308
0.20201604 -0.026004447 0.2181876 0.044478532 -0.14094456 0.041587893 -0.15694019 0.13498598
0.19055283 0.14078946 -0.04510029 -0.21127807 0.008555937 -0.05440662 0.22515026 0.059561953
0.085316636 -0.11909108 0.03934609 -0.06435163 -0.087456584 0.1323753 -0.11636479 -0.13623162
0.07362165 0.20768307 -0.07049114 -0.15908492 -0.100826085 0.038160857 -0.03799253 -0.08782941
-0.017666625 -0.035077713 0.15269797 -0.029529694 0.06517213 0.20122115 0.06295861 -0.027944162
-0.056059346 -0.04120856 0.17105712 -0.21129836 -0.038732506 0.20190482 -0.07597221 0.048431672
0.016197165 -0.046313804 0.059525054 0.15060222 -0.17821239 -0.20771655 -0.021195859 -0.096329376
-0.17562181 0.0118372 0.017448148 -0.18924636 -0.24435443 -0.08057018 0.1370951 -0.082783274
-0.117396206 -0.12836687 -0.06649995 -0.014205018 0.043836493 -0.10746539 -0.10435926 -0.080579005
0.054420125 -0.21194974 -0.06265032 -0.058518976 -0.0004525837 0.11589742 0.018296028 0.19112517
-0.13401534 0.1275862 0.07676489 -0.03435864 0.07477086 -0.20502506 -0.073116265 -0.24466424
-0.08497185 0.073920585 -0.084867075 0.013369371 -0.12918633 -0.012541947 0.042177204 0.16556372
0.20449528 -0.22143598 0.00090558984 -0.06716585 0.070249334 0.049783356 -0.0783382 -0.004648792
0.12720916 0.14200695 -0.07657061 0.10239392 0.17086424 0.04851232 -0.08865243 0.07070334
0.15999347 -0.122646265 0.09552503 -0.11455475 -0.14011647 -0.13609189 0.1104197 0.029279806
-0.15600742 0.17314522 0.08345366 -0.031914372 -0.19993392 0.13735573 -0.11273727 -0.14062557
0.18363121 0.04042445 0.17762014 -0.037602883 0.002341678 0.09646028 -0.1457346 0.01972599
0.12801206 -0.06976434 0.1575097 -0.22419034 -0.10924383 -0.027249733 0.2402085 0.14034013
0.099411085 0.005404379 -0.044511303 0.09899023 -0.16403528 -0.09886279 -0.16328256 -0.21717492
0.027277892 0.051034264 -0.15140894 0.07117217 -0.055106707 0.011155118 0.0080749355 0.13518538
-0.08654066 0.015185956 -0.004448384 -0.18501216 -0.19265799 0.21373278 0.111581855 0.020222474
0.009226677 -0.18200494 0.21136208 -0.04012108 0.19904332 0.062428743 0.03371145 0.026782846
-0.02927147 -0.011020723 -0.02495241 0.04680812 -0.22374834 -0.040177006 -0.11698185 0.015003327
0.07461426 0.15692756 -0.112095386 -0.026841028 0.035186272 0.1344601 0.10180731 -0.03147336
0.066556275 0.07717441 -0.16514567 0.18572302 0.14999406 -0.03800691 0.00014497568 0.020124247
-0.00232379 0.04160807 -0.06952162 -0.16824944 -0.003707725 0.1824802 0.1709086 -0.06754406
0.114427894 -0.073425494 -0.09825752 0.08946681 -0.119081125 -0.12426356 -0.073670805 -0.0018943712

lstm.bias_ih_l1 f4 [128]
00000000: ff30 bc3c 04a1 683e 75b1 ebbb 4ef6 27bc
00000010: b3ba 91bd c0b2 283e cbca 253c cf63 c5bd
00000020: 571c 44bd 7b2e f8bd c769 343c 63d6 d2bc
00000030: a968 c93d 1d37 583e 3649 c03c 9426 a1bd
00000040: 9fb2 9dbd 610b 933c e8a3 5a3e a22e 343e
00000050: bcbe 0c3e 571b 443e f5f3 773c 1972 693e
00000060: 78d7 e43d 8786 98bc 74da eebd 7ef8 5f3e
00000070: 75c8 9c3d 64ac 4b3e 1719 91bd 10df 6dbd
00000080: 1d19 7cbd 267c 7fbd 8433 d43d 12d2 7a3d
00000090: 34e8 c33c 9bee 45bd abf8 223d d02a 5fbe
000000a0: b233 64be 4967 de3d ddd9 c1bc b1be 13be
000000b0: 2bfe e23d a5d0 b3ba 763c 743d 37f9 1ebe
000000c0: e9ba 30be 04f6 02bd 4fc7 6cbe e7ea 93bd
000000d0: 6354 0cbd edf6 1d3c 13f3 4d3b b01f 0bbe
000000e0: 07ed a3bd 981d 7abd c32b e93c 7cd8 213d
000000f0: bc71 90bd b55b 5ebd 2ee2 a9bd a967 4dbd
00000100: 7b9a 113e 7a3a 21be 07cc 203d 1975 33bd
00000110: f771 873d e6b9 283c 6962 bdbd a645 f73d
00000120: 6077 cb3d c20d 133c 73ee 943d debd 44bd
00000130: 9e35 0fbe 99a9 7cbd c386 7cbd 5d60 d33d
00000140: 09fa 1c3e f0b0 a2bc b925 213e 21ef 12be
00000150: 2891 96bd 8535 473d 3546 bd3d 840e c33d
00000160: 3286 bf3c d9d2 c13d 0d94 3e3d 9be4 abbd
00000170: 0129 583a 635f 2c3d be6f 1a3e b24f 4a3c
00000180: c2fc 363e ecbc 733e 2e79 783e 0e03 d7bd
00000190: 2743 b3bd 2ab5 883e e1b8 2a3e 11b5 a2bd
000001a0: f94b e4bd 0e5c 053e c85b 0d3e 11a3 873e
000001b0: 8564 313e 58fd 8a3e ca64 d83c a957 d53d
000001c0: d2c0 763e bf82 09bd d9e2 013d 9b86 9e3d
000001d0: 9c90 6d3d a45b 04bd 0c6e 803e cb5a 473e
000001e0: be26 913c 135c 2ebd 823e 0bbe 91a3 b03b
000001f0: 1c2b 9d3d 7355 b93d f8c6 6f3e 07ba 9d3d
0.022972582 0.22717673 -0.0071927854 -0.010251595 -0.07115688 0.16474438 0.01011915 -0.096381776
-0.04787859 -0.121182404 0.011011547 -0.025736993 0.098344155 0.21114774 0.02347241 -0.07868686
-0.07700085 0.017949762 0.21351588 0.17595914 0.13744634 0.19151054 0.0151338475 0.22797431
0.1117391 -0.018618835 -0.116627604 0.21872136 0.07655422 0.1988998 -0.07084864 -0.058074057
-0.061547387 -0.062374257 0.10361388 0.061235495 0.023914434 -0.048323255 0.03978793 -0.21793675
-0.22285345 0.10859544 -0.023663456 -0.14428212 0.11083635 -0.0013718797 0.059627973 -0.15524755
-0.172588 -0.0319729 -0.23122905 -0.072225384 -0.034260165 0.009641391 0.00314254 -0.13586307
-0.08004194 -0.06106338 0.02846325 0.039513096 -0.07052943 -0.054286677 -0.082950935 -0.050147686
0.14219086 -0.15744963 0.039257076 -0.043812845 0.06613534 0.010298228 -0.09247286 0.12073831
0.09934878 0.008975448 0.07272043 -0.048032634 -0.13985297 -0.06168518 -0.061651956 0.10321114
0.15329756 -0.019859761 0.15737046 -0.14349033 -0.07351905 0.048635025 0.092419066 0.09524253
0.023379419 0.09464044 0.04652791 -0.083932124 0.0008245856 0.042083155 0.15081689 0.012348102
0.17869857 0.23802537 0.24264976 -0.104986295 -0.08753043 0.26700717 0.16672088 -0.07944692
-0.11147303 0.13023397 0.13804543 0.26491597 0.17323501 0.2714641 0.026415247 0.104171105
0.24096993 -0.033571955 0.03171048 0.07740518 0.05799924 -0.032313958 0.2508396 0.19468229
0.017718669 -0.042568278 -0.13598064 0.0053905924 0.07674238 0.09049501 0.23415744 0.077014975

lstm.bias_hh_l1 f4 [128]
00000000: ab93 c93c 17e5 563d 8076 103e c44a 8f3d
00000010: 5b53 0fbe a21d 713e 73b0 023e 8337 4e3e
00000020: e6dd 2e3d 81c2 a6bc 491e 6cbd 19a8 6c3c
00000030: 2d43 3b3e 48e0 123e ce64 f53d abb5 ef3c
00000040: 6fa0 103e bc1b 603d 7d6c 353e f871 00be
00000050: 6355 b43d c750 263d a172 76bd 0971 3bbd
00000060: 4cbf 1d3e d833 f1bd 5b8a 943d 8480 b5bd
00000070: e67f 673e 9a50 ad3d 275e 61bd 66f3 193e
00000080: 8606 fd3d cd2b 4dbd 663d 2e3e c7f6 1f3d
00000090: d8e5 41bb 6232 0ebe 7668 38be 655e 44be
000000a0: 5c58 5bbe f116 ac3d 5896 6abc a504 d93d
000000b0: 1380 c93d ac23 83bd 95b3 fa3d 83a4 3cba
000000c0: a1e6 4fbd 9335 f23d d7bb 04be 2f53 b73d
000000d0: 424e 2c3e 6d8d eebd 226c 20be 652a b9bd
000000e0: f384 bbbd 042a 55bd ace6 4d3e 73a1 b7bd
000000f0: 371c d03b 6fb1 243c 94dc d33c 2fc9 4ebe
00000100: c3dc d3bd 1aef 243e d055 15be 6293 ac3d
00000110: 4eaa 14be fc85 bc3d f5b3 8a3d 416d f1bd
00000120: 2304 113e 95e8 c9bd 3894 3c3d 4ab7 f73c
00000130: c66d e53c 534c d23d ce68 da3d db54 b7bc
00000140: 2854 c83d 22c1 d4bc 0431 9abd 568f 3b3d
00000150: d915 0e3e 6fc9 9d3c 6b7a 6fbd d586 bbbd
00000160: cc98 de3d d51e efbc 220b 3c3d d3c4 53bd
00000170: 51ae 36bd 70bb 0e3d 1706 1cbe c2bb b5bd
00000180: 096f d43d 71c7 363d 45ec 563e 5b0c 383e
00000190: e161 823d 9516 093e 707c db3a 6d3c 2ebd
000001a0: 5884 bd3d 7448 163e 71d6 bd3a 9f4f 413e
000001b0: 77ba 353e 90d0 2e3d 4e44 153e 3737 ca3b
000001c0: bc04 643e 828c 7dbb 4cb2 7d3e 0230 e13d
000001d0: e35d 9abc 97ad 823e c5d1 d33d d57f 473e
000001e0: 031c 9ebc c7bd 5a3e 2f26 ae3d b6ce 9cbc
000001f0: c712 b43d c8f3 55bd 29a8 d1bd f555 b03d
0.024606546 0.05246457 0.14107704 0.06996682 -0.13996641 0.2354646 0.12762623 0.20138364
0.042692088 -0.020356419 -0.05764607 0.0144443745 0.18287344 0.14343369 0.119821176 0.02926143
0.141237 0.05471395 0.17717166 -0.12543476 0.08805349 0.04060438 -0.060167912 -0.045762096
0.15405005 -0.117774665 0.07252952 -0.08862403 0.22607383 0.08462639 -0.05502143 0.15034255
0.1235476 -0.0500906 0.17015609 0.039053705 -0.002958646 -0.13886407 -0.18008599 -0.19176634
-0.21420425 0.08402813 -0.014318071 0.10596589 0.09838881 -0.06403288 0.12241284 -0.0007196145
-0.050757054 0.11826625 -0.1296228 0.08951413 0.16826728 -0.116480686 -0.1566625 -0.09041289
-0.091562174 -0.052042022 0.20107526 -0.08966341 0.0063510197 0.010052069 0.025862016 -0.20193933
-0.10344841 0.16106835 -0.14583516 0.084265485 -0.14518091 0.09205243 0.06772605 -0.11788417
0.14161734 -0.098588146 0.04603979 0.030238766 0.028006446 0.10268464 0.10664521 -0.02237933
0.097816765 -0.025971 -0.0752888 0.045790993 0.13875522 0.01926109 -0.058466356 -0.091565765
0.108689874 -0.029189507 0.045909055 -0.051701378 -0.044599835 0.034846723 -0.15236698 -0.088737026
0.10372741 0.044623796 0.20988567 0.17973463 0.06366325 0.1338752 0.0016745459 -0.042538095
0.09253758 0.14676076 0.0014483464 0.1887803 0.17746912 0.04267937 0.14576837 0.006171133
0.22267431 -0.0038688486 0.24775046 0.10995485 -0.018843597 0.25523064 0.10342745 0.19482358
-0.019300466 0.21361457 0.08503377 -0.019141536 0.08792644 -0.05223444 -0.10237152 0.08610145

lstm.weight_ih_l2 f4 [128, 32]
00000000: 20c1 64be d084 abbd 6034 a7be 396b 6fbe
00000010: 411c d4bd fc4b 6fbc 2a6d 27bb c439 ea3b
00000020: 0720 0a3c 463b e7bd a45d 9bbd c8a8 203d
00000030: 3afe 65be f965 b63d 71e9 483e 6535 b33d
00000040: e2c2 583e f154 2dbe bb8c 103e a865 aabc
00000050: fda2 483e ec8e 563d 57d5 583d 6493 7b3e
00000060: dfba 933d d5b3 cd3b b69f 473e 6222 92be
00000070: 7891 43be 8f87 70be bb79 59be a25a 26bd
00000080: f904 8abd 068e ff3d ba0e 203e 4182 6b3d
00000090: e54c 5bbd 1f08 f43c 3fc9 1c3e fc0c 01be
000000a0: 1741 a73c cf3f 46bd 18d1 593e 089c 74bd
000000b0: 34a4 00be 7a3f a6bd ac8d ae3d eb5e 96bd
000000c0: bf42 09be 559a 22be 4873 933b 7a88 4ebd
000000d0: e0ab 473d 7adf 1ebd ad2e 2b3e 4f7e 323e
000000e0: 0558 debd 696a b23c a830 a63d 2b9a d6bd
000000f0: afe0 7d3c a36c 98bd 8edd 24be dc71 083d
00000100: d87d 77be 20ce ac3d 04bd b4bc 01be 3bbe
00000110: 2fcb 0838 d13e 85bd 975c 203e 7bbe 2c3e
00000120: d808 01be fee8 8dbd 5b65 84ba 73c4 8f3d
00000130: 9ea1 50bd 9a8d 333e 21c6 65bd efeb ae3e
00000140: fc47 333c 840d a9be 4b02 193d c566 37be
00000150: a9f0 183e 7993 f63c a5e2 6e3d 3450 b3bd
00000160: 594f 9fbd fcb1 e03d 2c16 f93d 2a4e 023e
00000170: 024e 4c3e ea02 29be aa22 4f3d 51b9 203d
00000180: 682e 3cba 2912 2e3e c44b 38be 23aa 70bd
00000190: 3d1e 58be d055 1f3e c06f 03bd bc56 46be
000001a0: 7cab 463d 3f53 2fbe 672b 223d 7818 bbbd
000001b0: 92c3 0dbd 2754 493e d7df a0bd b58b 173e
000001c0: 6e5f 453e 1d64 debd 08f1 0d3d abda 68be
000001d0: a033 9c3d 70e5 313e 57f3 393e 7c8c 983d
000001e0: 45dd ca3d 32ab 383d 90cc 21bd c063 73be
000001f0: 29f7 f0bd 645c abbd 42f5 2ebe b9b5 4ebe
00000200: a57d 87be 8e6f 073e 687e 73be 35a3 acbd
00000210: 1544 65bc 9e9d 033c b05b 513d f9ae 3fbd
00000220: d07d eb3d cb91 48be e06b da3c 7b2c 90bc
00000230: 58b7 84be 6d8d d1ba d804 fe3d c525 bb3c
00000240: c28f 623e e57b 83bd 72ff 093d 6017 a1bd
00000250: dba9 083e caa3 bcbd e32f f83c 9158 cf3d
00000260: c5d5 e3bd cd19 e23d 0e13 8dbc 8a30 7cbe
00000270: ec13 67bd b583 02bc ca23 70be cea2 7abe
00000280: 1bc8 e0bd f7e9 7c3e eb49 16be 18d7 55be
00000290: 16a1 973c f433 8b3e a69b ad3e 5c5f 973e
000002a0: 74a7 053e a634 97be 97c3 043e af1f c7bd
000002b0: 3a87 93be b9b2 263c 2a11 a33a 5c15 3f3e
000002c0: b429 643d 4a08 d2bd 04be 13bd 001a 74be
000002d0: 5e6d 713e 76f7 9d3e e194 363d 7b4b 253d
000002e0: 801a 023e 211f 873e 78d6 8b3e 1cf3 48be
000002f0: 37a4 9fbd 6660 bbbe 85e5 92bd 89c0 8bbd
00000300: ce1b 2cbe b9ef cfbc 8766 d5bd ff56 93bc
00000310: 6ff5 02be 7fd6 4e3e 0ba1 883e 4a3c 29be
00000320: 1201 19bd 724c d4bd b90f e93d 3f83 0bbe
00000330: 39ce 1fba fff6 0a3e 4de0 12be aefb ddbd
00000340: 1e70 a03d 7383 47be ca38 94bd ee5e 663c
00000350: 5d7d 5e3e c905 873d fea8 11bc 9303 353e
00000360: 342d 03bd 8ecc 023e 1d8c e33d ede6 febd
00000370: 70f4 5fbe ff87 8dbd 958d c63d a7ca 5c3e
00000380: d2ef 4d3d d3d7 22bd 8352 5bbe f87d bdbd
00000390: 330a bf3c ac9b 7b3e 6402 d839 5bc7 59be
000003a0: 2715 c9bd da6e 79bd 314f 5bbd 895d 44bd
000003b0: 527f 2f3e eae9 993d ed18 f8bc 062c 6d3e
000003c0: ab43 57bd 561a 98be 9714 b8bd 65ce 473b
000003d0: c68d 273e 2e0d 043d 6969 393b 6d3c 93ba
000003e0: 4264 893e a571 983d 093c 2ebe 3263 e9bb
000003f0: 3e25 5fbe 2d74 24be 3789 d3bd 24c1 3ebd
-0.22339296 -0.08374941 -0.32657146 -0.23380746 -0.103569515 -0.014605518 -0.0025547245 0.0071479995
0.0084304875 -0.112906024 -0.0758622 0.039223462 -0.22460261 0.089061685 0.19620301 0.087504186
0.21168092 -0.16926934 0.14116184 -0.020800427 0.19593425 0.052382395 0.05293783 0.24567944
0.07213377 0.006277541 0.19494519 -0.28541857 -0.1909846 -0.23489211 -0.21237843 -0.040613778
-0.0673923 0.12478261 0.15630618 0.057497267 -0.05354013 0.029789029 0.15311144 -0.1260261
0.02041678 -0.048400696 0.21271169 -0.059719115 -0.12562639 -0.08117576 0.085231155 -0.07342323
-0.13404368 -0.15879185 0.0044998266 -0.050423123 0.048747897 -0.038787343 0.16717024 0.17430995
-0.10856632 0.021779256 0.08114749 -0.10478624 0.015495463 -0.07442596 -0.16100141 0.03331171
-0.241691 0.08437753 -0.022062786 -0.183342 3.2614156e-05 -0.06506122 0.1566032 0.16869538
-0.1260103 -0.06929205 -0.0010101007 0.070198916 -0.05093538 0.17534485 -0.056097154 0.34164378
0.010942455 -0.33018124 0.037355702 -0.17910297 0.14935555 0.030099617 0.058321614 -0.08755532
-0.07778806 0.10971448 0.12162432 0.1272513 0.19951633 -0.16505018 0.050570168 0.03923923
-0.0007178546 0.16999115 -0.17997652 -0.058756005 -0.21105285 0.15560079 -0.032088995 -0.19369024
0.048503384 -0.171216 0.039592173 -0.091355264 -0.03461034 0.19661008 -0.07855194 0.14799388
0.19274685 -0.10858939 0.034653693 -0.22739665 0.07627034 0.1737268 0.18159233 0.0744867
0.09905485 0.04508514 -0.039501727 -0.2376852 -0.11765892 -0.083672315 -0.17085746 -0.20186509
-0.26463047 0.13226148 -0.23778689 -0.08429567 -0.013993283 0.008033184 0.05111283 -0.046797726
0.11498606 -0.19586866 0.026662767 -0.017599335 -0.2592113 -0.0015987583 0.124032676 0.022845158
0.22125152 -0.064201154 0.033690877 -0.078657866 0.13346045 -0.09210928 0.030296272 0.101243146
-0.11124758 0.11040077 -0.017221 -0.24627891 -0.056415483 -0.007965972 -0.23451152 -0.24476168
-0.10975667 0.24698626 -0.14676635 -0.20882833 0.018509429 0.27188075 0.33907813 0.2956494
0.1305216 -0.29532355 0.12965237 -0.0972284 -0.28814107 0.010174447 0.0012441028 0.18660492
0.055703834 -0.10255487 -0.036069885 -0.23838043 0.23576877 0.3085286 0.044575576 0.040355187
0.12705421 0.26390937 0.27312064 -0.19623989 -0.07794993 -0.36596984 -0.071726836 -0.068238325
-0.16807482 -0.025382863 -0.10419946 -0.017985819 -0.12788938 0.20199011 0.26685366 -0.16526905
-0.037354536 -0.10366143 0.11379952 -0.13624285 -0.0006096098 0.13570784 -0.14343376 -0.1083902
0.07833885 -0.19483738 -0.07237394 0.014060719 0.2172751 0.065929 -0.0088903885 0.17677145
-0.03202553 0.12773344 0.11110709 -0.12446389 -0.2187059 -0.06910705 0.096949734 0.2156168
0.05027754 -0.039756607 -0.21418194 -0.09252542 0.023320293 0.24571103 0.00041200512 -0.21267454
-0.098184876 -0.060896732 -0.05354232 -0.047940765 0.17138413 0.07515319 -0.030285323 0.23161325
-0.052554768 -0.29707593 -0.08988302 0.003048801 0.16362676 0.03223913 0.002829159 -0.0011233218
0.26834303 0.07443551 -0.17015089 -0.0071224207 -0.2179155 -0.16059943 -0.10328906 -0.046570912

lstm.weight_hh_l2 f4 [128, 32]
00000000: f0af 45be b227 f13d 88d4 1b3e 1b78 313d
00000010: fa8e 343e 8e5f c9bc 0328 18be 62ad f03d
00000020: 5187 803e 787d 68be d773 45be 548a 4a3e
00000030: 52bb 52be 53b1 e0bd 4d75 503d 0e2c 17bd
00000040: 9ed2 d03b 7d43 0abe d439 fbbd 9d8e 3d3e
00000050: d571 fcbd 14cc 373e d0da 8e3d b512 99bd
00000060: 6271 babc 6937 853d 5f53 7e3e 6170 16be
00000070: a330 08bd b151 b53d 2368 eabd bc05 253c
00000080: 64a9 dbbd 00e6 ce3d ff01 f0bd 8022 0e3e
00000090: caec 693d a41c c23c f8d3 49be 28cc 66be
000000a0: 8c15 433e 15ba fbbb d366 ad3d 0e93 593e
000000b0: 2696 50be da30 48be 2898 36be 41c6 ab3d
000000c0: 124b 9d3d d2a8 09be 1023 06be 7fb1 e8bd
000000d0: 8b39 7b3d 0e9e 103e 7b81 1c3e 1fda 34bd
000000e0: a367 5a3d 6473 1ebe 8cb3 87bc 9ef1 a63c
000000f0: de20 0a3d 4c17 893d 2cbd 0abe b5bf 5e3d
00000100: 44db 8ebe 23d1 30bd ff1f 063d 0e0d 39bd
00000110: 1104 bb3c 0dc0 0f3d 716f c63d 0339 ccbd
00000120: f520 003e e479 23be 4c8a 2cbe 4042 7c3c
00000130: 37d2 c9bd 944a 53be 3913 5fbe 49f6 2ebc
00000140: 58cd 85bd 9783 febc 6828 2d3c a35f d13c
00000150: 8dcf 11be 10d3 b53d 4c06 92bd 6fa3 093e
00000160: 5dfa f6bd 43fa 1dbe 2909 85bd 7cba cbbd
00000170: 0ff2 e33d 11f5 7cbd 24b8 e5bd dcbb 023d
00000180: 14ff 9abc 1ef2 c13b 6f02 f13d eee7 ecbd
00000190: cade 613e 6df8 063e 3b5b 7abe 0961 143e
000001a0: 3b8a 253e 975d 43be c885 08be eb49 853c
000001b0: 5be2 3ebe 7c21 efbd 8edc a93d 1d42 71bc
000001c0: 1bc4 b53d 0cf4 30bd c19f 23bd 5666 5f3d
000001d0: 6d8f 0bbe f8d5 62bd eb6c aa3d f53d 053e
000001e0: 413e e03d e5f9 813d a063 a73d 6a23 6f3d
000001f0: 52a7 55be f854 a73d 31c3 783d db11 e43d
00000200: 9245 063e 501c 743e a394 2e3e d1dd c6bc
00000210: 3a8e d1bc 417c dd3d 3b2d 12bd 671c 34be
00000220: 5231 823e 3fb5 efbd f89b 38be fb54 d23d
00000230: 688d 46be 83ba 81be 9fa3 d9ba 84ea e33c
00000240: 1373 8c3d 9fec b53c 57f4 20bd c6ee ee3d
00000250: 315e 3bbe a96a 8a3e bc9f f43d c891 a8bd
00000260: 6b09 23bc 79e4 19be d1c9 073d 6661 92be
00000270: b108 9ebd bb2a e5bc 772e 9e3d ae55 b73c
00000280: 383c ddbd 099c da3d 253e af3d 6731 693e
00000290: e22a 3c3e f89b f53d c83e 85bd c8d8 6fbd
000002a0: 69c7 b23e 29c0 afbe 99d0 5abe 221e d43d
000002b0: 53fa 8cbe 7e8e 54be e66e 64be 6314 033e
000002c0: 79ca a23d 941a 40be 595f 3d3e b05a 983e
000002d0: d4ff afbe dd62 953e 5725 df3e cff4 47be
000002e0: 53e4 83be 43f2 34be f808 a73e c266 ddbd
000002f0: 8bda febd 0d4a 78be 4e27 1c3c 6cde 46be
00000300: e435 24be c2e0 863d 2534 47bd e22f 1a3e
00000310: 1903 6abc 8c11 673d 5d0c 18be 0fd8 6ebd
00000320: 3716 55bd ea93 453d 112f 28bc d55b bcbc
00000330: cbc6 f23c fc71 a8bd 2ef6 3e3d 8e68 d43d
00000340: af40 d13d c52c aa3d e950 5f3d f001 be3d
00000350: 62de a5bd 17ca 0f3d b80c 1e3e 7977 85bd
00000360: f71d 2cbe 3ab0 8abd 2882 08bd bbfe 16bd
00000370: d3cd af3d db36 7d3d 1cd0 f7bd ccce 203e
00000380: 406d 873e 06a2 07be 85f4 193e 191b cf3d
00000390: a2c7 e53d eb83 0abe 466c fe3c 0d05 9dbb
000003a0: c07c c43c 2e45 e6bd 0cb1 1fbb 26b6 a73c
000003b0: 0267 17bc cf8b 1dbc 6d0b d23d 2de1 c5bd
000003c0: 1ad8 a0bd 6c12 d5bd 8c86 17be d152 553d
000003d0: 78b1 81bd c499 05bd c4c8 a4bd dae3 883d
000003e0: 22a0 42be 0c23 cabd 4b04 dcbd ded7 30be
000003f0: e042 1cbc 66e3 e7bd 3e09 29be 25f9 36bd
-0.19305396 0.117751494 0.15217793 0.043327432 0.17632666 -0.024581697 -0.14859013 0.1175182
0.25103238 -0.22704113 -0.1928247 0.1977933 -0.2057927 -0.10971322 0.050893117 -0.03690725
0.006372764 -0.13502307 -0.12266889 0.18511434 -0.12326399 0.17948943 0.06975329 -0.07474271
-0.022759143 0.06504709 0.24836491 -0.14691307 -0.03324951 0.08853472 -0.11445644 0.010072168
-0.10725668 0.10102463 -0.11719131 0.13880348 0.057110585 0.023695298 -0.19709766 -0.22538817
0.19051188 -0.007682095 0.08466878 0.21247503 -0.20369777 -0.19549885 -0.1783148 0.08387423
0.07680334 -0.13443306 -0.13099313 -0.1136198 0.061334174 0.14122793 0.15283768 -0.04415333
0.053321492 -0.15473706 -0.016565107 0.020378884 0.03372275 0.06693897 -0.13548726 0.054382045
-0.2790166 -0.0431682 0.032745358 -0.045178466 0.022829087 0.035095263 0.096892245 -0.099718116
0.12512572 -0.15964466 -0.16849631 0.015396655 -0.098545484 -0.20633918 -0.21784677 -0.010678836
-0.06533307 -0.031068606 0.010568716 0.025558298 -0.1423933 0.088781476 -0.07130107 0.13441251
-0.12059472 -0.15427499 -0.06495888 -0.099476784 0.111301534 -0.06175715 -0.11216763 0.031917438
-0.018920459 0.005918755 0.11768042 -0.115676746 0.22057644 0.13180704 -0.24448864 0.14490141
0.16166012 -0.1907867 -0.13332283 0.016270598 -0.18641035 -0.116763085 0.082940206 -0.014725235
0.08875295 -0.04320149 -0.039947275 0.054540955 -0.13628931 -0.055379838 0.08321556 0.13011916
0.10949374 0.06346492 0.08173299 0.058383383 -0.20864609 0.081705034 0.060733024 0.11136218
0.13112476 0.23838925 0.17048888 -0.024275692 -0.025580514 0.10814715 -0.035687666 -0.1758896
0.25428253 -0.11704492 -0.18028247 0.10270115 -0.1938988 -0.2533761 -0.0016604549 0.027821787
0.06857886 0.022207556 -0.03929552 0.11666636 -0.1829765 0.270345 0.119445294 -0.082309306
-0.009950976 -0.15028562 0.03315145 -0.28589934 -0.077165015 -0.027974477 0.07723706 0.022379722
-0.108025014 0.106742926 0.08556775 0.22772752 0.18375733 0.11992639 -0.06506115 -0.058556348
0.34917763 -0.34326294 -0.21368636 0.1035731 -0.27534732 -0.20757481 -0.2230793 0.12800746
0.07948775 -0.18760139 0.18493403 0.2975669 -0.3437487 0.2917699 0.43583176 -0.19526981
-0.25760135 -0.1767054 0.3262403 -0.10810615 -0.124440275 -0.24246998 0.009530855 -0.19420785
-0.16036183 0.06585838 -0.048633713 0.15057328 -0.014282965 0.05641322 -0.14848466 -0.05831152
-0.05202314 0.048236765 -0.010265128 -0.022993008 0.029635807 -0.08224866 0.046621494 0.10371505
0.102174155 0.0830932 0.05452052 0.09277713 -0.08099057 0.035104837 0.1543454 -0.06516928
-0.16808306 -0.06771894 -0.03332725 -0.036864024 0.0858418 0.061819892 -0.121002406 0.15703887
0.2645054 -0.13245401 0.15034683 0.1011259 0.112197176 -0.13526885 0.031057488 -0.004791862
0.023985267 -0.11243664 -0.0024367003 0.020472597 -0.009240868 -0.0096158525 0.102560855 -0.096620895
-0.07853718 -0.10403904 -0.1479742 0.052080933 -0.063326776 -0.032617345 -0.080461055 0.06684084
-0.19006398 -0.09869966 -0.10743006 -0.17269847 -0.009537429 -0.1132267 -0.16507432 -0.044671196
