model_params/full_model.pth (torch, 99768 bytes, 17 tensors)

lstm.weight_ih_l0 f4 [128, 7]
0	0xbdc8fe26	-0.098141
1	0xbdf8e400	-0.121528625
2	0x3e4d1d90	0.20030808
3	0xbe13b01e	-0.14422652
4	0xbddb781b	-0.10716268
5	0x3b359cf5	0.0027711962
6	0x3daaa73f	0.08332681
7	0xbe351e8b	-0.17687432
8	0xbdbddc48	-0.09270531
9	0xbc121a5e	-0.008917419
10	0xbe30fc26	-0.17283687
11	0xbd7736ba	-0.060354926
12	0x3e0f3894	0.13986427
13	0x3daf3631	0.08555258
14	0x3dd2fb84	0.10301879
15	0x3e6fb98a	0.23410621
16	0xbc3a5bb2	-0.011374401
17	0x3e0745e6	0.13210258
18	0xbd8f7ad4	-0.070058495
19	0xbe673bde	-0.22581431
20	0x3d8f121e	0.069858775
21	0x3d8b5540	0.068033695
22	0x3dd8439a	0.10559769
23	0x3e323cea	0.1740605
24	0xbb442f6f	-0.00299355
25	0x3da515c0	0.08060789
26	0xbd93c5e3	-0.07215478
27	0x3e37cca0	0.17949152
28	0x3dde1ebe	0.10845707
29	0x3e37a713	0.17934828
30	0x3cb50d2d	0.02210101
31	0x3de2ce19	0.11074466
32	0x3cfcb09a	0.030845929
33	0x3cb60445	0.022218833
34	0x3e307012	0.17230251
35	0x3e9a41ca	0.30128318
36	0x3e73cff2	0.23809794
37	0xbd278da0	-0.04090655
38	0x3eaa186c	0.33221757
39	0x3da5604b	0.08075007
40	0x3db58fe7	0.08865338
41	0x3ddfbfd6	0.10925262
42	0x3d908a9b	0.07057687
43	0x3e9ba223	0.30397138
44	0xbccfa345	-0.025346408
45	0x3e998abd	0.2998866
46	0x3e9da314	0.3078848
47	0x3dbf3871	0.09336937
48	0x3d74a489	0.059727225
49	0xbd7b7adf	-0.061396476
50	0x3e338492	0.1753104
51	0x3dcf8688	0.10133082
52	0x3df2254c	0.1182352
53	0x3d866eac	0.06564078
54	0x3e1e339b	0.15449373
55	0x3d20c22c	0.039247677
56	0xbe2bf63c	-0.1679315
57	0x3e6c48a2	0.23074582
58	0xbb088ce7	-0.0020835937
59	0x3c8d2bf0	0.017232865
60	0x3d8fd9a0	0.070239305
61	0x3ddd4794	0.10804668
62	0x3e5de850	0.21670651
63	0x3e9edfd0	0.3103013
64	0x3e3f97d5	0.18710263
65	0xbc08b9e8	-0.008345105
66	0x3dc0bbb3	0.09410801
67	0x3e1a0b18	0.15043294
68	0x3b7de8a7	0.0038743408
69	0xbd4809bf	-0.04883742
70	0xbe2c2f88	-0.16815007
71	0x3e0692d3	0.13141946
72	0x3e6f9a86	0.2339879
73	0x3cab5c94	0.020918168
74	0xbc14968f	-0.009069099
75	0x3dca813d	0.098879315
76	0x3e144b0e	0.14481756
77	0xbdd309b3	-0.10304584
78	0xbd5fa046	-0.054596208
79	0x3e2893fa	0.16462699
80	0x3d3631d2	0.044481106
81	0xbda38fe4	-0.07986429
82	0x3dd06ea7	0.10177355
83	0x3c006c84	0.007838372
84	0x3dea3477	0.11435788
85	0x3d14dc72	0.036343046
86	0xbdfd82c7	-0.123784594
87	0xbc0fd042	-0.00877768
88	0xbae1c203	-0.0017223958
89	0xbd6895a9	-0.056783352
90	0x3e8d34da	0.27579385
91	0x3ed99fa3	0.42504606
92	0xbd04a7d3	-0.032386612
93	0xbcf40fde	-0.029792722
94	0x3ed39b1e	0.41329283
95	0x3a3ae8f3	0.0007130049
96	0x3da7d42d	0.08194766
97	0x3dca5382	0.09879209
98	0xbdeb8223	-0.11499431
99	0xbd678af2	-0.056528993
100	0xbdda6522	-0.10663821
101	0xbe20bc63	-0.15696864
102	0x3e3a8e8b	0.18218438
103	0x3e11daff	0.14243697
104	0x3ddb0c1a	0.106956676
105	0x3d1eea6f	0.038797792
106	0x3d57469a	0.052557565
107	0x3e16833b	0.14698498
108	0xbce79415	-0.028268853
109	0x3d2f300e	0.042770438
110	0xbdb58716	-0.08863656
111	0xbe3bc234	-0.18335801
112	0x3e1d551e	0.15364501
113	0xbd7c76c4	-0.0616367
114	0x3d9f8fb7	0.07791083
115	0x3d8bbee9	0.068235226
116	0xbe1719fa	-0.14756003
117	0xbcee1aa0	-0.02906543
118	0x3de15142	0.11001827
119	0x3e85a603	0.2610322
120	0x3dd53c5c	0.10411903
121	0x3d9d095c	0.07667801
122	0xbd9838ac	-0.07432684
123	0x3cb1e700	0.021716595
124	0x3e5269b5	0.20548137
125	0x3e39d70f	0.18148445
126	0x3ead9ecd	0.33910218
127	0x3e049d2f	0.12950586
128	0xbd492441	-0.04910684
129	0x3e0f9729	0.14022507
130	0xbdca2fbe	-0.09872387
131	0x3e81dfa7	0.25365946
132	0xbc2ec9c7	-0.010668225
133	0x3d175d53	0.036954235
134	0x3e4daa8a	0.20084587
135	0x3c897913	0.016781365
136	0x3dc84dcf	0.09780466
137	0xbd9e2327	-0.077215485
138	0x3e921bcd	0.28536835
139	0xbdc6a814	-0.09700027
140	0xbe1d9572	-0.1538904
141	0x3c4d1e5a	0.012519443
142	0xba8c55f5	-0.001070677
143	0xbd00653d	-0.03134655
144	0xbe6d5516	-0.23176989
145	0xbe17878a	-0.14797798
146	0xbe8365b8	-0.25663543
147	0xbe48b901	-0.19601823
148	0x3e987daf	0.2978339
149	0xbdc53f0f	-0.09631168
150	0xbd28b620	-0.041189313
151	0x3e440c6f	0.19145368
152	0xbe36d289	-0.1785375
153	0x3e790554	0.24318439
154	0xbcbe5c8f	-0.023237495
155	0x3e5f0ecc	0.21782988
156	0x3e183636	0.1486443
157	0xbd04a650	-0.03238517
158	0xbc22cfd1	-0.009937243
159	0x3c9221db	0.01783841
160	0x3e0292d6	0.12751326
161	0x3dfd0161	0.12353779
162	0xbd7c19e2	-0.06154812
163	0xbd9a1933	-0.075243376
164	0xbe0cc227	-0.13745938
165	0x3da84c4f	0.0821768
166	0x3d338ab5	0.043833453
167	0xbdabd197	-0.083895855
168	0x3ebba30e	0.36647838
169	0x3d5cf90b	0.053948443
170	0xbc359ec6	-0.011085218
171	0x3ea94e2c	0.33067453
172	0xbe0e54dc	-0.13899559
173	0x3e93da64	0.28877556
174	0xbe3c73de	-0.18403575
175	0x3bc042e0	0.005867347
176	0xbdcc1781	-0.099654205
177	0x3e065a16	0.13120303
178	0xbc3fefb0	-0.011714861
179	0xbd808c28	-0.06276733
180	0xbd4d4f7c	-0.05012463
181	0x3d55933f	0.052142378
182	0x3d717a84	0.05895473
183	0xbd953273	-0.07285013
184	0x3e4cd305	0.20002373
185	0x3e259af2	0.16172388
186	0xbd4b992f	-0.049706634
187	0xbe0eac52	-0.13932922
188	0x3e03e86e	0.12881634
189	0x3d8ef6cd	0.06980667
190	0xbd0b2584	-0.033971325
191	0x3dc9243c	0.09821364
192	0xbdda716c	-0.10666165
193	0x3d5dd648	0.054159433
194	0xbcbd9bb5	-0.023145536
195	0xbdaa5390	-0.083167195
196	0xbb623864	-0.0034518475
197	0x3cacb4b4	0.02108226
198	0x3e2f57c5	0.17123325
199	0x3cf27c6a	0.02960034
200	0x3daf7fed	0.08569322
201	0xbd9c87a9	-0.076430626
202	0x3dba9ffd	0.091125466
203	0xbe236f31	-0.15960385
204	0x3e47cec6	0.19512472
205	0xbcf57932	-0.029965017
206	0x3dda853c	0.10669944
207	0x3d39d94e	0.045373254
208	0x3d6e15ab	0.058126133
209	0x3e703d0b	0.23460786
210	0x3e7356f7	0.23763643
211	0x3e26265e	0.16225573
212	0xbcbf3dc5	-0.023344884
213	0x3dd5ea64	0.10445097
214	0x3e4ea8f9	0.20181645
215	0x3e70fa6c	0.23533028
216	0x3cc45c0c	0.023969673
217	0xbe2539b7	-0.16135298
218	0x3db77988	0.08958727
219	0x3c1953bf	0.0093583455
220	0x3da530f2	0.08065976
221	0x3cc58dec	0.024115525
222	0xbe3a09c4	-0.18167788
223	0x3d2f8d84	0.04285957
224	0xbe192e59	-0.14959086
225	0x3dfcb055	0.1233832
226	0x3e4047a3	0.18777327
227	0x3e146c07	0.14494334
228	0xbe12798c	-0.14304179
229	0x3d2c3b5e	0.042048804
230	0x3e224e9c	0.158503
231	0x3d8382e1	0.064214475
232	0x3e69e693	0.22841863
233	0x3df3357f	0.11875438
234	0x3e1d11c3	0.15338807
235	0xbdb1fa2a	-0.08690293
236	0x3d8ab998	0.067736804
237	0xbdcefbed	-0.10106645
238	0xbd8d5daf	-0.06902634
239	0x3e082eb5	0.13299067
240	0xbcb5f314	-0.022210635
241	0x3e20e954	0.15714008
242	0x3c34bacf	0.011030867
243	0x3e010351	0.12598921
244	0xbbae75d2	-0.005324104
245	0xbe3b35c4	-0.18282229
246	0x3cd98f8c	0.026557706
247	0xbdd88f16	-0.105741665
248	0x3d9b847a	0.07593627
249	0x3e362ab2	0.17789724
250	0x3d49ac0b	0.04923634
251	0xbdec8b32	-0.11549987
252	0xbd2a6f39	-0.041609976
253	0x3cc6b0bf	0.024254201
254	0xbc55c1b2	-0.013046669
255	0xbda84563	-0.082163595

lstm.weight_hh_l0 f4 [128, 32]
0	0xbdc305d1	-0.09522594
1	0x3dddcc64	0.1083
2	0x3c94499d	0.018101508
3	0x3cfef046	0.03112043
4	0x3d6723e5	0.056430716
5	0x3de81b24	0.11333302
6	0xbd4a7fe9	-0.04943839
7	0x3dad9f80	0.08477688
8	0x3e40c112	0.1882365
9	0xbdf3f7d8	-0.11912507
10	0x3db5b69e	0.08872722
11	0x3d29910c	0.041398093
12	0x3ded5e1a	0.11590214
13	0x3d7de80d	0.06198888
14	0xbdcc0347	-0.099615626
15	0x3d7a79eb	0.061151426
16	0x3d0a7708	0.033804923
17	0xbe466402	-0.19374087
18	0xbb5c2c07	-0.0033595578
19	0xbde23d32	-0.11046828
20	0xbd944984	-0.072405845
21	0x3e3bba63	0.1833282
22	0x3dac352d	0.0840858
23	0xbe2d709d	-0.1693749
24	0x3e33e36c	0.17567223
25	0xbdf62b21	-0.12019945
26	0xbd83ce39	-0.06435818
27	0x3dd24517	0.10267084
28	0x3d448344	0.047976747
29	0xbde71ca1	-0.112847574
30	0x3e089573	0.1333826
31	0xbdcd8b1a	-0.10036297
32	0xbca84c37	-0.020544155
33	0xbdca7568	-0.09885675
34	0x3dfbd83a	0.12297101
35	0x3e51b7f6	0.20480332
36	0x3e195d46	0.14976987
37	0xbda452b2	-0.080235854
38	0x3d00643e	0.0313456
39	0x3e152777	0.14565836
40	0x3e52ec7b	0.20598023
41	0x3c99e8e6	0.018787812
42	0x3d694afb	0.056956273
43	0x3e3a2a18	0.1818012
44	0xbe10f306	-0.14155206
45	0xbd9f00bb	-0.07763811
46	0x3d4399d1	0.047754113
47	0x3df0e531	0.11762465
48	0x3c6e0c79	0.014529341
49	0x3e247643	0.16060738
50	0xbd5c4d3c	-0.053784594
51	0xbd145f6b	-0.03622381
52	0x3e0f6320	0.14002657
53	0x3c31fb4b	0.010863136
54	0xbe0adf90	-0.13561845
55	0xbdf37d05	-0.1188908
56	0xbd991b5f	-0.07475924
57	0x3d234fc2	0.039870985
58	0x3ce77aaa	0.028256733
59	0xbd9c0c27	-0.076195054
60	0xbe4a028d	-0.19727536
61	0x3d0a819b	0.033815008
62	0xbd1037be	-0.03520941
63	0xbb90dafd	-0.0044206367
64	0xbe27f306	-0.164013
65	0xbd3b4d81	-0.04572821
66	0xbd2dbdb7	-0.042417254
67	0xbcf3d655	-0.029765287
68	0xbd9b4070	-0.0758065
69	0x3c112583	0.008859041
70	0x3e1179c2	0.14206603
71	0xbe3ad6ef	-0.18246053
72	0xbe07e8f3	-0.13272457
73	0xbd3be68a	-0.045874156
74	0x3d25eb2d	0.040507484
75	0x3e5deaca	0.21671596
76	0xbdccdb0e	-0.10002719
77	0x3e2d7341	0.16938497
78	0xbe64d054	-0.22345096
79	0xbe03e874	-0.12881643
80	0x3e84dcf8	0.25949836
81	0x3ca17e71	0.019713612
82	0x3d2a8a4b	0.041635793
83	0x3ddcca04	0.10780719
84	0xbe0f3b7a	-0.13987532
85	0x3e40a221	0.18811847
86	0x3c382b67	0.011240817
87	0x3d8264d3	0.06366887
88	0xbd8f252d	-0.069895126
89	0xbe087563	-0.1332603
90	0xbdba60b8	-0.09100479
91	0x3e06c39f	0.13160561
92	0x3daff819	0.08592243
93	0xbe0ab52a	-0.13545671
94	0x3e249b12	0.1607478
95	0x3d58a504	0.052891746
96	0xbdc4a897	-0.096024685
97	0x3dcb534c	0.09927997
98	0xbd80a2dc	-0.06281063
99	0x3e006d5e	0.1254172
100	0xbd1bb2e4	-0.0380124
101	0xbd59b28c	-0.05314879
102	0xbdf1d0f4	-0.11807433
103	0xbcacfaea	-0.021115739
104	0x3c36d63b	0.011159475
105	0x3dbf7b2a	0.093496636
106	0x3d8ade08	0.0678063
107	0x3dba7a07	0.09105306
108	0xbd44c19a	-0.048036195
109	0x3e101b54	0.14072925
110	0xbd80c4f8	-0.06287569
111	0x3d56a2a4	0.0524012
112	0xbe140532	-0.14455107
113	0x3df67914	0.120348126
114	0x3d026b64	0.031840697
115	0x3d27c2c6	0.040957235
116	0xbcfd12c9	-0.030892747
117	0x3e2fd130	0.17169642
118	0x3d4c94d8	0.049946636
119	0xbdb2e99a	-0.08735962
120	0x3db02d0b	0.08602341
121	0x3d8623f9	0.0654983
122	0xbc94c6af	-0.018161146
123	0xbc7d0649	-0.015443393
124	0x3de8dc24	0.113701135
125	0xbd219faa	-0.03945891
126	0x3d6bc8f6	0.0575647
127	0x3df7beac	0.12096915
128	0x3e2a5bf8	0.16636646
129	0xbe6948e0	-0.22781706
130	0x3d8fb79e	0.07017444
131	0x3e3cb0a5	0.1842676
132	0x3dbe6134	0.09295884
133	0x3d831771	0.064009555
134	0x3d9770c5	0.07394556
135	0xbe4f5dc6	-0.20250615
136	0x3defc64f	0.11707746
137	0x3d9df58b	0.07712849
138	0x3d8bd977	0.068285875
139	0x3e2136de	0.15743586
140	0x3e555b21	0.20835544
141	0xbd7d9f82	-0.061919697
142	0x3dcde27d	0.10052965
143	0x3e5f7d93	0.21825247
144	0x3e37cc79	0.17949094
145	0x3e2a11bc	0.16608328
146	0xbda11883	-0.07866003
147	0xbda056c6	-0.07829051
148	0xbd1401f8	-0.03613469
149	0xbe062ec1	-0.13103773
150	0x3db05719	0.086103626
151	0xbc0e8674	-0.008699048
152	0xbd88c6aa	-0.06678517
153	0xbd0d8927	-0.034554627
154	0xbe5062e7	-0.20350228
155	0x3e21dc04	0.15806586
156	0xbc014875	-0.00789081
157	0x3e4f3e64	0.20238644
158	0xb9bf1024	-0.00036442385
159	0x3dacc582	0.08436109
160	0x3db31a87	0.08745294
161	0xbda4bc59	-0.08043737
162	0x3d931cbf	0.07183217
163	0xbe346b9e	-0.17619178
164	0xbd8d103e	-0.068878636
165	0xbe09f050	-0.13470578
166	0x3e0565eb	0.1302716
167	0x3de68245	0.11255316
168	0x3d6065d9	0.05478463
169	0xbdaeb142	-0.08529903
170	0x3dfba918	0.122881114
171	0xbe1d80c8	-0.15381157
172	0x3e321858	0.17392099
173	0xbd037b30	-0.032099903
174	0x3d8d45fe	0.068981156
175	0xbcd024ad	-0.025408113
176	0xbe0112c3	-0.12604813
177	0x3d957add	0.07298825
178	0x3e1af714	0.15133315
179	0xbe1a57b2	-0.15072516
180	0x3e47f503	0.19527058
181	0xbd9618a6	-0.0732892
182	0x3dade8fa	0.084917024
183	0xbdc7e18e	-0.09759818
184	0xbd712f60	-0.05888307
185	0x3e4ad31c	0.19807094
186	0x3c66dbb1	0.014090464
187	0xbcfc9176	-0.03083108
188	0xbd984a72	-0.07436074
189	0x3e145f2a	0.14489427
190	0xba31ffff	-0.00067901606
191	0xbdca69d8	-0.09883469
192	0x3d2c0140	0.04199338
193	0xbc651e0c	-0.0139842145
194	0xbd9c42d1	-0.07629932
195	0x3bd02371	0.006351881
196	0xbd98163e	-0.07426117
197	0x3e03cf37	0.12872015
198	0x3dc332b6	0.09531157
199	0xbd8d8d1d	-0.06911681
200	0x3d86145e	0.065468535
201	0xbd9ad990	-0.07561028
202	0x3dbfd459	0.09366674
203	0x3dcd2018	0.10015887
204	0x3e1c40a7	0.15259038
205	0x3b555520	0.003255196
206	0x3b952d5f	0.004552528
207	0xbdae2bbd	-0.08504436
208	0x3c900032	0.017578218
209	0xbd40b5f8	-0.04704854
210	0x3dbc30c8	0.09188992
211	0x3de3cd54	0.111231476
212	0x3df73ba2	0.12071921
213	0x3df4c01d	0.11950705
214	0x3c61518b	0.0137523515
215	0x3d872e35	0.0660061
216	0x3a0d5557	0.000539144
217	0xbd1eaa96	-0.038736902
218	0xbdbbd9c7	-0.09172397
219	0xbdb55bba	-0.08855386
220	0xbe5d1a34	-0.21592027
221	0xbdd1b443	-0.1023946
222	0x3e18e48a	0.1493093
223	0x3de0ff19	0.10986156
224	0x3d8ebeaf	0.06969964
225	0x3da7376f	0.0816487
226	0x3d369990	0.044580042
227	0xbd9ecf8b	-0.077544294
228	0xbe392f35	-0.18084414
229	0xbd89a02f	-0.06720006
230	0x3e7b0789	0.24514593
231	0x3c776188	0.015098937
232	0xbc82b925	-0.015957424
233	0x3e6344bf	0.22194193
234	0xbe210588	-0.15724766
235	0x3dedee66	0.116177365
236	0xbe745d81	-0.23863794
237	0x3d97f6c3	0.07420113
238	0xbe1eaca1	-0.1549554
239	0xbddc1e9f	-0.10748028
240	0x3e315ab9	0.17319764
241	0x3d2eb5d4	0.042653874
242	0x3d9e5a64	0.077320844
243	0xbe02baac	-0.12766522
244	0xbd114841	-0.035469297
245	0xba80cc5a	-0.0009826527
246	0xbd2a38f6	-0.04155823
247	0x3c2aab9b	0.0104168905
248	0xbe2b1a37	-0.16709219
249	0xbe1c44a9	-0.15260567
250	0xbe6b9fa2	-0.23010114
251	0x3e330828	0.1748358
252	0xbe3e94a9	-0.18611397
253	0xbe0cedb1	-0.13762547
254	0x3e86aec7	0.2630522
255	0xbdaf51c7	-0.0856052

lstm.bias_ih_l0 f4 [128]
0	0x3e097734	0.13424379
1	0x3e1d826b	0.15381782
2	0x3e11bfd5	0.14233334
3	0x3e2d121e	0.16901442
4	0x3e2084d8	0.15675676
5	0xbe520a71	-0.20511796
6	0x3da01114	0.078157574
7	0xbd5acc6e	-0.053417616
8	0x3e131348	0.14362824
9	0x3d7ca3ba	0.06167958
10	0xbcd8c0d2	-0.026459131
11	0x3dc1148a	0.09427746
12	0xbcbd4577	-0.023104412
13	0xbd6a1a9c	-0.057154283
14	0x3e2890f1	0.16461541
15	0x3d583418	0.052784055
16	0xbe0f8ed9	-0.14019336
17	0x3e3b46bd	0.18288703
18	0x3c7db83d	0.01548582
19	0xbe02b462	-0.12764123
20	0x3e00aec7	0.12566672
21	0x3ded8d10	0.11599171
22	0x3d3e9602	0.046529777
23	0x3da3f01b	0.08004781
24	0x3da9841b	0.0827715
25	0xbd632954	-0.055459335
26	0x3cdb8d21	0.026800694
27	0xbbaa158c	-0.005190557
28	0xbe0fb7dc	-0.1403498
29	0xbd0fe1fa	-0.035127617
30	0x3d7be10b	0.061493915
31	0xbe3fe2b7	-0.18738829
32	0x3d324839	0.04352591
33	0x3d22cf5c	0.039748535
34	0x3cf9df45	0.030501971
35	0x3c96481e	0.018344935
36	0xbdf83945	-0.12120298
37	0xbe4a4aec	-0.19755143
38	0xbd40adcd	-0.04704075
39	0xbdb8835a	-0.09009428
40	0x3ddcdf3e	0.107847676
41	0x3de01277	0.10941022
42	0x3db41a1b	0.08794042
43	0x3dc58e1c	0.09646246
44	0x3e51abed	0.2047574
45	0xbe2e095f	-0.16995762
46	0xbde414b8	-0.11136764
47	0xbd3fc200	-0.046815872
48	0xbc36bf6f	-0.01115404
49	0x3e132707	0.14370357
50	0x3ddf9024	0.109161645
51	0xbb7cc3d4	-0.003856887
52	0xbe0781c5	-0.13233097
53	0xbbb9013c	-0.005645899
54	0xbe3c8f2e	-0.18413994
55	0xbdb457aa	-0.08805783
56	0xbe04f531	-0.12984158
57	0x3d2b36fd	0.041800488
58	0x3e1a5cb9	0.15074433
59	0x3e17946a	0.14802709
60	0xbc359b32	-0.011084365
61	0xbd47344d	-0.048633862
62	0xbdbc2901	-0.091875084
63	0xbe2b68c1	-0.16739179
64	0xbdf277ed	-0.1183928
65	0xbdec8ac4	-0.11549905
66	0xbe38de95	-0.18053658
67	0x3dcc698f	0.09981071
68	0xbe5e7e3f	-0.21727847
69	0xbdf6de30	-0.12054098
70	0x3db8d33b	0.09024664
71	0xbdc8d383	-0.09805968
72	0xbd917991	-0.07103265
73	0xbe188f05	-0.14898308
74	0x3dbc3f65	0.09191779
75	0x3e1db362	0.1540046
76	0xbd7b64aa	-0.061375298
77	0xbe174d9a	-0.14775696
78	0xbe2b772d	-0.1674468
79	0x3e143c15	0.14476044
80	0x3dd83291	0.1055652
81	0xbe23750b	-0.15962617
82	0x3e18631c	0.14881557
83	0x3e055a47	0.1302272
84	0xbdc1dd10	-0.094659925
85	0x3dfd9ccf	0.123834245
86	0xbdf97d36	-0.12182085
87	0xbdadb5f6	-0.08481972
88	0xbe28c112	-0.164799
89	0x3c7dbbe9	0.015486696
90	0x3d63371b	0.055472475
91	0x3d630a03	0.05542947
92	0xbe645f37	-0.22301947
93	0x3df01130	0.11722028
94	0x3da0b836	0.078476354
95	0xbdc0999c	-0.09404299
96	0x3d372b05	0.04471876
97	0x3d5eebdd	0.054424156
98	0x3e3cd6d3	0.18441324
99	0x3e31ee49	0.17376055
100	0x3e29d7f9	0.16586293
101	0xbdee8dbc	-0.116481274
102	0xbcc9316c	-0.024559699
103	0x3e09b960	0.13449621
104	0x3e02a448	0.12757981
105	0x3d0bcca8	0.034130722
106	0xbe28ef0f	-0.16497444
107	0xbc31d0e5	-0.010853027
108	0x3d775643	0.060385
109	0xbc76f39e	-0.015072731
110	0xbc00fc21	-0.007872612
111	0x3e676b14	0.22599441
112	0xbe0ba2c0	-0.13636303
113	0x3e51c21d	0.20484205
114	0xbd55302c	-0.052047893
115	0xbdb4c7bd	-0.088271596
116	0xbe07d384	-0.1326428
117	0xbd6416a6	-0.05568566
118	0x3d3d8838	0.046272486
119	0x3e8d07d9	0.2754505
120	0x3d0b64ab	0.03403155
121	0x3e32bfc7	0.1745597
122	0x3d4e9af6	0.05044075
123	0x3da05a32	0.078297034
124	0xbdf930de	-0.12167524
125	0x3dee45f4	0.11634436
126	0x3e56e82d	0.20987006
127	0x3e30f749	0.17281832

lstm.bias_hh_l0 f4 [128]
0	0x3e271cd0	0.16319585
1	0xbd9c37a2	-0.076277986
2	0xbd85e889	-0.06538493
3	0x3d0f4de1	0.03498638
4	0xbd154f1f	-0.03645241
5	0xbe37a579	-0.17934217
6	0xbd6f5d1a	-0.058438398
7	0x3d92ee23	0.07174327
8	0x3d9e0c2c	0.07717165
9	0xbd30499e	-0.043038957
10	0xbd6d108b	-0.057877105
11	0x3e15eb2a	0.14640489
12	0x3df707b6	0.120620176
13	0x3e355587	0.17708407
14	0xbd1b1e53	-0.037870716
15	0xbcffd4ab	-0.031229338
16	0xbd8dee9f	-0.06930279
17	0x3e3fe0ad	0.18738051
18	0xbe2d0a41	-0.16898443
19	0x3d497746	0.049186014
20	0xbe18e79e	-0.14932105
21	0x3df911bc	0.12161586
22	0x3e025f4a	0.12731662
23	0x3d2b101c	0.04176341
24	0x3c4b2bfa	0.012400622
25	0x3d885d07	0.066583686
26	0xbd954a10	-0.07289517
27	0xbe42aa66	-0.19010314
28	0xbd73b581	-0.059499267
29	0x3daf3373	0.08554735
30	0xbe305b28	-0.17222273
31	0x3ca3948d	0.019968295
32	0x3e00635c	0.12537903
33	0x3e12ad29	0.14323868
34	0x3bc48a63	0.0059979423
35	0xbb9b6dd2	-0.004743316
36	0x3d37f757	0.044913616
37	0xbd6f179a	-0.058372118
38	0xbe584bbb	-0.21122639
39	0xbbee62c5	-0.007274958
40	0xbdf99879	-0.12187285
41	0xbda6e89d	-0.08149836
42	0x3dbab6f3	0.09116926
43	0x3d92a7a9	0.07160885
44	0xbdd84d1a	-0.10561581
45	0xbd73cb77	-0.05952021
46	0x3d87dfbb	0.0663447
47	0xbc8b406a	-0.016998488
48	0xbe05f6a3	-0.13082366
49	0x3e0415ff	0.12899016
50	0xbca27eee	-0.019835915
51	0xbd59fe44	-0.053221002
52	0x3e0ba1cc	0.1363594
53	0xbe5909f9	-0.2119521
54	0xbcc25036	-0.023719888
55	0x3c8891d8	0.016671106
56	0xbe2292fc	-0.15876383
57	0x3e5165f1	0.20449044
58	0xbd106ce9	-0.035260115
59	0xbe032774	-0.12808019
60	0xbc08e808	-0.008356102
61	0xbd00b3aa	-0.03142134
62	0xbd608235	-0.054811675
63	0xbe2ac334	-0.16676027
64	0x3dac1f62	0.08404423
65	0x3e0a1502	0.13484576
66	0x3d501ff6	0.05081173
67	0x3cfbec44	0.030752309
68	0xbe5f2ecc	-0.21795195
69	0x3d9b5b12	0.0758573
70	0xbe23209e	-0.15930411
71	0xbc83034e	-0.015992787
72	0xbde22709	-0.110426016
73	0xbd87b4cb	-0.066262804
74	0xbdf23c96	-0.11827962
75	0x3e3c2708	0.18374264
76	0xbe189280	-0.14899635
77	0x3e016a5b	0.12638228
78	0xbbea1dc8	-0.0071446635
79	0x3e22f475	0.15913565
80	0xbe070be7	-0.13188134
81	0xbe433451	-0.19062926
82	0xbd3806e3	-0.044928443
83	0xbbb4841c	-0.0055089127
84	0xbe62d3dc	-0.2215113
85	0x3dedc7f5	0.116104044
86	0x3d841a68	0.06450349
87	0x3e15b231	0.14618756
88	0x3cbf002c	0.023315512
89	0xbe0b521c	-0.13605541
90	0xbe4bd9e7	-0.19907342
91	0x3c4998c1	0.012304486
92	0x3d44c752	0.04804165
93	0xbc38919d	-0.011265186
94	0xbbe93bb8	-0.0071177147
95	0xbddc34f3	-0.10752287
96	0x3cfd9d74	0.030958869
97	0x3e29b2d5	0.16572125
98	0x3e2724a3	0.1632257
99	0x3e4673bc	0.19380087
100	0xbdf867d9	-0.12129182
101	0x3d884cde	0.06655286
102	0xbe378283	-0.1792088
103	0x3db2809a	0.08715935
104	0x3e44d61d	0.19222303
105	0x3e0bbc05	0.13645943
106	0x3be0b136	0.0068570627
107	0xbcf4d0fe	-0.029884811
108	0x3e56e121	0.20984317
109	0xbe203c58	-0.1564802
110	0xbe3eaaa6	-0.18619785
111	0x3d7c8e09	0.061658893
112	0xbe051540	-0.12996387
113	0x3e675863	0.2259231
114	0x39e55b42	0.00043746276
115	0xbc9e9906	-0.019360077
116	0xbe1a94f5	-0.15095885
117	0xbd58fc42	-0.052974947
118	0x3d66a1a5	0.0563065
119	0x3e81ee05	0.25376907
120	0x3c2c9e98	0.010535859
121	0xbdf13ab4	-0.11778775
122	0xbe492437	-0.19642721
123	0x3dd22bf4	0.1026229
124	0x3d4cbefc	0.049986824
125	0x3e1e3242	0.1544886
126	0x3dbe45f2	0.09290685
127	0x3d5e6598	0.054296106

lstm.weight_ih_l1 f4 [128, 32]
0	0xbe12461b	-0.14284556
1	0xbde4785d	-0.1115577
2	0x3e1acf19	0.15118064
3	0x3e2d4f10	0.16924691
4	0xbd9e90cf	-0.07742464
5	0x3d1c2bc3	0.038127672
6	0x3ca8a2db	0.020585468
7	0xbe31fef2	-0.1738241
8	0x3da7aacb	0.08186873
9	0xbdca818e	-0.09887992
10	0xbd56a18f	-0.052400168
11	0xbc334b91	-0.010943309
12	0xbd9f22df	-0.07770323
13	0x3d883e2d	0.06652484
14	0xbe3cd4f4	-0.1844061
15	0x3c954f5d	0.01822632
16	0xbd9813dc	-0.07425663
17	0xbd358d86	-0.04432442
18	0xbe07c14c	-0.1325733
19	0x3e15497a	0.1457881
20	0xbe3a8268	-0.18213809
21	0xbd12e6cd	-0.03586464
22	0xbe1350b6	-0.14386258
23	0xbd1475d0	-0.036245167
24	0xbdbd0b57	-0.092306785
25	0xbcfc5f12	-0.030807052
26	0x3de82393	0.1133491
27	0xbe1bd3c4	-0.15217501
28	0xbdfc5690	-0.12321198
29	0xbe5e5df1	-0.21715523
30	0x3e388feb	0.1802365
31	0x3d0e0ed2	0.034682103
32	0xbe0e717a	-0.13910475
33	0x3d9d3e51	0.076779015
34	0xbe26c6f2	-0.16286829
35	0x3dc7ae4b	0.097500406
36	0x3db9c1b4	0.09070149
37	0xbe2c30d4	-0.16815501
38	0x3cc50a57	0.024052782
39	0x3da57a33	0.08079948
40	0xbe64b6dc	-0.2233538
41	0xbddb8dc1	-0.10720397
42	0x3b89899a	0.0041973116
43	0xbe0f205c	-0.13977188
44	0x3e03cfa7	0.12872182
45	0xbd6c329d	-0.057665456
46	0x3da369aa	0.07979138
47	0x3d07a3ab	0.03311507
48	0x3e7d2890	0.24722505
49	0x3e81b305	0.25331894
50	0xbe0ffc1d	-0.14061017
51	0x3d9ce542	0.07660915
52	0xbc407bb7	-0.011748246
53	0xbdc67c79	-0.0969171
54	0x3d455083	0.048172485
55	0x3d19e615	0.03757294
56	0xbd40fae7	-0.04711428
57	0xbc7109f2	-0.014711844
58	0xbe361008	-0.17779553
59	0x3e006033	0.12536697
60	0xbd9aae17	-0.07552736
61	0xbe27aab5	-0.16373713
62	0xbd4f779f	-0.05065119
63	0x3e4da8da	0.20083943
64	0x3df8a05f	0.12139963
65	0xbccecce3	-0.025244182
66	0x3d9891e2	0.074497
67	0x3e51f64a	0.20504108
68	0xbe41e52e	-0.18935081
69	0xbd1cd119	-0.03828535
70	0xbddcc139	-0.10779042
71	0xbe065e54	-0.13121921
72	0xbd797aa5	-0.06090798
73	0xbe22d8fb	-0.15903084
74	0xbd82027c	-0.0634813
75	0x3da48d60	0.08034778
76	0xbd810679	-0.06300063
77	0x3d6a06ed	0.05713551
78	0x3dd89ccd	0.105767824
79	0xbda2e779	-0.07954306
80	0x3a651644	0.00087389746
81	0x3c0620f0	0.008186564
82	0xbccd1c94	-0.025038041
83	0xbdc4dd1d	-0.096124865
84	0x3e1f4b9c	0.15556186
85	0xbd7ae5c2	-0.06125427
86	0xbdd18ad9	-0.10231561
87	0xbe7424f3	-0.2384222
88	0x3d8c4395	0.06848828
89	0x3d1a2f2b	0.03764264
90	0x3d56f465	0.052479167
91	0xbdc85407	-0.09781652
92	0xbdbc9339	-0.09207768
93	0xbd379028	-0.044815212
94	0x3c49a5a5	0.012307559
95	0x3e0e9b15	0.13926347
96	0x3de9fe22	0.11425425
97	0xbc661aea	-0.014044503
98	0x3d7e4fcc	0.06208782
99	0xbe312df6	-0.17302689
100	0xbe483ccc	-0.19554442
101	0xbdc67263	-0.09689786
102	0x3cc664ba	0.024217952
103	0xbe4130d5	-0.18866284
104	0x3d371fdc	0.044708118
105	0x3e1f6ad0	0.1556809
106	0xbd43bc77	-0.047787156
107	0xbdb4ab37	-0.08821719
108	0x3e174fc3	0.1477652
109	0x3e3928d0	0.18081975
110	0x3da1c5e9	0.078990765
111	0xbe436ce1	-0.19084503
112	0x3c864dff	0.016394613
113	0xbe1dfe77	-0.15429102
114	0x3dea11b2	0.11429156
115	0xbe845101	-0.2584305
116	0xbda76bc1	-0.08174849
117	0xbdce7be2	-0.100822225
118	0xbd7d8118	-0.06189069
119	0xbc7ebbde	-0.015547721
120	0xbdde73bc	-0.10861918
121	0x3c90faa3	0.017697638
122	0xbe2bef2a	-0.16790453
123	0x3e4727c8	0.19448769
124	0xbe76b716	-0.24093279
125	0xbe09c797	-0.13455044
126	0x3d23cddf	0.039991256
127	0xbe048ec9	-0.12945093
128	0xbdb1cf2d	-0.08682094
129	0x3d6a1a15	0.05715378
130	0xbe4d3702	-0.20040515
131	0xbd7e1f24	-0.062041417
132	0x3d95a8e0	0.07307601
133	0xbdc7a079	-0.097474046
134	0x3e0d96a3	0.13826995
135	0x3e010dd0	0.12602925
136	0xbcf594c9	-0.029978173
137	0x3e2748d3	0.16336374
138	0xbc9ea4e4	-0.019365735
139	0x3e001bf9	0.1251067
140	0xbe3ff375	-0.18745215
141	0xbdf51fb3	-0.11968937
142	0x3dd061ef	0.10174929
143	0x3d666c1d	0.05625545
144	0x3e505b72	0.20347384
145	0x3d1acae3	0.037791144
146	0xbe40c8a1	-0.18826534
147	0xbd12d5af	-0.035848316
148	0x3b4a09a2	0.0030828496
149	0x3e7dee71	0.2479799
150	0xbe84300c	-0.25817907
151	0x3ca7c301	0.020478727
152	0xbe065616	-0.13118777
153	0xbdd6af19	-0.10482616
154	0xbe17431c	-0.14771694
155	0x3e0c1dde	0.13683268
156	0x3d541da9	0.0517861
157	0x3cd38f42	0.025825147
158	0xbde42bf5	-0.11141197
159	0x3e16b225	0.14716394
160	0x3e0dcc7c	0.13847536
161	0x3c5c8448	0.013459273
162	0x3db2f2f1	0.08737744
163	0xbdf2beb8	-0.11852783
164	0x3c99de73	0.01878283
165	0xbdf002e6	-0.11719303
166	0x3cc1dd51	0.023665102
167	0xbe11a247	-0.1422206
168	0xbdec59b6	-0.115405485
169	0x3d0df389	0.03465608
170	0xbe1facaf	-0.15593217
171	0x3ca3fd8c	0.020018362
172	0x3d3c003e	0.04589867
173	0x3c2c41d2	0.01051374
174	0x3dc01b37	0.09380191
175	0x3e5acb05	0.21366508
176	0x3e0eb8c0	0.13937664
177	0x3db9bf53	0.09069695
178	0x3e2d39b5	0.16916545
179	0xbd1c9558	-0.038228363
180	0x3e0f55d9	0.13997592
181	0xbe1a1511	-0.15047099
182	0xbe2218a5	-0.15829714
183	0xbe18f350	-0.14936566
184	0x3dcd9940	0.10038996
185	0x3dcef904	0.1010609
186	0x3de27ed0	0.11059344
187	0xbe49b300	-0.1969719
188	0xbd0fdec0	-0.03512454
189	0x3e170082	0.14746287
190	0x3e193cd0	0.14964604
191	0x3daae269	0.083439656
192	0x3e38550f	0.18001197
193	0xbe652261	-0.22376396
194	0xbbfd5de0	-0.007732138
195	0xbd9ae7e0	-0.07563758
196	0xbd07f50e	-0.033192687
197	0x3d80e047	0.062927775
198	0xbd6b3f0f	-0.057433184
199	0xbec3c456	-0.3823573
200	0x3e292610	0.16518426
201	0x3ccf4104	0.025299557
202	0xbe0a5ad0	-0.13511205
203	0xbdc2255f	-0.09479784
204	0xbd35c35e	-0.04437577
205	0x3e229355	0.15876515
206	0xbe4b802d	-0.19873114
207	0xbd4787b7	-0.048713412
208	0x3d033e90	0.032042086
209	0x3dbcb089	0.09213359
210	0xbcce1be3	-0.025159782
211	0x3da2f254	0.07956377
212	0xbe39a8b6	-0.18130764
213	0xbd5e6778	-0.054297894
214	0x3d76ed6e	0.060285024
215	0xbd90a27d	-0.07062242
216	0x3e3e1156	0.185613
217	0xbe3813fc	-0.17976373
218	0x3e506f26	0.203549
219	0x3dff4315	0.12463967
220	0xbdafabdf	-0.08577704
221	0x3c995138	0.018715486
222	0x3de019e3	0.109424375
223	0x3d13b60c	0.036062285
224	0x3e0c1091	0.13678195
225	0x3e4bc78f	0.19900344
226	0xbe095ba0	-0.13413858
227	0xbe40ebd5	-0.18839963
228	0xbd5dd4b6	-0.054157935
229	0xbe869c87	-0.26291296
230	0xbd31f831	-0.043449584
231	0x3cc80946	0.024418484
232	0xbb908417	-0.0044102776
233	0xbbbf15c5	-0.0058314526
234	0x3e831b67	0.25606844
235	0x3df18e29	0.11794693
236	0xbe130b7a	-0.14359847
237	0x3d7971b9	0.06089947
238	0xbde068a6	-0.1095746
239	0xbe1d811e	-0.15381286
240	0xbded550c	-0.11588487
241	0xbd96c1ec	-0.073612064
242	0xbe1d1ec6	-0.1534377
243	0xbe153404	-0.14570624
244	0x3c715e41	0.014731945
245	0x3b38a88d	0.0028176636
246	0xbd242e9a	-0.040083505
247	0xbda29b36	-0.079397604
248	0xbc6c0fa4	-0.014408026
249	0x3db30f99	0.087432094
250	0x3db7e396	0.089789554
251	0x3e109631	0.14119793
252	0xbdbefc95	-0.0932552
253	0xbb88eb0c	-0.0041784104
254	0x3e6b7445	0.22993572
255	0xbe08d8fb	-0.13364021

lstm.weight_hh_l1 f4 [128, 32]
0	0xbd22811d	-0.039673913
1	0x3ada9dc3	0.0016679097
2	0xbde278f7	-0.110582285
3	0xbe0e90c3	-0.1392241
4	0xbddc1082	-0.10745336
5	0xbc112716	-0.0088594165
6	0x3cf58078	0.029968485
7	0x3e49cae6	0.19706306
8	0xbe47874d	-0.19485207
9	0xbc3a4097	-0.0113679385
10	0xbd9582e4	-0.07300356
11	0xbe38ac1d	-0.18034406
12	0xbe4ebdb0	-0.20189548
13	0xbd6f99cc	-0.05849628
14	0xbd89e976	-0.06733982
15	0x3e37f395	0.17964013
16	0x3dec4eb8	0.11538452
17	0xbcaf0c33	-0.021368122
18	0x3e7b6321	0.24549533
19	0xbe3c1205	-0.18366249
20	0xbd4429f6	-0.04789158
21	0x3cf586bd	0.029971475
22	0xbbcd85ff	-0.006272077
23	0xbe044397	-0.12916408
24	0xbe4ecec1	-0.20196058
25	0xbda7cf7b	-0.08193871
26	0x3e07fa20	0.13279009
27	0xbdbb2875	-0.09138576
28	0xbd9e4f3c	-0.077299565
29	0xbd52a135	-0.05142327
30	0x3d991a55	0.074757256
31	0x3da0baad	0.078481056
32	0xbd112bbe	-0.035442106
33	0x3e0d1461	0.13777305
34	0xbdcb14ba	-0.09916063
35	0xbe2827bc	-0.16421407
36	0x3e2dab53	0.16959886
37	0x3d5cf353	0.05394299
38	0xbe123ea2	-0.14281705
39	0x3df303dd	0.11865971
40	0xbae650f3	-0.0017571732
41	0x3d1d6761	0.038428668
42	0x3d810987	0.06300645
43	0x3df38e16	0.11892335
44	0xbd66e3cc	-0.056369588
45	0x3e1230d3	0.14276437
46	0x3e47fb5a	0.19529477
47	0xbce393f9	-0.02778052
48	0xbe021091	-0.12701632
49	0xbd15419f	-0.036439534
50	0x3e4fdc6d	0.2029893
51	0x3e0660f8	0.13122928
52	0x3dde6c5e	0.10860513
53	0xbd3ee9ec	-0.046609804
54	0xbc70cb51	-0.014696912
55	0xbc335bdb	-0.010947193
56	0x3da540e4	0.080690175
57	0x3d95dcc0	0.07317495
58	0xbd3e090a	-0.04639534
59	0xbd6777c2	-0.056510694
60	0x3d20e465	0.039280314
61	0x3d320675	0.04346319
62	0x3d67c125	0.05658068
63	0x3e074bc1	0.13212492
64	0x3d9cc7f5	0.07655326
65	0x3e3c92f5	0.18415435
66	0x3dabf086	0.083954856
67	0x3ddfdf5f	0.109312765
68	0x3ce3af8e	0.027793672
69	0x3d604319	0.05475149
70	0x3caea8db	0.021320751
71	0x3c020f0b	0.007938157
72	0xbcbf1beb	-0.023328742
73	0x3d44f9bf	0.04808974
74	0x3cb65b6b	0.022260388
75	0xbdf71b3f	-0.12065744
76	0xbdc69b36	-0.09697573
77	0xbd9a31d8	-0.07529038
78	0x3e17f576	0.1483973
79	0xbe199af5	-0.15000518
80	0xbd005a28	-0.03133598
81	0x3dd314c1	0.10306693
82	0x3e1cc12b	0.15308063
83	0xbba2a953	-0.0049640327
84	0x3d3cdb2b	0.046107452
85	0xbce09dcf	-0.027418999
86	0xbe0bad67	-0.13640366
87	0xbcf491ad	-0.02985462
88	0xbd8c6f7c	-0.068572015
89	0xbd5576e3	-0.052115332
90	0xbd6a4535	-0.057194907
91	0x3d30fb18	0.04320821
92	0xbca580df	-0.020203052
93	0x3e231006	0.15924081
94	0xbd0ac39d	-0.033877958
95	0xbe0fbcff	-0.1403694
96	0xbd91f4d8	-0.07126778
97	0xbdef28dd	-0.11677716
98	0x3db01f93	0.08599772
99	0x3d131713	0.035910677
100	0x3e5e8449	0.2173015
101	0xbc6dbc7d	-0.014510271
102	0x3c7e9883	0.015539291
103	0x3e06a91c	0.13150448
104	0xbca457d5	-0.020061413
105	0xbe24653d	-0.16054244
106	0xbe25d06b	-0.16192786
107	0x3d3199fb	0.043359738
108	0x3d4a1510	0.049336493
109	0x3ac76c68	0.0015214803
110	0x3d8cca40	0.068745136
111	0x3d6ebdf1	0.05828661
112	0xbe176ac6	-0.14786825
113	0x3e148484	0.14503676
114	0xbd8ca545	-0.0686746
115	0x3c427e3c	0.011870917
116	0x3e1053be	0.14094445
117	0xbe115a6a	-0.14194646
118	0x3da09e0c	0.07842645
119	0xbd308df3	-0.043104123
120	0xbe56d239	-0.20978631
121	0xbc4b5eed	-0.012412769
122	0x3c3d0382	0.011536481
123	0xbe05a495	-0.13051064
124	0x3d114d2f	0.035474
125	0xbd8ab855	-0.0677344
126	0xbd959765	-0.07304267
127	0x3e5b3714	0.2140773
128	0xbd676b7e	-0.056498997
129	0x3cb8b40e	0.022546794
130	0x3e1d83b7	0.15382276
131	0xbe21c0d9	-0.15796222
132	0xbdcf3af6	-0.10118668
133	0xbd9c8eac	-0.076444
134	0xbe1f081e	-0.1553044
135	0x3e281b11	0.16416575
136	0xbda7b4d8	-0.0818879
137	0xbe6992a9	-0.22809853
138	0xbe05d723	-0.1307035
139	0x3c5e425d	0.013565627
140	0x3d8b23c4	0.06793931
141	0x3e83280b	0.25616488
142	0xbd4d4202	-0.050111778
143	0x3e411f87	0.18859683
144	0x3e6ea083	0.23303418
145	0x3dcf7cdd	0.10131238
146	0x3d76b73d	0.060233343
147	0xbc9917a9	-0.01868804
148	0x3e51842f	0.2046058
149	0xbd865a0a	-0.06560142
150	0xbd084773	-0.033271264
151	0xbdcbcda3	-0.099513315
152	0xbd67dc42	-0.05660654
153	0x3e677d78	0.22606456
154	0xbce4f83e	-0.027950402
155	0x3e81eec9	0.2537749
156	0x3e35e645	0.17763622
157	0xbdb15b28	-0.08659965
158	0xbe701bc2	-0.23448089
159	0xbcad0fdb	-0.021125725
160	0xbd1f0b5c	-0.038829193
161	0xbe062f55	-0.13103993
162	0x3e371ae9	0.17881359
163	0x3e278320	0.16358614
164	0x3dac0d99	0.08401031
165	0x3e5194d9	0.20466937
166	0x3e35147f	0.176836
167	0x3db3f808	0.087875426
168	0xbe2c7572	-0.16841677
169	0xbe0e2eea	-0.13885084
170	0x3c9cfee7	0.019164516
171	0xbd4d76af	-0.050162014
172	0x3b9a62ac	0.0047114696
173	0x3e31436a	0.17310873
174	0xbd82dd57	-0.063898735
175	0x3ca1e918	0.019764468
176	0x3e0b7380	0.13618279
177	0x3ca8678d	0.02055719
178	0xbd9fd949	-0.07805116
179	0xbc722f0c	-0.014781725
180	0x3d3d60de	0.046234958
181	0xbe15bc03	-0.14622502
182	0x3c449529	0.011998453
183	0x3e11aaee	0.14225361
184	0x3c8a5aa8	0.016888931
185	0x3d4ada7e	0.049524777
186	0xbd82b571	-0.063822635
187	0xbdae1cd1	-0.0850159
188	0xbd952359	-0.07282133
189	0xbdc4e103	-0.0961323
190	0xbdf17a35	-0.11790887
191	0x3c1cdbcf	0.009573891
192	0x3dbaf525	0.09128789
193	0xbd46c0da	-0.04852376
194	0x3da5657a	0.08075996
195	0xbc9db647	-0.019251956
196	0xbd78b6e4	-0.060721293
197	0xbdefe9e2	-0.117145315
198	0x3ddd033c	0.107916325
199	0xbe33b6d9	-0.1755022
200	0x3dfed7fb	0.12443539
201	0x3c63144d	0.013859821
202	0x3d8b9921	0.068163164
203	0xbdd71435	-0.10501901
204	0xbd06a29d	-0.032869924
205	0x3d70efcd	0.05882244
206	0x3e29af5e	0.16570804
207	0xbdd0c594	-0.10193935
208	0xbe23b2ad	-0.15986128
209	0x3da81e33	0.08208885
210	0xbda38ec4	-0.07986215
211	0x3ddd32d6	0.10800712
212	0xbd048655	-0.03235467
213	0x3e41caea	0.18925062
214	0x3cb07cc8	0.021543875
215	0xbd9e6047	-0.07733207
216	0xbdcc3a29	-0.09972031
217	0xbe29055a	-0.16505948
218	0xbe25592e	-0.161473
219	0xbdbf5269	-0.0934189
220	0x3e2121a6	0.15735492
221	0x3daed8f8	0.08537477
222	0x3e255ce7	0.1614872
223	0x3d4135d6	0.047170483
224	0xbad06597	-0.0015899417
225	0xbd27b26d	-0.040941644
226	0x3e0a6ddf	0.13518475
227	0xbdcfa9c6	-0.101398036
228	0x3d90565b	0.07047721
229	0xbc49c720	-0.0123155415
230	0x3e12d28b	0.14338128
231	0x3cbf0276	0.023316603
232	0xbb4afc7d	-0.0030973249
233	0xbe130ca3	-0.1436029
234	0xbdc9bdd9	-0.09850664
235	0x3ddb2474	0.10700312
236	0x3dd43ff7	0.10363763
237	0xbc8620ab	-0.016373
238	0x3d33904c	0.043838784
239	0xbe11b16b	-0.14227836
240	0x3d840c9e	0.06447719
241	0xbdfc7f1d	-0.123289324
242	0x3d425650	0.047445595
243	0x3e3572c2	0.17719558
244	0x3e30bc53	0.1725934
245	0x3e1ee1f8	0.15515888
246	0x3e2bcec7	0.16778098
247	0xbca0d99b	-0.019635012
248	0xbd6d2dc3	-0.05790497
249	0x3e15609d	0.14587636
250	0xbd120011	-0.035644595
251	0x3dcffad1	0.10155261
252	0x3b94b4bb	0.0045381463
253	0xbe22ea45	-0.15909679
254	0x3e160ed5	0.14654095
255	0xbd899ec1	-0.06719733

lstm.bias_ih_l1 f4 [128]
0	0x3e213926	0.15744457
1	0xbd08ac29	-0.03336731
2	0xbdced0df	-0.10098433
3	0x3dd574d8	0.10422677
4	0x3e1c21fe	0.15247342
5	0x3e1ebc41	0.155015
6	0x3d596dc7	0.053083207
7	0x3d8aa540	0.067698
8	0x3ce6efa1	0.028190436
9	0xbd923b39	-0.07140202
10	0xbda0125d	-0.078160025
11	0x3e1ab7a8	0.15109122
12	0xbdae43ba	-0.085090116
13	0x3de964fe	0.11396216
14	0xbd212144	-0.039338365
15	0xbe092c0e	-0.13395712
16	0x3c185c1d	0.009299305
17	0x3c353f3d	0.01106244
18	0xbc98609b	-0.018600753
19	0xbdac2183	-0.08404829
20	0x3dbb98d9	0.09160013
21	0x3dc886eb	0.097913586
22	0xbdba14b3	-0.09085979
23	0xbda877c2	-0.08225967
24	0x3e0d180e	0.13778707
25	0xbdd880f1	-0.105714686
26	0xbc99c09e	-0.018768605
27	0xbd0bd63a	-0.03413985
28	0x3de3ac8f	0.11116897
29	0x3e1ff0d2	0.1561921
30	0x3dd20a86	0.102559134
31	0x3e139770	0.14413238
32	0xbc54a3e3	-0.012978527
33	0xbdec535a	-0.115393355
34	0xbe16b1e3	-0.14716296
35	0x3d85b82b	0.06529268
36	0x3e2c62a3	0.16834502
37	0x3d46dbf1	0.048549596
38	0x3e040628	0.12892973
39	0x3e1b07a7	0.15139638
40	0xbd38f5f8	-0.04515645
41	0xbd215905	-0.039391536
42	0x3e3a13e6	0.18171653
43	0xbdbed611	-0.09318174
44	0x3d2a11ba	0.04152081
45	0x3cfad860	0.030620754
46	0xbe0fd7fd	-0.14047237
47	0xbe4094b1	-0.18806721
48	0x3e39521d	0.1809773
49	0xbdd7590a	-0.1051503
50	0xbdabb2ef	-0.08383738
51	0x3e1ca32b	0.15296619
52	0x3d83c071	0.0643319
53	0x3c81a7f7	0.015827162
54	0xbb87521a	-0.0041296603
55	0x3da81c80	0.08208561
56	0xbc272e3b	-0.010203893
57	0x3dc3a735	0.095533766
58	0x3d94989f	0.07255673
59	0xbd237bb8	-0.03991291
60	0xbc94f70b	-0.018184206
61	0x3e1a8c98	0.15092695
62	0x3dd827c0	0.10554457
63	0x3d658357	0.05603346
64	0x3d32e7b3	0.043677997
65	0x3d9ccd6a	0.07656367
66	0xbe142ee2	-0.1447101
67	0xbdbac941	-0.091204174
68	0x3dc3e038	0.09564251
69	0xbdf29728	-0.11845237
70	0xbe30c894	-0.17264014
71	0x3d977da1	0.07397009
72	0xbe3e4455	-0.18580754
73	0x3d5f339e	0.054492585
74	0xbe2c8da9	-0.16850914
75	0xb9d3b162	-0.00040377217
76	0xbcd65853	-0.026165163
77	0x3c26c69d	0.010179189
78	0x3dbde2a1	0.09271742
79	0x3e0d0313	0.13770704
80	0xbdaffd09	-0.085931845
81	0x3ddb2d73	0.10702028
82	0x3e003970	0.1252191
83	0xbd3f737c	-0.046740994
84	0xbe254da1	-0.16142894
85	0x3d32e106	0.04367163
86	0x3ccf9f50	0.02534452
87	0x3cdbb5d8	0.026820108
88	0xbde899ed	-0.11357484
89	0x3c08b95b	0.008344973
90	0xbe04b532	-0.12959746
91	0x3e15cc36	0.14628682
92	0xbd3ec859	-0.046577785
93	0xbe005dbf	-0.12535761
94	0xbc812c7d	-0.015768284
95	0x3db0f033	0.08639564
96	0x3da711e0	0.08157706
97	0x3d565131	0.052323524
98	0xbdb20ab6	-0.08693449
99	0x3e03c56e	0.12868282
100	0xbcbb2d34	-0.022848703
101	0x3d72bbe2	0.05926121
102	0xbdd2ed0f	-0.102991216
103	0xbd82ec8c	-0.06392774
104	0xbc81a947	-0.015827788
105	0xbdb203cb	-0.0869213
106	0x3e0bb3db	0.13642828
107	0x3c1c3b42	0.009535613
108	0x3d924ff4	0.07144156
109	0x3dd757d7	0.10514801
110	0x3ca357c6	0.019939315
111	0x3dd67002	0.104705825
112	0x3e5f148e	0.21785185
113	0x3e5d3dfb	0.21605675
114	0x3c654735	0.013994028
115	0x3e0b9b8f	0.1363356
116	0x3da9bc32	0.082878485
117	0x3d7d711a	0.06187544
118	0xbcc76387	-0.02433945
119	0x3d1d6db7	0.03843471
120	0x3da77cda	0.081781104
121	0x3da33b2d	0.07970271
122	0x3cda7715	0.02666811
123	0x3e194425	0.14967401
124	0x3dfde999	0.12398071
125	0x3def1198	0.116732776
126	0xbb1a7a72	-0.0023571518
127	0xbc151579	-0.009099358

lstm.bias_hh_l1 f4 [128]
0	0xbdcfdee2	-0.101499334
1	0x3e0ab7aa	0.13546625
2	0x3d01b0fb	0.031662922
3	0x3e272d32	0.16325834
4	0x3e48fb19	0.19627036
5	0x3cdae407	0.02672006
6	0xbe1f3262	-0.15546563
7	0x3dcadc61	0.09905315
8	0x3e47bb32	0.19505003
9	0x3b474772	0.0030407575
10	0x3df02438	0.11725658
11	0xbcfca63d	-0.030840987
12	0xbdd4fd98	-0.10399932
13	0x3e4f0690	0.20217347
14	0x3e855cb4	0.2604729
15	0x39c30051	0.00037193534
16	0x3d843f30	0.064573646
17	0x3d090aab	0.03345744
18	0xbd8e0530	-0.06934583
19	0xbcabdc8c	-0.020979188
20	0x3e6e3269	0.23261417
21	0x3e53ee22	0.20696309
22	0x3cda523e	0.026650544
23	0xbda60e8b	-0.081082426
24	0x3cb07701	0.02154112
25	0xbd3e89e9	-0.04651824
26	0x3e34519f	0.17609261
27	0xbdd7341b	-0.10507985
28	0x3e639704	0.22225577
29	0xbc71150d	-0.014714492
30	0xbb73cdb3	-0.0037201464
31	0xbbab143d	-0.0052209185
32	0xbdf48f28	-0.119413674
33	0x3e026610	0.12734246
34	0x3e22f9f8	0.15915668
35	0xbdb246f9	-0.08704943
36	0xbdbcd4a1	-0.09220243
37	0x3d8bae1a	0.068203166
38	0xbe1971d8	-0.14984834
39	0xbb0df4d9	-0.0021660833
40	0xbda30d5d	-0.07961533
41	0x3e01282a	0.12612978
42	0x3e28b940	0.16476917
43	0xbdf0fdba	-0.117671445
44	0xbcbcd22a	-0.023049433
45	0xbda6eacb	-0.08150252
46	0xbda172f6	-0.07883255
47	0x3e171778	0.14755046
48	0x3c950c23	0.018194264
49	0xbd76e699	-0.06027851
50	0x3d44e3d8	0.04806885
51	0x3d87c4a0	0.066293
52	0xbdf37029	-0.11886627
53	0x3c9bd5c9	0.01902284
54	0x3e2863f6	0.16444382
55	0x3cec5aa7	0.02885182
56	0xbde391ce	-0.111117944
57	0x3d0ac7bf	0.0338819
58	0x3d773933	0.060357284
59	0x3d9f338d	0.077735044
60	0xbdc3dbdc	-0.09563419
61	0x3d8bd5db	0.06827899
62	0x3c79f4f2	0.015256153
63	0xbdf44490	-0.1192714
64	0xbe1b70fc	-0.15179819
65	0xbc4dcb7e	-0.012560723
66	0xbd15906d	-0.03651469
67	0xbd7b76df	-0.06139266
68	0x3da8ad83	0.0823622
69	0xbdc75bcc	-0.09734306
70	0xbe2b6c7f	-0.16740607
71	0xbddaf8e5	-0.10692004
72	0xbe17ba32	-0.14817122
73	0xbd05007f	-0.032471176
74	0xbdd2c869	-0.102921315
75	0xbdcd1f98	-0.10015792
76	0xbe288364	-0.16456372
77	0x3e2f2d32	0.17107084
78	0x3da740cf	0.08166658
79	0x3dc13c52	0.09435333
80	0x3d9b8a76	0.07594769
81	0xbdfe55b5	-0.12418691
82	0xbbd3127e	-0.0064414134
83	0xbe056907	-0.13028346
84	0x3c6da7f5	0.014505376
85	0x3e3e9f4c	0.18615454
86	0x3d68bb22	0.05681909
87	0x3e297682	0.16549113
88	0x3d770a12	0.06031234
89	0x3cce807f	0.025207756
90	0xbdb37b6a	-0.08763774
91	0x3d9eccaf	0.07753884
92	0xbd690567	-0.056889918
93	0x3d97421e	0.07385658
94	0x3d50782b	0.05089585
95	0x3d9bd31b	0.076086245
96	0x3ceced42	0.028921727
97	0x3df70821	0.12062097
98	0xbdb85ba4	-0.09001854
99	0x3e266f6b	0.1625344
100	0x3d883f33	0.06652679
101	0x3d2afc2a	0.04174439
102	0xbd36fea8	-0.044676453
103	0x3ce80cee	0.028326478
104	0x3da6bb5d	0.081412055
105	0xbdc0240d	-0.09381876
106	0xbe2c8f6b	-0.16851585
107	0x3dfe816e	0.124270305
108	0xbd9b0f20	-0.07571244
109	0x3d93ec6c	0.07222828
110	0x3e2944b1	0.1653011
111	0x3d7d1f82	0.061797626
112	0xbe00409c	-0.12524647
113	0xbd5e780a	-0.054313697
114	0x3dc432c2	0.09579994
115	0x3e8aca8e	0.27107662
116	0x3e6af2e9	0.22944225
117	0x3c0207e0	0.007936448
118	0x3d847b5d	0.06468842
119	0x3e487cc4	0.19578844
120	0xbd8907f2	-0.066909686
121	0xbbacae8b	-0.0052698306
122	0xbd90bfdc	-0.07067844
123	0xbdd943e6	-0.10608654
124	0x3e3252e3	0.17414431
125	0x3e2eda8a	0.17075554
126	0x3dfa08a4	0.12208679
127	0xbcd62eac	-0.026145302

lstm.weight_ih_l2 f4 [128, 32]
0	0xbe041c20	-0.12901354
1	0x3e44229a	0.19153824
2	0x3e20d814	0.15707427
3	0xbe2f0151	-0.17090346
4	0x3dd16803	0.10224917
5	0x3cfe51e9	0.031044917
6	0xbe44067b	-0.19143097
7	0x3dbc754f	0.09202062
8	0xbd9698af	-0.07353341
9	0x3d4abadd	0.049494613
10	0x3d0c5712	0.034262724
11	0xbe0daa64	-0.1383453
12	0xbc881078	-0.016609415
13	0xbddd36ef	-0.108014934
14	0x3cade977	0.021229489
15	0xbd543c60	-0.05181539
16	0x3d43e8bc	0.047829375
17	0x3d989a07	0.074512534
18	0x3bab9f89	0.005237524
19	0x3d470b31	0.048594657
20	0xbdc123b0	-0.09430635
21	0x3d292942	0.041299112
22	0xbc421131	-0.011844919
23	0x3e13dfa6	0.14440784
24	0xbe31ad13	-0.17351179
25	0x3e467cda	0.19383565
26	0xbe1a7ad9	-0.15085925
27	0xbddf861e	-0.10914253
28	0x3c859f48	0.016311303
29	0x3e1cd88f	0.15316986
30	0xbe0a5978	-0.13510692
31	0x3deadd7e	0.114680275
32	0xbd83c72d	-0.06434474
33	0xbdca040f	-0.09864055
34	0xbd0ecff0	-0.034866273
35	0xbd97c620	-0.07410836
36	0x3d9fc8ba	0.078019574
37	0x3e4a8598	0.19777524
38	0xbe3cf7d8	-0.1845392
39	0xbd4bf571	-0.049794618
40	0xbd449968	-0.047997862
41	0x3cf26378	0.029588446
42	0xbcd36eb2	-0.02580962
43	0xbe24d30c	-0.16096133
44	0xbe060065	-0.13086088
45	0xbce55ea3	-0.027999228
46	0x3cc6a859	0.024250196
47	0x3d541904	0.05178167
48	0x3e2890bb	0.1646146
49	0x3d19e865	0.037575144
50	0x3d040d68	0.032239348
51	0x3d1c646a	0.0381817
52	0xbda7e264	-0.081974775
53	0x3c8525d0	0.016253382
54	0xbdc6abc6	-0.09700732
55	0xbe026cd0	-0.12736821
56	0xbda2822f	-0.07934987
57	0x3e57a2e6	0.21058235
58	0xbc669f9d	-0.014076141
59	0xbdf5f2bd	-0.12009189
60	0x3c67af1b	0.0141408695
61	0x3e3247e6	0.1741024
62	0xbe4ba338	-0.19886482
63	0x3bf97cbb	0.007613746
64	0x3e07ef4e	0.13274881
65	0x3e6be367	0.23035966
66	0xbdf93079	-0.121674486
67	0xbc51b832	-0.012800263
68	0x3df4ad2e	0.11947094
69	0x3d323f59	0.043517444
70	0x3df21a5e	0.118214354
71	0xbdfe572b	-0.1241897
72	0xbe455226	-0.19269618
73	0xbd72b3e2	-0.05925358
74	0x3d0a1429	0.033710632
75	0xbdeb8929	-0.115007706
76	0x3d44e3b0	0.048068702
77	0xbe0f15b9	-0.1397313
78	0xbe01a094	-0.12658912
79	0x3de91802	0.11381532
80	0x3e06a800	0.13150024
81	0x3c8278de	0.015926775
82	0x3deec901	0.11659432
83	0xbe10c212	-0.14136532
84	0x3d70b014	0.05876167
85	0xbc689a33	-0.01419692
86	0xbe19aa3a	-0.15006343
87	0x3c82df27	0.015975548
88	0x3ca2a76b	0.019855222
89	0x3e41af58	0.18914545
90	0xbda256f1	-0.07926739
91	0x3d9cf5ff	0.076641075
92	0x3e115f73	0.14196567
93	0xbe09711b	-0.13422053
94	0xbe0aab31	-0.13541867
95	0x3df4767d	0.11936662
96	0xbd10a13d	-0.03531002
97	0x3dd0c830	0.10194433
98	0x3ddc61c2	0.10760833
99	0xbe6b6c64	-0.22990566
100	0x3d5f9591	0.054585997
101	0x3e3ca091	0.18420626
102	0xbc0d55b0	-0.0086263865
103	0x3dd32867	0.103104405
104	0xbe252ba9	-0.16129936
105	0xbe52428a	-0.20533195
106	0xbd8db659	-0.06919546
107	0x3ce23785	0.027614364
108	0xbe285c4b	-0.16441457
109	0xbc890e06	-0.01673032
110	0x3cf006b7	0.029300077
111	0xbd8f4c48	-0.06996971
112	0x3df7c8fd	0.12098882
113	0x3e86edae	0.2635321
114	0xbe0139b6	-0.12619671
115	0x3e25c720	0.16189241
116	0xbc6b7de9	-0.014373281
117	0xbd17ad56	-0.03703054
118	0x3e13769f	0.14400719
119	0x3da1105b	0.07864448
120	0x3c05378d	0.00813092
121	0xbcdea857	-0.02717988
122	0xbe1da09b	-0.15393297
123	0x3df310dd	0.11868451
124	0x3e298d91	0.1655791
125	0x3e4f0e88	0.20220387
126	0xbe25f465	-0.1620651
127	0x3e169462	0.14705041
128	0x3e2d8dda	0.16948643
129	0x3d947eca	0.072507456
130	0x3e241ede	0.160274
131	0x3cc0ed0b	0.02355053
132	0x3d3c1ebc	0.045927748
133	0x3e72b2fa	0.23701087
134	0xbc4df581	-0.01257074
135	0x3df011c7	0.11722141
136	0xbd99d5c0	-0.07511473
137	0x3c9fac22	0.019491259
138	0x3cec61bf	0.028855203
139	0xbdbf80c6	-0.093507335
140	0xbdc11698	-0.094281375
141	0x3da69b85	0.08135132
142	0xbde7f494	-0.113259465
143	0xbd56ab3b	-0.05240939
144	0x3d5c4278	0.053774327
145	0x3e1e4c05	0.15458687
146	0xbd9d5b03	-0.07683375
147	0x3e013aa6	0.12620029
148	0xbd87b5db	-0.06626483
149	0x3de60642	0.11231662
150	0xbe36a381	-0.1783581
151	0xbe1f645b	-0.15565626
152	0xbcbc0a7f	-0.022954224
153	0x3e052a52	0.13004425
154	0xbe22aacd	-0.15885468
155	0x3e6a435d	0.2287726
156	0xbd468714	-0.048468664
157	0x3e38fe7c	0.18065828
158	0xbca40a6d	-0.020024503
159	0xbd85368f	-0.06504547
160	0xbd9ef6b4	-0.07761899
161	0x3decccfb	0.115625344
162	0xbc41d03b	-0.011829431
163	0xbe1120a0	-0.14172602
164	0x3e6465b9	0.22304429
165	0x3e44ff91	0.19238116
166	0x3e6d2a5a	0.23160687
167	0x3d3625de	0.044469707
168	0x3d199fe6	0.037506007
169	0x3e71cb90	0.23612809
170	0xbdf686a9	-0.12037403
171	0x3d1334d8	0.035939068
172	0x3e245f48	0.16051972
173	0x3ce21a3d	0.027600402
174	0xbe8b2aea	-0.27181178
175	0x3dbd7a32	0.092518225
176	0x3de4e37b	0.11176201
177	0x3e3f88c1	0.18704511
178	0xbde2baeb	-0.11070808
179	0x3d6a1546	0.057149194
180	0x3ccc6753	0.024951613
181	0xbe7f11c1	-0.24909116
182	0xbe62fe9e	-0.22167441
183	0x3d6a7d24	0.05724825
184	0x3de632ca	0.11240156
185	0x3ea76a52	0.32698303
186	0xbde82ff9	-0.11337275
187	0xbe2b8fc1	-0.16754057
188	0xbcdf8387	-0.027284397
189	0xbe1666cd	-0.14687653
190	0xbdea5674	-0.11442271
191	0xbe615bed	-0.22007723
192	0x3d8c455d	0.068491675
193	0xbd4f36db	-0.050589424
194	0x3de37b2f	0.1110748
195	0x3e2d6d43	0.16936211
196	0xbe359c5e	-0.1773543
197	0x3db8111d	0.08987639
198	0x3be74e93	0.0070589273
199	0xbdc14d78	-0.09438604
200	0x3d5e0492	0.054203577
201	0xbdb3d3ee	-0.08780657
202	0xbdd7fedd	-0.10546658
203	0x3cd1ef93	0.025626933
204	0xbe8b9586	-0.27262515
205	0xbc55c489	-0.013047346
206	0x3da3d96d	0.08000455
207	0xbd9d07c8	-0.076675
208	0xbd7ffbc9	-0.06249598
209	0x3db2dd90	0.08733666
210	0x3df2233a	0.11823125
211	0xbd9d66d3	-0.07685628
212	0x3d6c745f	0.057728168
213	0xbb53245f	-0.0032217724
214	0xbd10aed0	-0.035322964
215	0x3dfdfdf1	0.12401951
216	0xbcff7572	-0.031183932
217	0x3e208831	0.15676953
218	0xbd9c2329	-0.07623894
219	0xbd7e6ad8	-0.062113613
220	0x3c976e57	0.018485231
221	0x3d5cbe37	0.05389234
222	0xbe4d18cf	-0.20028995
223	0xbc9cf479	-0.019159542
224	0x3d496f7f	0.049178597
225	0x3e2d8da0	0.16948557
226	0xbd4b16ec	-0.049582407
227	0x3d797787	0.060905006
228	0xbce80d87	-0.028326763
229	0x3d4da3fe	0.050205223
230	0x3d764821	0.06012738
231	0xbd962703	-0.0733166
232	0xbdd373f0	-0.10324848
233	0xbe442101	-0.19153215
234	0xbd0e7a66	-0.034784697
235	0x3d9fcf8f	0.078032605
236	0xbd229b35	-0.0396988
237	0x3dff48e3	0.12465074
238	0x3d3b269b	0.045691114
239	0xbdb14e98	-0.08657569
240	0x3df57cfe	0.11986731
241	0x3dbb47c6	0.09144549
242	0x3d0cbeb6	0.034361564
243	0x3d38c3ed	0.045108724
244	0xbe1a841a	-0.15089455
245	0xbd9840c2	-0.074342266
246	0xbdae35e3	-0.08506372
247	0xbdcb13bf	-0.09915876
248	0x3d833484	0.06406501
249	0xbcf5ed2d	-0.03002032
250	0x3d1d08b6	0.038338386
251	0x3d2c79b7	0.042108264
252	0x3d863000	0.06552124
253	0x3dec1e63	0.11529233
254	0x3c960f5b	0.018317869
255	0xbde1a7fa	-0.11018367
