model_params/full_model.pth (torch, 99768 bytes, 17 tensors)

lstm.weight_ih_l0 f4 [128, 7]
00000000: fd14 3bbe 8108 22be b5d3 ac3d 6861 56be
00000010: 6a02 04bd f3c3 4dbd aed9 86bc 51e9 93bd
00000020: 4218 033d b7ed 9bbc aa66 38bb d2f0 bdbd
00000030: 0fa2 9b3c 00b4 f13d 053b 9fbd 8315 32be
00000040: 70ae 9c3d 3e06 13be feba 3bbe d902 3abd
00000050: f1a7 c33d 0eb0 793e 9bdb 8abd a8c3 0e3e
00000060: 6bae 013e 66ae aebc 2bc0 adbd 330a 103e
00000070: 8e7f a83d d474 0e3d acb1 9e3d 6263 5bbe
00000080: 45e3 48bd 45df 87bb 39af 2cbe 3f2b 8abd
00000090: 88c1 033d 4a9d 7b3e e141 ecbc cd19 443e
000000a0: be78 243e eaf9 243d e2a8 753d fa3c d63c
000000b0: 300e 4a3d 8f4d 11be 0f83 9f3d 692c f2bd
000000c0: 713d b5bd e8ff 043c e971 95bc e070 173c
000000d0: c3d2 613c 09e2 1a3d 22b5 e03c 4542 db3d
000000e0: 31be e4bd b364 febd 0cd4 b8bd f719 033e
000000f0: 399c 18be 7548 b8bd 2a47 27be 0a5c 5ebe
00000100: 1f40 c4bd 8498 a23d 8b18 4abe ef33 3d3d
00000110: 2fa5 d5bd dd52 a03d db19 b23b 8ce3 003d
00000120: 0eb3 cb3a 0450 eb3d 1965 c53d a88b 23bd
00000130: 88f5 0a3e ad66 33bd b392 c2bd d602 90bc
00000140: 5e66 0c3e 1425 22be 6398 993d f6bb 94bd
00000150: 75bf 563e 099b e53d 262d 093e 73bc 583e
00000160: 02c8 c8bd 3d31 c23c ba67 3b3e e7dd 4e3d
00000170: d473 6e3e edc9 3d3e abe8 c13d 2d5f 16bd
00000180: 26fd 4fbd 3d09 2abe 4a08 e7bc 25cb adbc
00000190: 4ac3 cd3d e8ef 523d 1b0f acbc 296d 863d
000001a0: 2ad3 39be 62a4 23be c9a1 4ebc fb45 db3c
000001b0: 21ee 623d 462f 693d 10d0 7ebd 0977 d7bc
000001c0: 0900 07be 4d2f e43d 2299 68bd 5436 4fbe
000001d0: ba4e ab3c eb02 babd 925d bdbd 65e5 153e
000001e0: ca48 193e 48d5 0abb d175 883a 5093 f13d
000001f0: 7b9a cabd 9758 ec3d 5a8a 00be b44f 91be
00000200: 47ab d93d 722f 863d 23fe fdbc b372 7dbe
00000210: c4c5 71bb 7762 e03d a94f 0c3e 714c 2b3d
00000220: 5e39 39bd 33b8 db3c 1f51 683e 3f6a 1b3e
00000230: 1358 e6bc 2230 ff3d 21c3 d83d 578a 18bd
00000240: eb71 893d c6c8 7f3e 2d84 b7ba 0288 37be
00000250: 3267 143d 716a 99bc 8cb5 383d 92ae 34be
00000260: 2d01 31be b2e5 11be d299 f3bc 99fe c53c
00000270: 2b40 f4bc 50c5 453d 968c 57be c232 f13d
00000280: 77c8 f5bd 6a32 44bc 4290 c23d a503 f93c
00000290: 9d72 143d 5a86 24bd cfdd 05be 2ba6 c13d
000002a0: 842d 51be 6115 43bc 949d 913e 38bb 31be
000002b0: 52fc 023e d686 08be 6c64 cebc 785a 17be
000002c0: c5cc 983e 39dd 803e bbaf a0bb f87b 27bd
000002d0: 9a12 42be ec76 25bd 6c9e fabd 656c ba3d
000002e0: db7f 5b3a 1a28 26be 8539 e93d 7917 69bd
000002f0: 7f2f 583e 0fbd 6bbe 5706 e73c 06de d5bc
00000300: 8f6f a7bd 5185 a43d f539 a3bd 9bbc b33d
00000310: cdd6 fdbd dfc2 233e a1f8 053c 1e1d a63d
00000320: bd49 27be 6874 cdbc e0b9 adbd 973c ae3c
00000330: 5d87 e53d c54d f93c 7a54 823d d8b0 8fbd
00000340: d049 453d 7c7c 333e 2b34 38be c2ef 1c3e
00000350: e530 aebd 0d4c 5dbc 53d4 33bd 5495 b7ba
00000360: 63b4 473e 7c3f eebc 7d6e c93d 5bda a93b
00000370: 3d76 8fbc 1ac2 a4bc 9f97 df3d 8018 ee3d
00000380: 19fc c9bd e9c5 30be 7e36 7dbe dcfd 21be
00000390: 4944 cdbd 2912 193e 9734 363e 92a2 b33d
000003a0: d31c 8bbc 6561 043d 54e5 a53d 5cfe 2b3c
000003b0: 19ed ef3c a835 9fbd 23ec 1cbe 5f5e 93bd
000003c0: 6859 8ebd 6924 b7bd 6e6c 8bbd 16be d63d
000003d0: 30b4 ad3c 40f8 e0bd 97e3 c6bd 05c5 ac3d
000003e0: c5af dd3d db40 f6bd b0b2 61bd 0123 13bb
000003f0: 7ff4 2bbe 027a 8bbd 251c 6d3d b7db bfbd
-0.18269725 -0.15823556 0.084388174 -0.20935595 -0.032228865 -0.0502357 -0.01646122 -0.07222236
0.032005556 -0.01903425 -0.0028137364 -0.092744485 0.018998174 0.118019104 -0.07774929 -0.17391019
0.07650459 -0.1435785 -0.1833305 -0.045412872 0.09553517 0.24383566 -0.06780168 0.13941824
0.12664191 -0.021323394 -0.08483919 0.1406639 0.08227454 0.034779385 0.07748732 -0.2142463
-0.049044866 -0.004146489 -0.16863717 -0.0674653 0.032166988 0.2457172 -0.028840007 0.19150467
0.16061684 0.0402774 0.059975512 0.026152123 0.049329937 -0.14189743 0.07788669 -0.11824877
-0.0884961 0.008117653 -0.018242793 0.00924322 0.01378316 0.03781322 0.02743012 0.10705999
-0.11169089 -0.124215506 -0.0902482 0.12802874 -0.14903344 -0.08998195 -0.1633574 -0.21714798
-0.09582543 0.07939246 -0.19735925 0.046192106 -0.10431897 0.07828305 0.005435211 0.031467006
0.0015541033 0.11489871 0.096384235 -0.03992811 0.13570225 -0.04379909 -0.09500637 -0.017579477
0.13710925 -0.15834457 0.074997686 -0.07262413 0.20971473 0.11211211 0.13396129 0.21165638
-0.098037735 0.02370512 0.18301287 0.05050459 0.23286372 0.1853406 0.09468206 -0.03671186
-0.05077853 -0.16605087 -0.028202195 -0.02121503 0.10047014 0.051498324 -0.021003297 0.065637894
-0.18146959 -0.15980676 -0.012611815 0.026766768 0.05540288 0.05692985 -0.062210143 -0.026301878
-0.13183607 0.111418344 -0.056786664 -0.20235568 0.020911563 -0.09082588 -0.09246363 0.14638288
0.14969173 -0.0021184254 0.0010411089 0.11795676 -0.09892746 0.11540335 -0.12552777 -0.2838112
0.10628372 0.06552018 -0.03100497 -0.24750786 -0.003689156 0.10956281 0.13702263 0.041820947
-0.045220725 0.026821231 0.22687195 0.15177248 -0.028118169 0.124603525 0.10584093 -0.037241306
0.06711181 0.24978933 -0.0014001183 -0.17922977 0.036231227 -0.018727513 0.04509501 -0.17644718
-0.17285605 -0.14247778 -0.029736433 0.024169253 -0.029815754 0.048283875 -0.21049723 0.117772594
-0.12001126 -0.01197491 0.09500171 0.030397246 0.036242116 -0.04016719 -0.13072895 0.09455522
-0.20427519 -0.011906953 0.28440535 -0.17356575 0.12791565 -0.13332686 -0.02519437 -0.14780605
0.29843727 0.2516878 -0.004903761 -0.04088971 -0.18952408 -0.040396616 -0.12237248 0.09102706
0.0008373239 -0.16226235 0.11387924 -0.05690715 0.21111868 -0.23021339 0.028201265 -0.026106846
-0.08175575 0.080332406 -0.07970039 0.08776208 -0.123944856 0.15992306 0.0081769535 0.081110224
-0.16336723 -0.02507992 -0.084827185 0.021269126 0.11207459 0.030432591 0.06363769 -0.07016152
0.048166096 0.17527956 -0.1798865 0.15325835 -0.0850542 -0.013506901 -0.04390366 -0.0014006295
0.19502406 -0.029083006 0.09835527 0.0051835007 -0.017512435 -0.020112086 0.10917591 0.11625767
-0.09862537 -0.17262997 -0.24727818 -0.15819496 -0.1002279 0.14948334 0.17793499 0.08771242
-0.016981518 0.032319445 0.081003815 0.010497656 0.029287862 -0.07773906 -0.15324454 -0.07195734
-0.06950647 -0.089424916 -0.06807791 0.10485475 0.021204084 -0.1098485 -0.09711378 0.08436016
0.10824541 -0.12024089 -0.05510205 -0.0022451284 -0.16792487 -0.068103805 0.05788817 -0.09368079

lstm.weight_hh_l0 f4 [128, 32]
00000000: 3e7e c7bd 2016 22bd a92c 47be 6a6a 10be
00000010: 65f7 b63e 110f ad3d f7a8 913e 7b08 18be
00000020: fa22 273e aa62 23bd 3d26 883d ca03 1a3c
00000030: 474b 98bd 0e1b cf3d 0acd 67be e178 0e3d
00000040: 66c6 2a3e dca8 8dbd 05a0 ddbd 8273 55be
00000050: f36b 8d3e 26c7 ae3d b6af e3bb c7a6 a0be
00000060: acb2 d43d 45d3 b2bb 92be 7c3d 8150 d93d
00000070: 721c cebd 719a cc3d 4a0b d7bd 926b 02be
00000080: 325d 6abe 0be4 efbc dc48 46be 0486 9e3d
00000090: ca97 153e 99b7 31bc aeaf 07bc 6cad 03be
000000a0: 6010 0fbe e86b 05bd 64f8 be3d 81a5 4fbe
000000b0: 7c34 1a3e a29e 203e a669 6abc 7831 c53c
000000c0: 6772 373e 1e56 79be 524f 423d da98 6bbc
000000d0: fc7b dfbd 14de 20be e9e2 1fbe 8509 813d
000000e0: 8524 363e b8c8 80bd 00f0 e8bd 4f68 c13c
000000f0: 4cc9 64be cf2a 9bbd 5286 b6bd 4539 d9bd
00000100: ad46 dfbd a80c fbbc e301 1a3d 7422 8d3d
00000110: 90b2 003e 6891 fbbd 1b57 acbc 4539 d23c
00000120: 70e6 d8bd dfe9 0a3e 8e32 febd 2c08 0d3e
00000130: 4a99 0cbe 0e8f 473e b2b5 f6bd 3601 14bc
00000140: 1cf7 cc3d f0c8 5d3d 3c9d a2bc b72c 133e
00000150: 41ae 483e 9703 7cbe c031 8fbe 7ddd 61bd
00000160: 2d6e 5ebd e90d 823d 7979 1dbc 8417 f0bd
00000170: 32a6 503d 8c56 733d d663 273e 4e28 cc3d
00000180: 097a 4dbe 5edb ba3c 0619 4c3d 5cba 4e3e
00000190: 6bc9 023d 1b6b 4b3c ed8f 193e b018 163e
000001a0: 0160 f2bd c98f b23d 6c90 31be 6be5 a5bd
000001b0: f7fa febd 7f5f 593d 400d a4bd fdf7 1fbe
000001c0: b08d 923d 2eff 483b 1458 c63c 6632 2ebe
000001d0: 634a 3c3e 4d55 46bc bc77 a3bd 2925 56bd
000001e0: 337d 533e e3ad 02be 107e a2ba a6aa 113d
000001f0: 8b20 c73d 8ad7 29bd ddfd 413e 0673 febd
00000200: 6cca b2bd bcbb 03bd f79a 003e f1f4 e7bc
00000210: f8fd 203e 2586 febd 9079 cebb 1011 fa3c
00000220: 5205 a5bd 2ad8 63be fa05 36be e7c5 ab3d
00000230: 1cde 043e d99d 93bd ab3b 513d dc22 29be
00000240: 57e8 71bd bfbb 26bd 8bd8 a73d 9c56 4c3d
00000250: ebee 6a3d 874d 503d 8e95 46be 623c 943c
00000260: 0020 16bd 5d00 97be 3b02 f63c e612 1c3e
00000270: be66 343e d53a 8cbd 8b91 123e efa5 183e
00000280: 48de 433d e7cc 683e 4dfb e33d 4a16 c4bb
00000290: 8a65 fe3d 6c28 183e d3c7 94bc 7a2b 553e
000002a0: 397f 17bd c8cd b13d da02 14bd 9dca 3ab9
000002b0: 5a73 793e 26f7 5a3e 2e17 2a3e f5eb 3a3e
000002c0: b8e8 64bd c132 a93d 79a1 e3bd ba59 ee3d
000002d0: 50c4 f4bd b4f3 af3c de48 94bb 566c ce3d
000002e0: c754 133e 1fba 86bd 946e b33d 7bcf 99bd
000002f0: 3e42 4abe 9218 4d3e 2ac3 99bd 62a4 23bb
00000300: cfb3 bf3b b924 443e 73c5 55bd 8a5b 113d
00000310: e97d 0a3e bd4d 2ebe 9f1f 1b3e a2be e8bd
00000320: 4745 46bd f91e 03be fb3b 23be 614a b3bc
00000330: b570 e0bc 9900 373e 2b8c 7fbe fdcf 4e3c
00000340: 073c 15bd 24f7 a13d 5b51 013e d1da 39bd
00000350: 858b 283e 38f6 22be 8eb9 78bd b6e8 883d
00000360: 2305 273e 8db7 5fbd 9cc4 3dbd f607 1f3d
00000370: bc7f 0f3d 6985 54be f8f5 b7bd bcd1 8fbe
00000380: 1a60 f3bd e15f 983d 9fb1 05bc b9f6 243e
00000390: aaed f33d a809 38bc 9591 3a3d 6098 553e
000003a0: 8998 06bc 3aeb 43bd c8f2 e0bd df2f d2bd
000003b0: 110b e83d ab30 443d d38f be3e 417b f3bd
000003c0: cdea 8d3e 8e42 8bbe edcd 39be 981d a6bd
000003d0: 94e2 03be f00d 88bd 3bb9 5cbd eb95 ddbd
000003e0: 2947 073e 9e63 56bd 8a17 593d a350 77be
000003f0: e1ab 40be db5b a43d 18bf 183e ae29 82be
-0.09740876 -0.03957188 -0.1945063 -0.14103094 0.35735622 0.08450139 0.28449222 -0.14846985
0.16321936 -0.039889015 0.066479184 0.009400317 -0.07436233 0.10112582 -0.2263681 0.034783248
0.16677245 -0.06916973 -0.10821537 -0.20844844 0.2762142 0.08534078 -0.0069484366 -0.3137724
0.103856415 -0.005457314 0.06170518 0.10611058 -0.10064019 0.09990395 -0.105002 -0.12736347
-0.22887114 -0.029283544 -0.19363731 0.07740405 0.14608684 -0.010846996 -0.008281631 -0.12859124
-0.1397109 -0.03257361 0.093247205 -0.20277978 0.15059084 0.15685514 -0.014307415 0.02407144
0.17914735 -0.24349257 0.047438927 -0.014379704 -0.1091232 -0.15709716 -0.15613903 0.06300644
0.17787369 -0.06288284 -0.11373901 0.023609309 -0.22342414 -0.075765245 -0.08912338 -0.106066264
-0.10902152 -0.030645683 0.037599456 0.06891337 0.12568116 -0.122835934 -0.021037629 0.025662074
-0.105908275 0.13565777 -0.12411986 0.13772649 -0.1373035 0.19488165 -0.120463744 -0.009033492
0.1000807 0.054146707 -0.019850366 0.14372526 0.19597723 -0.24610744 -0.27967644 -0.05514287
-0.05430429 0.063503094 -0.009611481 -0.11723235 0.050939746 0.05940871 0.16346678 0.09968625
-0.20066084 0.02280968 0.04982855 0.20188278 0.03193037 0.012415673 0.1499631 0.14657855
-0.118347175 0.08718831 -0.17340249 -0.08100399 -0.124502115 0.053069588 -0.0801034 -0.15621944
0.07155931 0.0030669677 0.02421192 -0.17011413 0.18387751 -0.012105298 -0.07981822 -0.052281532
0.20653228 -0.12761645 -0.0012397189 0.035563134 0.09723004 -0.04146532 0.18944497 -0.12424283
-0.08730015 -0.03216146 0.12559114 -0.02831504 0.15721881 -0.1242793 -0.0063011125 0.030525714
-0.080576554 -0.22250429 -0.17775717 0.08387356 0.12975353 -0.072078414 0.051082294 -0.16517204
-0.059059467 -0.040706392 0.08195599 0.049887285 0.057356756 0.050855186 -0.19392988 0.018095199
-0.03665161 -0.29492465 0.03003036 0.15241584 0.17617318 -0.06847159 0.14313333 0.14907049
0.047819406 0.22734414 0.11131916 -0.0059841024 0.12421711 0.1485917 -0.01816169 0.20817366
-0.036986563 0.08681828 -0.036135532 -0.00017813822 0.2436041 0.21383342 0.16610405 0.18254073
-0.055886 0.08261634 -0.11114783 0.11638208 -0.11951506 0.021478511 -0.004525288 0.10079257
0.14387809 -0.065784685 0.087613255 -0.07510277 -0.19751832 0.20028904 -0.07507928 -0.0024969806
0.0058502923 0.19154634 -0.052190255 0.03548769 0.13524593 -0.17021842 0.15148781 -0.11364485
-0.04840591 -0.12804784 -0.1594085 -0.021886053 -0.027397493 0.17871322 -0.24955814 0.01262283
-0.0364342 0.079084665 0.12628691 -0.045374695 0.16459472 -0.15914237 -0.060723834 0.06685011
0.16310553 -0.054618407 -0.04633008 0.03882595 0.035033926 -0.20754017 -0.08982462 -0.28089702
-0.11883564 0.074401625 -0.008160024 0.16109742 0.11910565 -0.011232771 0.045548994 0.20858908
-0.008215078 -0.04783175 -0.10983807 -0.10263037 0.11330236 0.047897976 0.37219104 -0.11888743
0.277182 -0.27199215 -0.1814496 -0.08111113 -0.12879401 -0.06643283 -0.053887587 -0.1081961
0.13210739 -0.052341096 0.053000964 -0.24151854 -0.18815567 0.080253325 0.14916646 -0.25422424

lstm.bias_ih_l0 f4 [128]
00000000: b8fe 6b3e 2157 393d 8763 f9bd 333c 9c3e
00000010: 938e d4bd 58ac 7cbd 8abc 123e 9138 733e
00000020: d1ab f03d 67c3 943c 5eb3 9d3c f67d 513e
00000030: 92ea ba3d 4b51 cb3d 8bfe 8c3c dd94 86bc
00000040: 40a6 c73d de31 57bd 5f87 533e d316 c13d
00000050: d84c 9a3e 3dfc 9f3b dacb 1f3d 8e8a 583e
00000060: a201 5ebd aa7f 8b3e de4c 36bc c3a9 493e
00000070: c8a3 87bd 2c95 e73c 8bf4 f03d 90e2 2d3c
00000080: b36a 4dbe c6a5 59be cf39 e73d 4fb7 1d3e
00000090: d04a f1bb e9bf 25be 5df8 893d 94bc 19be
000000a0: 6d74 023c ea5d cdbd 31e1 72bd 0200 cb3d
000000b0: e08a 8dbd df29 07bc 3781 b03d 9b3c 813e
000000c0: f8bd 063e a8b1 e9bd dd80 1dbe dc80 e23d
000000d0: 0398 f53d e613 a8bd b1ac 06be 2e97 41bd
000000e0: ecb0 b3bd 7825 8c3d 4e69 0bbd 4487 ccbd
000000f0: 1b16 7c3e ed3a 013e 5308 d3bd cd20 02bd
00000100: 3c8b 1f3e 6801 893c ec3d a33c 3820 27bd
00000110: 5c2d 25bd ae1c 80bd ae13 35bd 00c3 50bd
00000120: 8957 fcbd 7df1 d23d 0c52 8fbc deff e8bd
00000130: eb1e 513d 7677 86bd 7b0c 423d 5d56 33bd
00000140: 7739 49be 8323 c3bc 2279 113e 4398 3c3d
00000150: 4698 96bd 9cbb 563d f9c2 0c3d 1ce1 e2bd
00000160: d62a 3abd 1085 05bc 4cdd ccbb fe3a c2bc
00000170: 0193 393e 433d cbbd 2c81 1dbd 5a26 10be
00000180: 068a 893e 66a7 8f3e 2ee5 32bd c24f 243e
00000190: cd4a 1dbe 4c65 e13d 2517 173c a69c 903e
000001a0: 59a2 2ebd 5f6c 4ebd 3945 123e e94a 753e
000001b0: e10d a13e 9b68 403e 6aaa d5bd 70f8 f83c
000001c0: 66a2 68bd fa53 c73d 0cdd 973e fd00 7dbc
000001d0: 0099 813e ba7c b73c dffa 2ebd db3d 853e
000001e0: cec8 663e 0f9e 39bd 78e4 7a3d 896a bd3d
000001f0: 456d a9bd 6bb4 ab3e 5144 7e3d 75c5 a33d
0.23046386 0.04524911 -0.121771865 0.30514678 -0.103787564 -0.061687797 0.14329734 0.23752047
0.117515214 0.018159581 0.019250568 0.20458207 0.09126772 0.09927615 0.01721122 -0.016428405
0.097485065 -0.05253779 0.20657109 0.094281815 0.30136752 0.004882364 0.039012767 0.21146604
-0.054200776 0.27245837 -0.011126725 0.19693665 -0.06623036 0.028269373 0.11765393 0.010613099
-0.20060234 -0.21254644 0.11290323 0.15401958 -0.0073636547 -0.16186489 0.06736825 -0.15013343
0.007962328 -0.10027678 -0.05929679 0.09912111 -0.06911254 -0.008249729 0.08618396 0.2524155
0.13158405 -0.11410838 -0.15381189 0.11059734 0.119918846 -0.0820692 -0.13151814 -0.047263317
-0.087739795 0.06843084 -0.034035973 -0.09986737 0.24617808 0.12620135 -0.10304322 -0.031769563
0.15580457 0.016724303 0.019926988 -0.04080221 -0.04032646 -0.0625547 -0.04420822 -0.050967216
-0.123213835 0.102999665 -0.017495178 -0.11376928 0.051054876 -0.06565754 0.047375184 -0.043783534
-0.19650827 -0.023820644 0.14206365 0.046043646 -0.073532626 0.052425012 0.034365628 -0.110780925
-0.045451008 -0.0081494 -0.0062519666 -0.02370977 0.18122484 -0.09923794 -0.038453266 -0.1407713
0.26863116 0.28057402 -0.043675594 0.1604605 -0.15360565 0.11005649 0.009221827 0.28244513
-0.042635296 -0.05039632 0.14284219 0.23954357 0.314559 0.18789904 -0.104328945 0.030391902
-0.0567955 0.09732814 0.29660833 -0.01544213 0.25312042 0.022398341 -0.042719718 0.26023754
0.22537538 -0.045316752 0.06125304 0.092488356 -0.08272795 0.33536085 0.06207687 0.07996646

lstm.bias_hh_l0 f4 [128]
00000000: c255 f63d 0326 793e db61 263e 07af 463e
00000010: e7bd 023d fd91 163d 5c23 863e 9f06 7f3e
00000020: e2c0 0c3e a76a 17be 198a 983d 7d7d cd3c
00000030: d435 2c3e b5aa bebc caa8 e43d 4bd6 97bc
00000040: 0117 423e c835 933d 7b9e a83e 3192 b8bd
00000050: b1e9 903d 156f fb3c 1ec6 913d c245 013d
00000060: 28df 7ebd 1ed2 80bb 7ace a73d 7145 e43d
00000070: 126f 9ebd 9f25 d33d 1744 323e f93f 7e3e
00000080: ccef 023e 8209 0cbe b67c e53d 083e 08bd
00000090: 0faf ccbd 0533 35be 7ad4 5c3c d19f a1bd
000000a0: eae8 113e 3ba5 c2bc 3225 d0bd 3295 303e
000000b0: fc20 c2bc 71e2 05bd 2c80 023e 596b 033e
000000c0: c522 d5bc 8faa 0d3e 1c92 08be 97b1 0cbe
000000d0: 2f34 493d b115 80be 4084 ae3d b057 113e
000000e0: ed13 1f3d 8a63 1f3d ae36 26be e378 f0bd
000000f0: d4dd 9d3d f7e0 193e 5df1 cc3c 8edf e0bc
00000100: 0500 01bd 474d ca3d 5b8b d4bd e9d2 b53d
00000110: 4db5 683d b2a7 56bd 7aaa f23d 7a52 d33d
00000120: d3aa 0fbe fbb3 a53d 28fe 283e f149 5fbe
00000130: 16e7 fdbd 51ec d33d 8810 b8bd 1c36 ddbd
00000140: e0df aa3c 2a1c 4bbd a5f1 b83d 65f8 cebd
00000150: 18dc 073e b0c7 01be 6560 62bd 273c b8bd
00000160: fe8a b43d cd16 e33d 973f b23d 9254 fc3c
00000170: cece c13d 8d2f aebd e32b 363e 85f8 edbd
00000180: 13f7 f73c 9820 7b3e 0362 533e 6c44 7d3e
00000190: 7862 acbc 0001 523d f35b 833e 84bc aabb
000001a0: b8ea 833d 674c ae3d 5c28 123d 992d 4c3e
000001b0: 3e2d 783e 6fe9 623e f69b 88bd 550c 853e
000001c0: 32cf 0dbd ae8b 95bc ce4a 893d ba8f 533e
000001d0: e868 9a3e 75f6 0cbe 0d54 4b3e 97b8 523e
000001e0: 6e5a 9a3e 94f5 1f3e f8fd 94bc e1d0 0a3d
000001f0: 0b19 9e3d 54b3 5c3e 3846 243c 4cd4 7a3e
0.12028076 0.24330907 0.16248266 0.19402705 0.031919386 0.03676032 0.26198852 0.2490487
0.13745454 -0.14786778 0.07448215 0.025084252 0.16817409 -0.023274759 0.111650065 -0.0185348
0.18954088 0.07187992 0.3293341 -0.09012259 0.07075823 0.030692616 0.07117866 0.031560667
-0.062224537 -0.003931298 0.08193679 0.111460574 -0.07736029 0.1030991 0.17408787 0.24829091
0.12786788 -0.13675502 0.11205427 -0.033262283 -0.09994327 -0.17695244 0.013478393 -0.07891811
0.14249006 -0.023760429 -0.101633444 0.17244413 -0.023697369 -0.032686654 0.12744206 0.12833919
-0.026017556 0.13834594 -0.13336986 -0.1373962 0.04912203 -0.2501655 0.085213184 0.14193606
0.038837362 0.038913287 -0.16231796 -0.11741807 0.07708326 0.15027224 0.025017435 -0.02745035
-0.03149416 0.09878021 -0.103781424 0.088781185 0.056813527 -0.05240602 0.11848922 0.103184655
-0.14030008 0.08090969 0.16503203 -0.2180555 -0.12397592 0.10347808 -0.08987528 -0.10801336
0.020858705 -0.049587406 0.09030465 -0.10105971 0.13267553 -0.12673831 -0.05526771 -0.08995848
0.08815573 0.11088333 0.08703535 0.030802045 0.09463273 -0.08505163 0.17790179 -0.11619667
0.030269181 0.24524152 0.20642857 0.24733132 -0.021043047 0.051270485 0.2565609 -0.005210461
0.064412534 0.08510666 0.03568302 0.19939269 0.24236009 0.2215936 -0.06670372 0.2598597
-0.034621425 -0.018255081 0.06703721 0.20660296 0.30158162 -0.13765891 0.19856282 0.20578228
0.30147117 0.15621024 -0.018187508 0.03389061 0.0771962 0.21552783 0.010026507 0.24495047

lstm.weight_ih_l1 f4 [128, 32]
00000000: ec60 b1bd 5192 4d3e 25a8 9cbd be48 c43d
00000010: ebe8 1a3e 0da1 73be fffc 6abd 9b64 55bd
00000020: c2ac 9f3d 3f09 963c 9fbc 36be 2f8b e23d
00000030: 6608 813d 2766 063d da61 423e ce93 40be
00000040: 08fd e2bc a510 38be 63c4 1f3e 938a 943d
00000050: 2660 863c 679b c6bd 0690 b4bd 64a3 ad3d
00000060: 2d71 3dbd edf2 c1bd 8edf 02be 2cb8 5a3d
00000070: 1bb4 cebb a5aa 073e 8e65 70bd 70a7 38be
00000080: 9f71 c4bd fd4e 6fbc 8510 8bbd c211 913e
00000090: 14cb 0e3e c240 5bbe 9a75 2b3e 5113 e33c
000000a0: 1715 c43d 4114 b7bd addd b7bd 8cd2 153d
000000b0: d402 933e 3f23 f43a 8cd6 3e3e cc66 ab3c
000000c0: 2347 403d 69a3 b2bd c7e8 c63d ef9c 043d
000000d0: 34be 29be b00a 173d 6a4a 8c3d e8bc afbd
000000e0: 8fb9 a03d f936 d9bc 7c35 62bd 9f34 203d
000000f0: 8e96 ce3d 4d60 023e 9d00 333e bcc5 36bd
00000100: 5013 17be 99de 3e3e cc4c c3bd ac4f 343e
00000110: 47f9 cb3d 9172 69bd 260e 19be ef11 b23c
00000120: 969f 38bd 6055 ddbd 26dc 623d a25c c23c
00000130: 0558 1e3e aaab 553e a107 69bd f59a 9ebd
00000140: 8ea8 1dbd 30dc f1bd abfb abbd a1ef 9e3d
00000150: f6cc f43d 29ac 8cbd 415d 20be 946b 18be
00000160: f934 b2bd eb63 36be b393 96bc 795a f73b
00000170: d749 1b3e 4fc2 133e edef 563e 61b7 ca3d
00000180: fe31 abbd 3770 c83a 091b f2bd a867 023e
00000190: a36d 75bd 8e6c 4abe dbc8 b63d 37c3 bb3d
000001a0: b959 eb3c e8de 123d 81b7 e1bd 4d0d 4d3e
000001b0: 4cd7 a7bb 9bdd d03c f5f4 ba3d 21e8 753d
000001c0: 9307 4d3d da7d 45bd eb72 203d 381f 573d
000001d0: 78cb 19bd cb9e c23c 6e79 66be ff33 a3bd
000001e0: 549e 423e b736 433e f4c2 123e 9081 3abd
000001f0: b5c6 e93c ff1f 09bd 6057 80bd a3ff 143e
00000200: 8e1f 66be 4d74 713d 558d 16bd cfff 783d
00000210: c97f 93bd 00d2 86bd 9da3 2f3e 7158 debd
00000220: e3e3 783d 14ca cebc 2f54 58be 3f9d 4d3e
00000230: 8d8e 363e d469 a23c aa19 19be 69d9 1dbe
00000240: 85a4 3e3e 0fdb 243e 54db 67be e6bb 21be
00000250: 6c52 023e b0df edbd eee2 7d3c 2999 3abc
00000260: b4de 43be bba9 923c 3eb2 09bd b402 4abe
00000270: 7da1 313e cfdf c9bd 8614 04be 697f 48be
00000280: f184 7dbd 906e fb3c 7a61 a639 50ed 0d3d
00000290: 7e11 b53d 78d0 2ebe 5663 00be 6941 853c
000002a0: 6e4c bf3d 9196 71bc cf93 573d 0ba2 593e
000002b0: 7f67 4e3d 5ff1 68bd b0be 9f3d 691b 6d3c
000002c0: f2c1 5c3e 724a 9ebd 6b4e 873c f259 993b
000002d0: a4f1 953d 19d2 723c 108c 4bbe f32e 8b3a
000002e0: 783f 343e cb10 a03b 978e 823d 243a 8ebd
000002f0: 9648 2ebc 550e fe3d 0c7f 0a3e 461c 71bd
00000300: 73d7 91be 6ae0 243e 74f9 50be 2955 873c
00000310: dc54 6b3d b520 823d 9430 ae3c 06ba 20be
00000320: de16 3d3e c688 01be b6c5 043e 35d5 8dbd
00000330: e3c1 713e e947 26bd 2dcb 683d cfd4 843d
00000340: 1eaf 013e 0440 ae3c 9698 aabe 8a46 54bd
00000350: 6a22 5b3e 6229 0f3c d1ba 3dbd 27fc 59be
00000360: 747f 39be d094 0c3e efe4 f73c e35f 13bd
00000370: 6beb 11bd d34d 7e3d 0fe7 9f3c 7be2 143d
00000380: 6d34 8abe ce13 bfbc 5a5c 4bbe ec5a 633e
00000390: 14b9 d43d 7445 4fbe 07b1 643e cbb6 163e
000003a0: 0977 0d3e 4b9d 0fbd e889 9fbc f713 f33a
000003b0: 1108 733e 5aa7 0f3d e2fb 803d dda7 96bd
000003c0: 51fd 33bc 557e 9abd 4176 70be 894e 323e
000003d0: e7d7 7bbe 3193 2fbe 73a8 94be c71c 89bd
000003e0: 202d 04be c20a 49be e4df 69bd 0646 0bbe
000003f0: 8fd7 a0bd f1e4 1abc 3a28 293e 0e0d a93d
-0.086610645 0.20075347 -0.076492585 0.09584187 0.15127914 -0.23791905 -0.057370182 -0.052097898
0.07796623 0.018314956 -0.1784539 0.110617034 0.0630043 0.032812264 0.1898264 -0.18806383
-0.027708545 -0.179751 0.1560226 0.072529934 0.016403269 -0.096976094 -0.08816533 0.0847843
-0.04625051 -0.094701625 -0.12780592 0.053398296 -0.0063080913 0.1324869 -0.0586906 -0.18032622
-0.09591984 -0.014606235 -0.0679026 0.2833386 0.13944656 -0.21411422 0.1674408 0.027719172
0.09574335 -0.0893941 -0.08977828 0.036577746 0.28713095 0.0018626227 0.1863653 0.02092304
0.04694284 -0.08722574 0.097123675 0.032376226 -0.16576463 0.036875427 0.06850131 -0.08580953
0.078478925 -0.02651547 -0.055226788 0.039112683 0.1008731 0.12732048 0.17480703 -0.044622168
-0.14753461 0.18639602 -0.09536132 0.17608517 0.09959655 -0.056994025 -0.14946803 0.021737067
-0.045074068 -0.108072996 0.05538573 0.023725811 0.15463264 0.20866266 -0.05689204 -0.077443995
-0.038490824 -0.118095756 -0.08397611 0.07760549 0.11953156 -0.068687744 -0.15660574 -0.14884788
-0.0870151 -0.17811553 -0.018380975 0.007548627 0.15164886 0.14429592 0.20989962 0.09898258
-0.08359145 0.0015292232 -0.11821563 0.12734854 -0.05991901 -0.19767973 0.08925029 0.09168094
0.028729307 0.03585711 -0.11021329 0.20024605 -0.005122101 0.025496295 0.09128753 0.06003583
0.05005605 -0.048215725 0.039172094 0.052520007 -0.03754756 0.023757359 -0.22507259 -0.07968902
0.1900571 0.19063841 0.14332181 -0.045533717 0.028537134 -0.03347778 -0.062666655 0.14550643
-0.22472975 0.058948804 -0.03675588 0.060790833 -0.072021075 -0.06583023 0.17152257 -0.108567126
0.060764205 -0.025242843 -0.21125863 0.20079516 0.17827816 0.019825853 -0.14951196 -0.15414967
0.18617447 0.16099189 -0.22642261 -0.15794334 0.12726754 -0.11614931 0.015495999 -0.011389055
-0.19127923 0.0179032 -0.03361725 -0.19727594 0.17346759 -0.09857141 -0.12898454 -0.19579853
-0.06189436 0.030692369 0.00031734613 0.034650147 0.08841227 -0.17071712 -0.12537894 0.016266542
0.0934075 -0.0147453705 0.052631196 0.2125322 0.05039167 -0.056870814 0.07800043 0.014471867
0.2155836 -0.07729043 0.016516885 0.004679912 0.0732148 0.014820599 -0.19877648 0.001061885
0.17602336 0.0048848144 0.06374853 -0.06944683 -0.010637423 0.12405077 0.13525027 -0.058864854
-0.28484687 0.16101232 -0.20407659 0.0165201 0.057453975 0.063538946 0.021263398 -0.15695962
0.18465754 -0.12649831 0.12966046 -0.06925432 0.23609118 -0.040595923 0.05683439 0.064859025
0.12664458 0.02127076 -0.3331954 -0.051825084 0.21399847 0.008737894 -0.04632074 -0.21287595
-0.18115026 0.13728642 0.030260531 -0.035980117 -0.035624903 0.062085938 0.019519357 0.0363488
-0.26993123 -0.023324873 -0.19859448 0.22202653 0.10386863 -0.20241338 0.22333156 0.14718167
0.1381494 -0.035062116 -0.019474939 0.0018545379 0.23733546 0.03507171 0.06298043 -0.07356236
-0.010985688 -0.07543627 -0.2348261 0.17412771 -0.24594079 -0.17145993 -0.29034767 -0.06694942
-0.12907839 -0.1963301 -0.057098284 -0.1360093 -0.078536145 -0.009453998 0.16519251 0.08254443

lstm.weight_hh_l1 f4 [128, 32]
00000000: 61ad fa3d f903 2bbe 5e58 c4bb 6cd4 163e
00000010: 0df8 aebd 597a 78bd d4af dc3b 58cb e93d
00000020: 6687 113e b41d a53d 7095 1bbe c25b 253e
00000030: da0a 153d 6ef7 01bd bb24 b13d d104 173c
00000040: f88d 3d3d b85b c7bc 986f 8c3d d9a6 67bc
00000050: d7a6 e73d d2d2 49bd 0b8e eb3d add8 ad3c
00000060: 0337 0c3e 8d85 73bd 52bf 403c 6a7c bfbd
00000070: 4e2a 3d3e 9fce e33d c5fd 2c3d 9245 c7bc
00000080: 9a68 c9bd 1cfb 363e 09ef e1bd 1831 3fbc
00000090: 2e00 3abe ca13 adbd 5312 533d 94d5 983c
000000a0: 0c92 4d3e b591 0cbd 86f1 703e 761f 333d
000000b0: 329b 18be 62a8 8a3d cabb 1dbe 0518 153e
000000c0: e0df 463e 5357 083e 47f2 16bd b29f 60be
000000d0: 84bc 503c 61b9 50bd 496f 6c3e 6f2c 853d
000000e0: aeda a93d e0eb e3bd 0360 1e3d 75a5 a4bd
000000f0: 774c abbd 7860 e03d fb25 f8bd 3613 08be
00000100: d5e9 923d 1767 5b3e 5d4d 95bd a5ca 1dbe
00000110: c1e3 bcbd b08a 1f3d 956c 4ebd 8c78 c7bd
00000120: aa89 52bc 9e47 29bd 14dd 153e 26f5 12bd
00000130: 2eb9 883d fc1f 423e d0ab 933d ca8b 0fbd
00000140: bf35 5abd 3698 50bd 5a87 243e bc2c 5ebe
00000150: e9d3 13bd fae7 4d3e 441b cabd 1912 303d
00000160: ea11 aa3b 26fc 63bd 1e97 493d 6804 1a3e
00000170: d3fa 3abe 0972 54be b4b0 99bc 66c2 bfbd
00000180: ac6d 33be e9b2 803c 6bfb 623c a46d 41be
00000190: d970 76be ca79 9abd c7cf 003e b192 aebd
000001a0: 57be eebd d658 03be ffd1 8dbd d914 b0bb
000001b0: 234d 583d 6fde e3bd 6618 d5bd 1188 8fbd
000001c0: 5963 6a3d 1eb3 54be 00e8 4fbd 9cc6 6abd
000001d0: 0756 923a 13e5 ed3d 4997 f43c 0744 3e3e
000001e0: ba9b f6bd 5729 053e a600 aa3d 0780 eabc
000001f0: 3780 933d ec53 4bbe 121a 9cbd 3eed 6bbe
00000200: 1335 9dbd 99a4 9c3d 8812 99bd dee4 a03c
00000210: de96 06be 3eed 3ebc 79b5 063d 0935 213e
00000220: c982 523e c973 67be d65b 3f3a 8d1a 77bd
00000230: 5782 a73d 407f 3f3d d080 9ebd 2e09 ffbb
00000240: 919d 0b3e 7ff8 143e 7a23 a0bd e71d d63d
00000250: 5fda 253e 2987 503d 464e b1bd 52cc 7e3d
00000260: ac2d 2d3e 5797 00be edd0 b33d 0cc2 dcbd
00000270: fdb7 0abe 87ad 06be a981 de3d 5160 1d3d
00000280: 04a7 24be 8d6d 3b3e 6b0f a13d 2eb0 e4bc
00000290: 0f76 56be 9a88 0b3e 2ff6 eebd ec60 1abe
000002a0: fe03 393e 27d7 1e3d a313 3c3e 3883 07bd
000002b0: 7591 9f3b bdfa e33d 355b 0ebe 97a2 f93c
000002c0: 8945 043e 53b6 9dbd 2844 273e 7f73 60be
000002d0: c288 dbbd b5dd c5bc 4452 803e fb99 093e
000002e0: 7a5e da3d d8db 5e3c 6370 51bd cad7 d13d
000002f0: 53d9 29be 0acf d4bd 15a2 27be 7fb5 51be
00000300: 70b3 063d 9883 393d 2b9c 1fbe b1d6 833d
00000310: e6c4 49bd f4d9 683c b64d 3b3b 6c79 0b3e
00000320: b2da 97bd e65b b33a 0339 24bc b325 39be
00000330: b2aa 3ebe de0d 483e 452b 003e a2eb f23b
00000340: 44db 953c c4f8 34be 6a50 473e c032 60bd
00000350: b36f 5e3e a7b0 403d 6fcf 3b3c 8f87 f83c
00000360: 540e 27bd d5ad c6bc 5c79 1dbd ef33 373d
00000370: 6fb5 6bbe a72c 0fbd ecbd dcbd c817 ce3b
00000380: 8078 8d3d 92ae 1a3e 608f d2bd ffa9 01bd
00000390: 6e5f aa3c 84c9 fc3d 7f17 e33d 641e 7fbc
000003a0: 2361 963d 78f5 a93d 16f5 22be 78b2 363e
000003b0: 27ac 0d3e 4eb7 e3bc f19d 84bc 7f82 5b3c
000003c0: 127d 92bc f5fc 533d 2e74 bbbd 1756 22be
000003d0: 9f1e 19bc a1a5 3c3e f238 1e3e 51c2 6fbd
000003e0: 0830 cb3d ddaf 8abd bfc5 b7bd e246 9c3d
000003f0: 9d97 f1bd 7e88 04be c604 93bd 07ea fbbc
0.12240101 -0.16700734 -0.0059919795 0.1472947 -0.08543406 -0.060663555 0.0067348275 0.11415738
0.14211807 0.08062306 -0.15193725 0.16148284 0.036387302 -0.031730108 0.08649584 0.009217457
0.04627797 -0.024335727 0.06857222 -0.014138901 0.11311119 -0.04927332 0.11501702 0.021221483
0.1369286 -0.059453536 0.011764364 -0.09349902 0.18473169 0.11123394 0.0422342 -0.024325166
-0.09834404 0.17869228 -0.110319205 -0.01166942 -0.18164131 -0.0845104 0.051531147 0.01865653
0.20075244 -0.034318645 0.23529634 0.043731175 -0.14902952 0.06770398 -0.15403667 0.14559944
0.19421339 0.13314562 -0.036852147 -0.21935919 0.012740258 -0.05095804 0.23089327 0.06502616
0.08293663 -0.11128974 0.038665783 -0.08039371 -0.08364194 0.109559 -0.12116619 -0.13288578
0.07173506 0.21426044 -0.072901465 -0.15409334 -0.09223128 0.038950622 -0.05039652 -0.09739789
-0.0128502045 -0.041328065 0.14635116 -0.035878323 0.06675945 0.18957514 0.07210505 -0.035045423
-0.053273913 -0.05092641 0.16067258 -0.21696752 -0.036090765 0.20108023 -0.09868482 0.04298601
0.005190124 -0.05566039 0.049216382 0.15040743 -0.18259744 -0.20746626 -0.018761016 -0.093632504
-0.17522305 0.015710311 0.013853888 -0.18889481 -0.24066485 -0.07542761 0.12579261 -0.08524073
-0.11657398 -0.12826857 -0.06924819 -0.005373579 0.05280794 -0.1112641 -0.10405044 -0.070083745
0.05722365 -0.20771453 -0.05075836 -0.057318315 0.0011164554 0.11615958 0.029857295 0.18580638
-0.12041421 0.13004051 0.08300905 -0.028625501 0.072021894 -0.19856232 -0.0762216 -0.2303972
-0.07676139 0.07648582 -0.07474238 0.019640382 -0.13143489 -0.011653243 0.03288791 0.15742888
0.20557703 -0.22602762 0.00072997564 -0.060328055 0.08179157 0.046752214 -0.07739413 -0.0077830767
0.13634326 0.14547919 -0.078192666 0.10454922 0.16196583 0.05091015 -0.086575076 0.062206574
0.16911954 -0.12557732 0.08780084 -0.10779199 -0.13546748 -0.13152133 0.108645745 0.038421933
-0.16079336 0.18303509 0.07864269 -0.02791604 -0.20943473 0.13626328 -0.116680495 -0.15076035
0.18067929 0.038779404 0.18366866 -0.033084124 0.0048696348 0.11131809 -0.1390198 0.030473037
0.1291715 -0.07700791 0.16334593 -0.21919058 -0.10719444 -0.02415357 0.25062764 0.13437645
0.10662551 0.0136022195 -0.05113257 0.102462366 -0.16586809 -0.10391052 -0.16370423 -0.20479392
0.03288597 0.045291513 -0.15586917 0.064374335 -0.049260043 0.01421212 0.0028580255 0.13620538
-0.0741476 0.0013684004 -0.010023358 -0.18080787 -0.18619803 0.1953654 0.12516506 0.0074133435
0.01829303 -0.17673022 0.1946427 -0.0547359 0.21722297 0.04704347 0.01146303 0.030338077
-0.04078515 -0.024252811 -0.038445815 0.044727262 -0.2301843 -0.034954693 -0.10778412 0.006289456
0.06907749 0.15105656 -0.10281253 -0.03165626 0.020797458 0.123431236 0.11088466 -0.0155712105
0.07342746 0.082987726 -0.15913805 0.17841518 0.13835202 -0.027797367 -0.016188594 0.013397812
-0.017881904 0.05175491 -0.09153019 -0.15853153 -0.00934568 0.18422557 0.1545141 -0.058534924
0.099212706 -0.067718245 -0.08973264 0.07630707 -0.11796496 -0.12942693 -0.07178645 -0.030751241

lstm.bias_ih_l1 f4 [128]
00000000: 5384 423c d04d 7c3e f9dc 61bc eb7f 2bbc
00000010: 9285 8dbd 56e0 233e cded 483c 1d90 bebd
00000020: 8d15 2ebd e47b 02be 95da 8d3b 7d3c 21bd
00000030: bf09 c53d 1aef 4f3e e86e 783c 98f1 b4bd
00000040: 56e6 a1bd 842c 723c 9b19 5b3e 58de 343e
00000050: 3c68 0b3e 0c09 443e 6159 bc3c 527a 673e
00000060: 6f44 d03d 3b60 b8bc f86a e7bd e74f 6a3e
00000070: 9f05 af3d 999b 3f3e 9225 81bd 977b 8ebd
00000080: 83ce a3bd 1ebe 3bbd 6903 c33d da9a 843d
00000090: f04f d13c d746 42bd ee2c 483d dfc8 64be
000000a0: 981c 54be 965a d93d f3dc f0bc 8591 1dbe
000000b0: 809d e23d 652c c3ba 807e 663d 00fc 31be
000000c0: 35f3 30be 936e 26bd 4423 6ebe 1878 8dbd
000000d0: db01 0dbd 0c73 913c ac40 a83c 6362 10be
000000e0: 266c a2bd 9249 8fbd d5ee cf3c 6160 473d
000000f0: c3e6 7fbd 0fea 82bd 2a9e a9bd 86d0 61bd
00000100: 43be 0c3e a064 25be 1a24 1f3d 8abf d9bc
00000110: 381a 623d 2d26 f93b c41c a2bd 0d2a 033e
00000120: bf68 d33d 0b0a b43b 564a a13d 5274 63bd
00000130: 5e8d 12be 2937 70bd 5b99 7abd 9aec db3d
00000140: ad1b 193e cacd 90bc b1fd 203e 5608 17be
00000150: 221b 8dbd ea9f 5e3d 03a2 b93d e3e5 d63d
00000160: fc3a c43c 895f c63d 061b 433d 65d3 b4bd
00000170: ecdb bbbb 995c 0b3d 2df2 123e 2257 063c
00000180: a388 2a3e db67 833e 6a4a 6d3e f8b3 d8bd
00000190: 9512 a9bd 3f85 853e 5f28 2c3e 77e7 95bd
000001a0: 9b77 d7bd 1588 043e c0c8 083e 80c1 843e
000001b0: e6ce 313e 0842 883e 47b4 c83c d5d2 c23d
000001c0: f42e 743e ce8f 05bd 57e5 e63c a320 a23d
000001d0: 276c 703d 2e93 05bd 8afa 853e 80c5 433e
000001e0: ea00 0c3c f3a4 29bd 8739 08be 1fff 5b3c
000001f0: b3e2 ab3d 3705 a53d 4a8b 733e 9d17 843d
0.011872369 0.24639058 -0.013785594 -0.01046751 -0.06910242 0.16003546 0.012263727 -0.09304831
-0.04250102 -0.12742573 0.0043290355 -0.039364327 0.096209995 0.20306054 0.015163161 -0.08835143
-0.07905261 0.014781121 0.21396486 0.17662942 0.13613981 0.19144076 0.022991838 0.22605255
0.10169303 -0.022506824 -0.112996995 0.22882043 0.08545994 0.187117 -0.06305994 -0.06957167
-0.07998373 -0.045835607 0.09522135 0.06474848 0.025550812 -0.04743084 0.048870973 -0.22342251
-0.20714033 0.10612981 -0.029402232 -0.15387543 0.11065197 -0.001489055 0.056272984 -0.17381287
-0.17280276 -0.040632796 -0.2325564 -0.06907672 -0.034425598 0.017755054 0.02053865 -0.14100032
-0.07930784 -0.06996454 0.025382439 0.0486759 -0.06247593 -0.063922994 -0.082821205 -0.055130504
0.13744454 -0.16151667 0.03885279 -0.02658059 0.055200785 0.007603428 -0.07915643 0.1280901
0.10322713 0.0054943613 0.078755066 -0.055530854 -0.1431174 -0.058646355 -0.061181407 0.107384875
0.14951964 -0.017676253 0.15721776 -0.14749274 -0.06889941 0.054351725 0.090641044 0.10493066
0.023953907 0.09686191 0.047633193 -0.08829383 -0.005733004 0.034023855 0.14350195 0.008199485
0.16653685 0.25665173 0.23172918 -0.10581201 -0.08255497 0.2607822 0.16812275 -0.07319539
-0.1052086 0.12942536 0.1335783 0.2592888 0.17364082 0.26612878 0.024500025 0.09512869
0.23846036 -0.032607846 0.02818553 0.07916381 0.058696892 -0.032611065 0.2616771 0.19118309
0.00854514 -0.041417073 -0.13303195 0.013427525 0.08392849 0.08057635 0.23783603 0.064498164

lstm.bias_hh_l1 f4 [128]
00000000: a749 5d3c 1ccc 923d 39b6 093e 93d9 8e3d
00000010: cd38 0dbe 384b 6c3e a3e2 043e 5ca1 513e
00000020: b0e4 443d c1e7 d9bc b3be 83bd cf2e 563a
00000030: ba13 393e 4598 0a3e 5e60 e43d aa89 a03c
00000040: 9686 0e3e 2c21 533d 30e2 353e 8984 ffbd
00000050: 67a8 b13d 9707 263d ef42 56bd 2650 43bd
00000060: c275 133e 472a f9bd d7f9 9b3d b3d1 a0bd
00000070: 769e 703e 1a2f 953d 2277 41bd 672d 0e3e
00000080: 9044 d73d c56d 09bd 57a5 253e 6f5a 2e3d
00000090: 9d4f adba 7148 0dbe 641b 2fbe 74fc 49be
000000a0: 4241 4bbe 3e0a a73d 414e a4bc fc5e c53d
000000b0: 681f c93d 1a61 83bd 9cd4 f33d 4dfb 9dbc
000000c0: d5c7 50bd 4779 e03d cc17 06be fec5 bd3d
000000d0: e122 2c3e 8cef ddbd d69b 0ebe cbaf c3bd
000000e0: 1204 babd 9a9f 79bd 0dbf 4a3e 7ddd a4bd
000000f0: f400 6c3c 6cf8 d939 a3ec d43c 6ae3 53be
00000100: 2a95 ddbd f4c4 203e c5bf 15be 05de cf3d
00000110: bbdc 1fbe 2401 b73d 9af9 a53d cb5e e2bd
00000120: d2fc 143e ad09 d1bd f84b 553d 644a ba3c
00000130: a0af ca3c 8e85 d83d 7d5f db3d ee23 95bc
00000140: 7797 c03d fcdd c2bc 1581 9abd 682a 2b3d
00000150: ded0 123e 3a9e cc3c bfc2 76bd 76af a7bd
00000160: 04c6 df3d 1eec dcbc 1b92 403d 6ea2 65bd
00000170: 728a 51bd 5071 db3c a883 23be d53a bebd
00000180: cf86 bb3d 4a89 813d 81bd 4b3e e533 373e
00000190: 7492 8c3d bab6 023e d09d 493b 35a1 14bd
000001a0: b658 ca3d 7974 153e fcd5 45bb 7e8c 3b3e
000001b0: d824 363e 31f6 183d 3b4e 133e 6f2c 3cbb
000001c0: de72 613e 785d 3ebb 4016 7a3e 0aca e43d
000001d0: caa6 94bc a886 823e bb03 ea3d 8aea 433e
000001e0: 4942 e9bc 91eb 5b3e 2630 b43d 0bf0 35bc
000001f0: 5eca c23d 3994 7ebd 7f1f cabd 8bb3 963d
0.01350633 0.07167837 0.13448419 0.06975093 -0.13791199 0.23075569 0.1297708 0.2047171
0.048069656 -0.026599767 -0.06432857 0.0008170427 0.18073931 0.13534649 0.11151193 0.019596893
0.13918528 0.051545307 0.17762065 -0.12476451 0.08674698 0.040534582 -0.052309927 -0.047683857
0.1440039 -0.12166267 0.076160125 -0.07852497 0.23497948 0.072843745 -0.047232755 0.13884507
0.10511124 -0.03355195 0.16176353 0.042566713 -0.0013222579 -0.13797165 -0.17100292 -0.1972521
-0.19849113 0.081562504 -0.020056846 0.096372575 0.098204434 -0.06415005 0.119057864 -0.019284869
-0.050971825 0.10960632 -0.13095015 0.0926628 0.1681018 -0.108367056 -0.13926634 -0.09555014
-0.090828076 -0.060943224 0.19799443 -0.08050058 0.014404524 0.00041574554 0.025991743 -0.2069222
-0.108194664 0.15700132 -0.14623936 0.10149769 -0.15611546 0.089357644 0.08104248 -0.110532366
0.14549568 -0.10206924 0.052074403 0.02274055 0.024741948 0.105723485 0.10711572 -0.01820561
0.094038896 -0.023787491 -0.07544152 0.04178849 0.14337489 0.024977792 -0.060244318 -0.081877634
0.1092644 -0.026968058 0.047014337 -0.05606311 -0.051157422 0.02678743 -0.15968192 -0.09288565
0.09156572 0.06325014 0.19896509 0.1789089 0.06863871 0.12765017 0.003076423 -0.03628655
0.098802015 0.14595212 -0.003018736 0.18315312 0.17787492 0.03734416 0.14385311 -0.0028713008
0.22016475 -0.002904741 0.2442255 0.111713484 -0.018145937 0.2549336 0.11426493 0.19132438
-0.02847399 0.2147658 0.08798246 -0.011104594 0.09511255 -0.062153075 -0.09869289 0.07358464

lstm.weight_ih_l2 f4 [128, 32]
00000000: e3a0 6dbe 0c12 b1bd 46a1 a1be 10c5 65be
00000010: 8f6c dabd 25d5 9fbc 0bfe 87bc 6143 4ebc
00000020: 8bb0 d8bb 25da d5bd 7572 b1bd 525b 603d
00000030: 6c60 4fbe f803 cc3d c39b 4d3e 99fb ad3d
00000040: 07b9 623e f200 3bbe b2bf 183e 4678 44bc
00000050: 0a1d 323e f222 813d 501f 883d ba1e 613e
00000060: 554f 9c3d 2d04 f53a 7a65 323e 7a6e 8dbe
00000070: 6e8b 41be 3052 6fbe 638c 62be 24a9 2dbc
00000080: c290 69bd 3ff5 f13d a79e 223e fae8 593d
00000090: bc7f 0ebd 4f3f 0f3d e1ee 183e 2f34 f9bd
000000a0: 9a8b db3c 7cae 50bd 4780 463e 880e 4abd
000000b0: 86d4 fabd 5f50 d3bd 0fe5 b33d 3d5b acbd
000000c0: 7766 00be 899e 13be 728c 473a 763d 5bbd
000000d0: 0043 3b3d cc47 42bd d57c 1c3e c4b1 343e
000000e0: 67f0 bcbd 7ca4 cf3b 1c50 903d 3ed3 ddbd
000000f0: d5ff 4f3c 47bc 4ebd efc4 20be 711f b73c
00000100: ddc8 7cbe 65d5 b13d 1377 4dbd 8c40 3bbe
00000110: fe6f dd3a 6e93 83bd 0bbd 383e f4dd 2c3e
00000120: 4580 f7bd 3e0e 9dbd 6ab8 f13b 37c7 6b3d
00000130: 679a 91bd beec 2e3e 32d4 72bd f05f ae3e
00000140: 785b 823c 6840 adbe a1b2 dc3c 9d46 4bbe
00000150: 11fa 193e eb94 ea3c 88b7 593d a6c3 9dbd
00000160: bdb6 a6bd 5d88 e63d ab3d 083e 6636 fd3d
00000170: bc3f 4c3e fe2f 20be 59a2 7e3d ccfa f03c
00000180: 43f1 823b 89dc 3f3e 7190 32be 1025 56bd
00000190: 6520 57be 0791 1e3e 6fd7 2abd 645b 50be
000001a0: 891f 3f3d 15bc 2fbe d7df 0a3d f07d 9cbd
000001b0: 0f5f 99bc 1f97 4b3e 4780 96bd bb31 183e
000001c0: ada8 453e 815a dcbd c891 203d f995 5fbe
000001d0: b767 943d b719 3a3e ee50 423e e1b1 7c3d
000001e0: 94d2 db3d b5a7 513d ab17 16bd 6033 64be
000001f0: 9995 f5bd 8936 a5bd 10b7 2ebe e240 3cbe
00000200: 1f77 69be ccb1 0c3e 1009 6ebe d2f7 acbd
00000210: 0e47 dbbc 5ecb e7ba 039c 803d 4d41 10bd
00000220: d8ca dc3d a40b 40be c8f2 ce3c a474 37bd
00000230: a6b9 8abe a837 c9bb 82ec e23d a01d 1c3d
00000240: 4951 5a3e cceb 66bd 03a4 3a3d bd6d b0bd
00000250: d692 093e 5561 a8bd 1057 413d 3159 e03d
00000260: e45e ccbd 704d fa3d 586f 763b 6c75 77be
00000270: 65c9 41bd 2f27 fc3a e6ff 73be c228 73be
00000280: 04f2 abbd 4a4a 693e 5621 04be fd8e 5fbe
00000290: d392 2c3c 76bc 873e 93c2 af3e 7c47 aa3e
000002a0: 0f30 083e 00c6 95be 9ba1 ff3d 2ab7 dabd
000002b0: f896 97be f372 e83b a472 81bc 13ac 3d3e
000002c0: bd0f 3f3d 64ed 97bd b503 debc d2cb 6ebe
000002d0: 887e 783e d3ef 993e fe0d 653d 349c 553d
000002e0: 3f5a 0c3e 833c 863e d049 923e 33f3 51be
000002f0: 9f22 a1bd 8e09 b9be 1924 99bd b935 9cbd
00000300: 8162 28be 2ef2 02bd 4b3a b8bd c089 d3bc
00000310: 8142 f9bd 31b7 533e a368 813e d525 1dbe
00000320: 3f99 f3bc 1836 d5bd b63f e23d 9221 03be
00000330: 11d2 41bb d0e1 083e 323f 0abe 506f e5bd
00000340: 977d a73d 9aea 34be 100f a3bd ef0d 193c
00000350: 5d70 603e e066 733d 040c 4fbc 7926 363e
00000360: 5123 c7bc eef8 e33d 3151 c53d 4f95 0fbe
00000370: febf 64be b81f 83bd c784 b83d 9440 533e
00000380: dbb3 853d fed9 73bd ca14 4cbe 617e c0bd
00000390: 0e16 a93c 1173 703e 2391 b2ba c929 59be
000003a0: eab8 c1bd a181 98bd 9d7c 7abd 0386 3cbd
000003b0: 27b7 303e e70e 803d 24a7 04bd 8a0d 643e
000003c0: e03e 95bd e20b 93be 6410 d2bd 1e46 583c
000003d0: b58e 273e e8ef ed3c df46 c9bb ae12 13bb
000003e0: bb0f 863e 4be2 923d a719 37be ef0b 1abc
000003f0: 637f 5cbe f73b 23be 9684 b5bd 7e85 4bbd
-0.23205905 -0.0864602 -0.31568354 -0.22438455 -0.10665237 -0.019510815 -0.01660063 -0.012589307
-0.0066128424 -0.104419984 -0.08664409 0.05477459 -0.20251626 0.099616945 0.2007895 0.08495254
0.22140895 -0.1826208 0.14916876 -0.011991566 0.1739389 0.063054934 0.066465974 0.21984378
0.07632319 0.0018693261 0.17421523 -0.2762335 -0.18900844 -0.23371196 -0.22123866 -0.010599408
-0.057022817 0.11814355 0.15880834 0.0532007 -0.034789786 0.034972485 0.14934875 -0.12168156
0.026799966 -0.05094765 0.19384871 -0.049330264 -0.12247567 -0.10318064 0.08783924 -0.0841584
-0.12539087 -0.14415945 0.00076121755 -0.05352541 0.045718193 -0.047431752 0.15281995 0.17645937
-0.092255406 0.0063367467 0.0704653 -0.10831307 0.012695272 -0.050472524 -0.15700124 0.02235386
-0.24685998 0.0868328 -0.050162386 -0.18286341 0.0016894338 -0.06424604 0.18040864 0.16881543
-0.12085012 -0.07668732 0.00737672 0.057563033 -0.07109528 0.17082497 -0.059284396 0.3405757
0.015912756 -0.338382 0.026940646 -0.19851156 0.15036799 0.028635463 0.053153545 -0.077033326
-0.08140323 0.11256478 0.13304774 0.12363891 0.19946188 -0.15643308 0.062166546 0.029416464
0.003996046 0.18736471 -0.17437913 -0.05228144 -0.21008451 0.15485011 -0.04170936 -0.20347363
0.046660934 -0.17161591 0.033904877 -0.07641208 -0.018722085 0.19881867 -0.07348686 0.1486272
0.19302626 -0.1075945 0.039201528 -0.21834554 0.072463445 0.18173872 0.18976185 0.061693076
0.10733524 0.05118533 -0.036643665 -0.22285223 -0.11991424 -0.080670424 -0.1706202 -0.18384126
-0.22799347 0.13739699 -0.23245645 -0.084457055 -0.02676728 -0.001768451 0.06279757 -0.035218526
0.10780877 -0.1875444 0.025262251 -0.04478897 -0.27094764 -0.006140668 0.110802665 0.03811419
0.2132007 -0.056377217 0.04556657 -0.08614681 0.1343492 -0.082216896 0.04720217 0.10954512
-0.099790365 0.12221801 0.0037602987 -0.24165887 -0.047311205 0.0019237752 -0.23828086 -0.23746017
-0.0839577 0.22782245 -0.12903342 -0.2183189 0.0105330525 0.26510972 0.34328136 0.33257663
0.13299583 -0.29252625 0.12481996 -0.10679467 -0.29607368 0.007093781 -0.015801735 0.18522672
0.04664587 -0.074183255 -0.027101377 -0.23319939 0.24267018 0.30065784 0.055921547 0.05215092
0.13706301 0.26218042 0.2857194 -0.2050293 -0.078679316 -0.36140102 -0.07477588 -0.07627434
-0.16443826 -0.03196924 -0.089954935 -0.02582252 -0.12170888 0.2067535 0.25275144 -0.15346463
-0.02973616 -0.10410708 0.11047308 -0.12805775 -0.0029574672 0.1336739 -0.1350067 -0.11202872
0.08178251 -0.17667618 -0.07961857 0.009341701 0.21917863 0.05942428 -0.012637142 0.17788114
-0.024308832 0.11131464 0.09634627 -0.140218 -0.22338864 -0.06402534 0.090097 0.20630103
0.06528445 -0.059534065 -0.19929805 -0.09399105 0.0206404 0.23481394 -0.0013623576 -0.21207346
-0.09459098 -0.074466 -0.061153997 -0.04602624 0.17257367 0.062528424 -0.03238596 0.2227079
-0.07287383 -0.28720003 -0.102570325 0.013200311 0.16363032 0.02904506 -0.0061424817 -0.0022441554
0.26183876 0.07172068 -0.1788088 -0.009402259 -0.21532969 -0.15940844 -0.088631794 -0.049687855

lstm.weight_hh_l2 f4 [128, 32]
00000000: 9d0c 43be 2983 cf3d fe82 163e 0f7a 1a3d
00000010: ac55 383e f21d 05bd fea3 0dbe 79f9 cd3d
00000020: 598e 793e 8808 60be 6fd6 3bbe f528 3f3e
00000030: eb96 4abe d769 d1bd 2b62 6e3d 5d2f 0cbd
00000040: 625d 52bb 697c 0ebe fca3 f5bd 61c8 353e
00000050: cc48 06be f96d 303e 05da 703d 0ced a2bd
00000060: f823 99bc 9a34 943d 9de9 6e3e d5c2 0bbe
00000070: 01df b1bc cc1c b23d 4112 03be adcc e4ba
00000080: d6ef d0bd 0c7c dd3d e3fd eebd 43c6 193e
00000090: dce9 4f3d 992b f53c f6fa 4dbe 184c 5cbe
000000a0: 7db2 483e 0dac 4fbc 57c9 ac3d 91ec 5e3e
000000b0: a035 48be 767c 4cbe f8fc 39be 61a0 b03d
000000c0: f155 a43d 9bb2 11be 7391 0fbe a679 dcbd
000000d0: 91d1 7b3d 158f 153e 1596 163e 8fe8 2bbd
000000e0: dfff 633d 9690 16be 460b 81bc ad42 733c
000000f0: ce5b e93c 6b33 7e3d cc27 18be 2371 693d
00000100: 94a2 90be ddee 0ebd 5aa0 093d 954a 3cbd
00000110: a425 aa3c 7fe3 203d 772f b43d 9885 b3bd
00000120: a180 fe3d dc8c 23be faba 2dbe 5a28 913c
00000130: fb49 cabd 2181 53be 885a 5ebe 3a82 62bc
00000140: a92a 82bd c0eb 1ebd 1364 343b 8525 d83c
00000150: 934f 0bbe b8c0 b53d 9c05 95bd 28a4 123e
00000160: 0edd 0bbe 2c1d 29be c59b 79bd 0b18 d1bd
00000170: 2bd2 d93d f66b 85bd e4c4 ccbd 01bf 193d
00000180: 9531 66bc 2374 c33a 8ec2 e93d 95e7 ebbd
00000190: 4347 5f3e c4c4 f73d 437e 7dbe bce6 133e
000001a0: 1290 213e ee4f 3fbe 0cdf 08be e619 423c
000001b0: fab3 3bbe ddf0 e4bd 3440 b23d 0e43 80bc
000001c0: 2671 b03d a78c 31bd 9536 33bd 2010 543d
000001d0: 4637 09be 441a 6cbd 94a2 a43d 2d46 023e
000001e0: 3436 dd3d 9a2a 8a3d c840 ad3d f960 833d
000001f0: 512a 4ebe 00ae a33d 252c 693d 4830 d93d
00000200: 7b08 ea3d c508 813e 87ab 313e d230 8cbc
00000210: f6fe 81bc 18bd ba3d 26cc 56bd a548 20be
00000220: fc0c 863e 6756 fabd 9bfb 3abe 9587 e23d
00000230: f2ac 4ebe edbe 84be fc2b 0abc d7a1 fc3c
00000240: 25a0 963d acd4 1b3d 265e 05bd 931e fb3d
00000250: fced 44be 4849 8d3e 312e f53d 7fcb cbbd
00000260: aa33 143b f395 29be 9485 0b3d fdaa 94be
00000270: a072 a2bd 7310 3dbc 438c 8f3d bcfc 233d
00000280: dbfa e5bd b723 063e d27b c23d d6ee 723e
00000290: 096c 3e3e 577a fa3d b386 b7bd 19c4 fcbc
000002a0: de43 ba3e 29c5 b6be ff32 62be fca0 f53d
000002b0: dc3e 92be ed04 62be 4de6 72be 271b 073e
000002c0: 0dca bc3d e718 3bbe 9604 473e ea38 a03e
000002d0: ef6e b3be 2793 9c3e 6991 e33e 600a 4dbe
000002e0: ec75 79be c1c0 3dbe e8d5 ae3e 0926 fabd
000002f0: 3dac 0fbe a37c 73be 6417 333c f258 2bbe
00000300: 968f 1ebe d298 a13d f70d 0cbd 1122 2d3e
00000310: 8a97 08bc 1faa 943d f955 20be b4d4 6ebd
00000320: 204c 0cbd a5cd fb3c 17a5 d0bc 971d babb
00000330: 40c9 963c 5cf1 cabd e075 f53c 1fb9 ee3d
00000340: 2ee7 f03d 6719 9d3d 3949 813d 4f83 e03d
00000350: 98d7 c0bd 758e 513d 81ae 273e 8e42 91bd
00000360: 3514 1dbe 24b4 94bd 88d1 c0bc 2068 59bd
00000370: 1fc9 8e3d a941 633d 7edc 0abe 9586 273e
00000380: 8861 853e fed8 09be 2a32 153e 596f 993d
00000390: 9b7d f43d 1662 0abe 8e06 f83c b70a 8e3a
000003a0: f955 9b3c d32f debd f880 8c3b b1b2 933c
000003b0: b3b5 e5bb cb28 aebb dd7f db3d 16c3 edbd
000003c0: 8622 acbd f4bf c9bd c002 12be 5453 5a3d
000003d0: d761 87bd 90af 1fbd b3d5 b2bd b9d5 993d
000003e0: b90f 3cbe b425 cfbd eb35 e3bd bb16 2fbe
000003f0: dc99 41bc 4cce dcbd 9383 23be 06b9 3bbd
-0.1904778 0.10132439 0.14698407 0.03771406 0.18001431 -0.03249926 -0.1383209 0.10057349
0.24370708 -0.21878254 -0.18343519 0.18667968 -0.19784133 -0.102252655 0.05819909 -0.034224857
-0.0032099118 -0.13914646 -0.11994168 0.1775222 -0.13113707 0.17229451 0.05880167 -0.07955369
-0.018693909 0.072365955 0.23331304 -0.13648541 -0.021712782 0.08696899 -0.12799932 -0.0017456018
-0.10201995 0.10814676 -0.11669519 0.15017037 0.050760135 0.029928016 -0.20115265 -0.21513402
0.19599338 -0.012675297 0.0843684 0.2176993 -0.19551706 -0.19969353 -0.18162906 0.0862434
0.080242045 -0.14228289 -0.14020328 -0.1076539 0.061479155 0.14605363 0.14705689 -0.041969832
0.05566394 -0.14703593 -0.015752446 0.01484744 0.028486159 0.062060755 -0.14858931 0.05699266
-0.28249037 -0.034895767 0.03360019 -0.045969564 0.020769902 0.039279457 0.08798116 -0.08765715
0.12426878 -0.15971702 -0.16965857 0.017719436 -0.09877392 -0.20654728 -0.21714222 -0.013824994
-0.06355793 -0.038799047 0.002752547 0.026385078 -0.13604574 0.08874649 -0.072764605 0.14320433
-0.13658544 -0.16515034 -0.06093957 -0.10209664 0.106357895 -0.065147325 -0.099984914 0.03753567
-0.014049907 0.0014911931 0.114140615 -0.1151878 0.21804528 0.12098077 -0.24755196 0.14443487
0.15777615 -0.18682835 -0.13366336 0.011846995 -0.18330374 -0.111787535 0.08703652 -0.015656974
0.08615331 -0.043347027 -0.043753225 0.05177319 -0.13399991 -0.057642236 0.08038822 0.12722082
0.10801354 0.06746407 0.08459622 0.064149804 -0.2013333 0.07992172 0.056926865 0.10604912
0.11427399 0.25202003 0.17350589 -0.017113123 -0.015868645 0.09118098 -0.052440785 -0.15652712
0.2618178 -0.12223511 -0.18260042 0.110610165 -0.20183161 -0.25926915 -0.008433338 0.03083889
0.07354764 0.038044617 -0.03256049 0.12261691 -0.19231409 0.27594972 0.11971701 -0.09950923
0.0022613802 -0.16561107 0.034062937 -0.29036704 -0.07932019 -0.011539566 0.07009175 0.04003595
-0.112294875 0.13099562 0.09496273 0.23723921 0.185959 0.12230366 -0.08961239 -0.030855225
0.36379904 -0.35697296 -0.22089766 0.11993596 -0.28563583 -0.22072192 -0.23720665 0.13193952
0.09218226 -0.18271218 0.19435343 0.31293422 -0.35045573 0.30581018 0.44446877 -0.20023489
-0.2436139 -0.18530561 0.34147573 -0.12214286 -0.14030547 -0.23778014 0.01093087 -0.16733149
-0.15484461 0.07890476 -0.034193005 0.16907527 -0.008336911 0.072590105 -0.15657796 -0.05830832
-0.034252286 0.030737707 -0.025469346 -0.005679797 0.01840651 -0.09909317 0.029963434 0.11656403
0.11762844 0.07670861 0.06312794 0.10962545 -0.09416121 0.05116125 0.16375162 -0.070927724
-0.1533974 -0.072609216 -0.023537412 -0.053077817 0.069719546 0.05548254 -0.13560674 0.16359933
0.26050973 -0.13461682 0.14569917 0.07491941 0.1193802 -0.1351398 0.030276563 0.0010836934
0.018961893 -0.108489655 0.004287835 0.018029543 -0.0070101856 -0.0053149215 0.10717747 -0.11609475
-0.08405022 -0.09851065 -0.14258862 0.053302124 -0.06610458 -0.03898579 -0.08732166 0.075114675
-0.18365373 -0.10114613 -0.110942684 -0.17098515 -0.011816468 -0.107815355 -0.1596816 -0.04583075
