model_params/full_model.pth (torch, 99768 bytes, 17 tensors)

lstm.weight_ih_l0 f4 [128, 7]
0	0x3e24fbee	0.16111729
1	0x3e509d01	0.20372392
2	0x3f2d8613	0.67782706
3	0x3deedbd5	0.116630234
4	0x3de884e2	0.113534704
5	0xbeae56d7	-0.3405063
6	0x3da15fed	0.078796245
7	0xbe39376d	-0.1808755
8	0x3d3740a3	0.044739377
9	0x3eb1ce68	0.34727788
10	0xbe6f1ad8	-0.23350084
11	0x3ca35028	0.019935682
12	0xbe8858d4	-0.2663027
13	0xbdced7a3	-0.10099723
14	0xb939a28f	-0.00017703533
15	0x3cfeecd9	0.031118797
16	0x3e0214f3	0.12703304
17	0x3e045470	0.12922835
18	0x3e2fe169	0.17175831
19	0x3d8bce63	0.068264745
20	0xbd3ed051	-0.046585385
21	0x3e24fcd2	0.16112068
22	0xbe235d80	-0.15953636
23	0xbd534471	-0.051578943
24	0x3e185055	0.14874394
25	0x3c32204c	0.010871958
26	0x3ec7c7e6	0.39019698
27	0x3d960b80	0.07326412
28	0x3e17a29c	0.14808124
29	0x3d6fa946	0.05851104
30	0x3ecb04cd	0.396521
31	0xbe0d4f18	-0.13799703
32	0x3e71a2fe	0.23597333
33	0xbdcba53d	-0.09943626
34	0x3e669541	0.22517873
35	0xbe901791	-0.2814298
36	0xbe080c8d	-0.13286038
37	0x3f193d0c	0.59858775
38	0xbe93d46b	-0.28873
39	0xbe1f2629	-0.155419
40	0x3d378dc0	0.044812918
41	0x3d868195	0.065676846
42	0xbdefbab9	-0.117055364
43	0x3df12186	0.11773972
44	0x3c21097b	0.0098289205
45	0x3e06d276	0.13166222
46	0x3ca787bc	0.020450465
47	0x3c2c4983	0.010515573
48	0x3db0def2	0.086362734
49	0x3e57d0a4	0.21075684
50	0xbdd869bc	-0.10567042
51	0x3cb2f387	0.021844639
52	0x3ba42c95	0.0050101974
53	0xbdf885ad	-0.12134872
54	0xbea351fe	-0.31898493
55	0x3dca3ea4	0.09875229
56	0xbe534598	-0.20632017
57	0xbe50ef55	-0.20403798
58	0xbe478142	-0.19482902
59	0x3ba8c650	0.005150594
60	0x3d3dc75f	0.046332713
61	0xba293ec4	-0.0006456191
62	0xbeb112c8	-0.3458464
63	0xbe87bbf2	-0.26510578
64	0xbe56ad98	-0.20964658
65	0x3f1fe04e	0.62451637
66	0xbe873601	-0.2640839
67	0x3c8a10b5	0.01685367
68	0xbe2caed7	-0.16863571
69	0xbc89c9a8	-0.01681979
70	0xbd0a006f	-0.03369182
71	0xbe779020	-0.24176073
72	0x3e054073	0.13012867
73	0x3c55585f	0.013021558
74	0xbeab5143	-0.33460435
75	0x3cacdd58	0.021101639
76	0xbe9ab767	-0.3021805
77	0x3e0ca599	0.13735045
78	0x3eb3f801	0.3515015
79	0xbe117bf7	-0.14207445
80	0x3eab0c5e	0.33407873
81	0x3e45cb8f	0.19315933
82	0x3c8fb3fc	0.017541878
83	0x3e8d0cb4	0.27548754
84	0x3e43e3cb	0.19129865
85	0xbe6c5c85	-0.23082168
86	0x3e88ba57	0.26704666
87	0x3d3c7bd1	0.046016518
88	0xbe43e5d0	-0.19130635
89	0xbf0c81c8	-0.5488553
90	0xbe95378a	-0.29143935
91	0x3e00ffb7	0.12597547
92	0xbe437407	-0.1908723
93	0xbe98f1a4	-0.29871857
94	0x3e18791b	0.14889948
95	0xbe879dea	-0.26487666
96	0xbe28822b	-0.16455905
97	0x3d74f503	0.059803974
98	0x3df0d498	0.11759299
99	0x3e13dabc	0.1443891
100	0x3ea2f765	0.31829372
101	0xbdc88fa5	-0.09793023
102	0x3c83b8e2	0.01607937
103	0xbd9da0a5	-0.07696656
104	0x3e1b4d6d	0.15166254
105	0x3d90bb28	0.07066947
106	0xbe262e4e	-0.16228601
107	0x3e6e1d68	0.23253405
108	0xbd8d8914	-0.06910911
109	0xbe9b91ff	-0.30384824
110	0x3e6d223f	0.23157595
111	0xbe69321e	-0.22773024
112	0xbd9338e4	-0.071885854
113	0x3dfd1672	0.12357797
114	0xbec15d26	-0.3776638
115	0x3dccdccc	0.10003051
116	0x3e74b0f9	0.23895635
117	0x3dc124a2	0.09430815
118	0x3deaa91e	0.11458038
119	0x3ec23d3b	0.3793734
120	0x3df53916	0.11973779
121	0x3f227eb6	0.63474596
122	0x3e161065	0.14654692
123	0x3d317444	0.04332377
124	0xbe045ae7	-0.12925301
125	0xbdb3c15f	-0.08777117
126	0xbd23bbf9	-0.039974187
127	0xbde90600	-0.113780975
128	0xbf103011	-0.56323344
129	0x3d5e79fe	0.05431556
130	0x3ca33077	0.01992057
131	0x3d812bc4	0.06307176
132	0x3e1975ae	0.14986297
133	0xbd64356e	-0.055715017
134	0x3e1cd1ab	0.15314357
135	0x3ea654ed	0.32486668
136	0xbdfe6ee5	-0.12423495
137	0xbd373941	-0.044732336
138	0x3dc4eaa8	0.0961507
139	0xbdc540d8	-0.096315086
140	0x3eb9d69c	0.36296546
141	0xbc389368	-0.011265613
142	0xbe8cffd2	-0.27538925
143	0x3e807517	0.25089332
144	0xbc970d41	-0.018438937
145	0x3ec07c38	0.3759477
146	0x3e71d7b4	0.2361744
147	0xbd4ade74	-0.049528554
148	0xbaf04b1c	-0.0018332931
149	0xbe07b004	-0.13250738
150	0x3db8fc2e	0.090324745
151	0xbe911cc8	-0.2834227
152	0x3eb03c0d	0.34420815
153	0xbe16fde5	-0.1474529
154	0x3e894be4	0.26815712
155	0x3ddd4be2	0.10805489
156	0x3e23d262	0.15998223
157	0x3e71fb68	0.2363106
158	0x3e19f9c1	0.1503668
159	0xbe02cedd	-0.12774225
160	0x3ca51a2b	0.02015408
161	0xbe36e8ba	-0.17862216
162	0xbdae449d	-0.08509181
163	0x3f7171d3	0.94314307
164	0xbe97e89d	-0.29669657
165	0xbd168e00	-0.036756516
166	0xbe2e2e8e	-0.17009947
167	0x3d29e2fa	0.041476227
168	0xbe96cac2	-0.29451567
169	0xbe16780f	-0.14694236
170	0x3ea4aa26	0.32161063
171	0xbe251e70	-0.16124892
172	0xbe470a12	-0.19437435
173	0xbe9ea980	-0.30988693
174	0xbce5ffac	-0.028076015
175	0xbcc63ed5	-0.024199883
176	0xbae65e61	-0.0017575735
177	0xbe086a78	-0.13321865
178	0x3e1ff697	0.1562141
179	0xbe1cb5e9	-0.15303768
180	0x3c5f048a	0.013611922
181	0xbe9acd93	-0.30234966
182	0xbea2e61b	-0.31816182
183	0xbe4e99d0	-0.20175862
184	0x3efdbc05	0.4955751
185	0xbe8dd920	-0.27704716
186	0xbd4e8157	-0.050416317
187	0xbebffa24	-0.3749553
188	0x3daf5212	0.085605755
189	0x3e7fe353	0.24989061
190	0x3e54e439	0.20790185
191	0x3e33c864	0.17556912
192	0x3eee22a9	0.4651082
193	0x3dfa368e	0.12217437
194	0xbd34e6e5	-0.04416551
195	0xbdee8368	-0.116461575
196	0x3d895638	0.06705898
197	0x3e8325bc	0.25614727
198	0x3ef0e44d	0.4704918
199	0xbddeaec7	-0.1087318
200	0x3d4f5964	0.05062236
201	0x3cda1ab3	0.02662406
202	0x3e48bb7b	0.19602768
203	0xbce166c7	-0.027514828
204	0x3e7b5fd3	0.24548273
205	0x3e0f5edf	0.14001034
206	0x3df5bcd7	0.11998909
207	0x3d9676c8	0.073468745
208	0x3e8d144b	0.27554545
209	0x3db886df	0.090100996
210	0x3dd0609a	0.10174675
211	0xbd85c56f	-0.06531798
212	0xbef86798	-0.48516536
213	0xbd21fb24	-0.039546147
214	0x3deb3025	0.11483792
215	0xbe800beb	-0.25009093
216	0x3d5f4ce3	0.054516684
217	0xbc64f26f	-0.013973816
218	0xbbd28dc0	-0.0064255893
219	0xbf1566bc	-0.58359885
220	0xbe4f4108	-0.20239651
221	0x3dc37e6a	0.09545596
222	0xbcff3f79	-0.031158196
223	0x3dd16012	0.10223402
224	0x3df1735e	0.11789583
225	0x3e81f055	0.2537867
226	0xbe1a3917	-0.1506084
227	0xbe3dd4d6	-0.18538222
228	0x3d9a442b	0.07532533
229	0x3d90d12c	0.07071146
230	0x3c284878	0.010271184
231	0xbe0462c1	-0.12928297
232	0x3d1c85f5	0.03821369
233	0x3c15efc8	0.009151407
234	0x3c793aa1	0.015211732
235	0x3bd6f422	0.0065598646
236	0x3e8d467e	0.27592844
237	0x3d97d4f6	0.07413666
238	0xbd49379e	-0.049125306
239	0xbde2ee72	-0.11080636
240	0x3ea28d2f	0.3174834
241	0xbea445bb	-0.3208445
242	0xbdd648a6	-0.10463075
243	0x3d9c983e	0.076462254
244	0xbd9657e3	-0.07340982
245	0xbe183a37	-0.14865957
246	0x3d8b16ea	0.0679148
247	0xbe0e07a2	-0.13870099
248	0xbdbc165c	-0.09183952
249	0xbdc6493f	-0.09681939
250	0xbe11c029	-0.1423346
251	0x3d74d1ad	0.059770275
252	0xbd1a75d5	-0.03771003
253	0xbf09202a	-0.53564703
254	0xbe713117	-0.23553883
255	0x3c8ac893	0.016941344

lstm.weight_hh_l0 f4 [128, 32]
0	0x3ca9643d	0.02067768
1	0x3eebced2	0.4605623
2	0x3e3d7739	0.18502511
3	0xbdd2be90	-0.10290253
4	0xbeb9d98c	-0.36298788
5	0xbd5e59d3	-0.05428488
6	0xbe309cc8	-0.17247307
7	0x3de242c7	0.11047893
8	0x3e5b58de	0.21420619
9	0xbe1eaab4	-0.15494806
10	0x3e8e015b	0.2773541
11	0x3e250858	0.16116464
12	0xbe4edfcd	-0.2020256
13	0xbc834c18	-0.016027495
14	0x3a604791	0.0008555586
15	0x3d882fae	0.06649719
16	0xbe08b32e	-0.13349602
17	0x3d8f3242	0.06992008
18	0xbea957b6	-0.3307473
19	0x3ec61ad9	0.38692358
20	0x3de52cda	0.111901954
21	0xbdfe6c88	-0.124230444
22	0xbd7722f3	-0.060336065
23	0x3ec14526	0.3774807
24	0x3e1d8f1f	0.15386628
25	0x3edf6d2a	0.43637973
26	0x3ece25a3	0.4026309
27	0x3cc5d38e	0.024148729
28	0x3e371cfa	0.17882147
29	0xbe73373f	-0.23751543
30	0x3d203338	0.039111346
31	0xbe5e9285	-0.2173558
32	0xbe4a8d18	-0.19780385
33	0xbd072bf0	-0.033000886
34	0xbe8bbd53	-0.2729288
35	0x3d6d1627	0.057882454
36	0xbeb4a1ff	-0.35279843
37	0x3d1a5b90	0.037684977
38	0x3d9bad52	0.076014176
39	0x3f1c5acf	0.6107606
40	0x3eba8ecf	0.3643708
41	0x3db4900f	0.088165395
42	0xbdf97777	-0.12180989
43	0x3e0e5993	0.13901357
44	0xbd280bdf	-0.041026946
45	0x3ead5b4a	0.3385871
46	0xbe72e759	-0.23721065
47	0xbd5581b0	-0.052125633
48	0xbd0ba27b	-0.0340905
49	0x3e9b9b49	0.3039191
50	0x3d4fa059	0.05069003
51	0x3e98c607	0.29838583
52	0x3ea8d7f0	0.32977247
53	0x3ec3549e	0.38150495
54	0x3e524122	0.20532659
55	0x3e93f834	0.289003
56	0xbe49ab2a	-0.196942
57	0xbe5740c0	-0.21020794
58	0x3e625a97	0.2210487
59	0x3e17c6a4	0.14821869
60	0x3b3b2c10	0.00285602
61	0xbee53236	-0.4476487
62	0x3ce6b548	0.028162614
63	0xbea1dd3d	-0.31614104
64	0xbe922eb2	-0.2855125
65	0x3da5c293	0.08093753
66	0xbe653469	-0.22383274
67	0xbee536e6	-0.44768447
68	0x3d7a7b23	0.06115259
69	0xbd019343	-0.03163458
70	0xbec9b273	-0.39393958
71	0x3e865d48	0.26243043
72	0x3e0fc2c2	0.14039138
73	0xbf12ef36	-0.57396257
74	0xbd808f4b	-0.06277331
75	0x3f327306	0.6970676
76	0xbe1f214d	-0.15540047
77	0x3de76da9	0.11300213
78	0xbea9d9ef	-0.33174083
79	0x3e5ac06f	0.2136247
80	0xbea7a48c	-0.32742727
81	0x3e945b4b	0.289759
82	0xbf0e5648	-0.55600405
83	0x3d0871fd	0.033311833
84	0x3ea82566	0.32841033
85	0x3e3286bd	0.17434211
86	0x3e883499	0.2660263
87	0x3f4796d5	0.77964526
88	0xbf36e3d1	-0.7144137
89	0xbd979b5f	-0.074026816
90	0x3ecc578d	0.39910546
91	0x3f071af9	0.5277553
92	0xbe81e7ba	-0.25372106
93	0xbf14d068	-0.581305
94	0xbe8f75ff	-0.2801971
95	0x3cc983a6	0.024598908
96	0xbef7332e	-0.48281235
97	0x3ed5f010	0.41784716
98	0x3dcf2bad	0.10115752
99	0xbd7bb7d1	-0.061454598
100	0xbe0a9209	-0.1353227
101	0xbe6324b3	-0.22181968
102	0xbe344f6b	-0.1760842
103	0x3e63f231	0.22260357
104	0x3ec6eeac	0.38853967
105	0xbe2390a5	-0.15973146
106	0x3e1974dd	0.14985986
107	0x3d01b098	0.031662554
108	0x3e9245ed	0.28568974
109	0x3ed52f96	0.41637868
110	0xbecb90a6	-0.39758795
111	0xbcebf46d	-0.028803075
112	0xbefd053b	-0.49418053
113	0x3dc9bbb1	0.098502524
114	0xbe4d92db	-0.20075552
115	0xbeb89ff3	-0.36059532
116	0xbc4593f1	-0.012059198
117	0x3e2c752b	0.16841571
118	0x3d1c9228	0.038225323
119	0x3e5bb7e2	0.21456864
120	0xbef1b919	-0.4721153
121	0xbe246990	-0.16055894
122	0x3e1af4d1	0.15132453
123	0x3ecb7b6f	0.3974261
124	0xbe83d20c	-0.2574619
125	0xbeb161a1	-0.34644797
126	0xbd5b6eee	-0.053572588
127	0xbea8f695	-0.33000627
128	0xbf024fbf	-0.5090293
129	0x3ddf005d	0.10888741
130	0x3e90b506	0.2826311
131	0xbe5a58ee	-0.21322986
132	0x3c840ecc	0.016120337
133	0x3e58010b	0.21094148
134	0xbe8a92e4	-0.27065194
135	0x3e8b9d31	0.27268365
136	0x3e1a06d3	0.15041666
137	0xbe72b2d8	-0.23701036
138	0xbd303adb	-0.04302488
139	0x3dea9453	0.11454072
140	0x3ea03d71	0.31296876
141	0xbc94622b	-0.018113216
142	0xbd115ba5	-0.03548779
143	0x3e8b4b76	0.2720601
144	0xbeb035ab	-0.34415945
145	0x3e19f55b	0.15035002
146	0xbef7dbde	-0.48409933
147	0xbe1a42f6	-0.15064606
148	0x3e023386	0.12714967
149	0xbd59abe7	-0.053142454
150	0x3ad0c873	0.0015928879
151	0x3f2f144e	0.6839036
152	0xbe90935b	-0.28237423
153	0x3d70e405	0.058811206
154	0x3e53ebad	0.20695372
155	0x3eb6c727	0.35698816
156	0xbeb67de4	-0.35642922
157	0xbeb481cd	-0.3525528
158	0xbe6a7014	-0.22894317
159	0x3d5cd212	0.053911276
160	0xbd3dcf1f	-0.046340104
161	0x3e652e69	0.22380985
162	0x3c9f7852	0.019466553
163	0x3d1fccd3	0.039013695
164	0xbeeb6e72	-0.459827
165	0xbe8fd07a	-0.28088742
166	0xbe48d7e6	-0.19613609
167	0x3ed6c52e	0.4194731
168	0x3d961a88	0.07329279
169	0x3e1bdd5e	0.15221164
170	0xbde3fa41	-0.111317165
171	0xbe758649	-0.23977007
172	0x3db8f356	0.09030788
173	0x3e22d314	0.15900832
174	0xbe20b738	-0.15694892
175	0x3e5140a5	0.20434816
176	0x3dd65b55	0.10466639
177	0x3dadfbc0	0.08495283
178	0xbeaad5bc	-0.3336619
179	0x3e824340	0.25441933
180	0xbd22bbaf	-0.03972977
181	0xbe14d029	-0.14532532
182	0xbdced202	-0.100986496
183	0x3d5c1ced	0.053738523
184	0x3eb58f6b	0.35460982
185	0x3d6c5f13	0.057707857
186	0xbe76712e	-0.24066612
187	0xbc97e23e	-0.018540498
188	0x3e70ce98	0.2351631
189	0x3d6c3bf2	0.057674356
190	0x3eb55614	0.35417235
191	0xbf01f5df	-0.50765795
192	0xbe161405	-0.14656074
193	0xbe1a6000	-0.15075684
194	0xbefc96fc	-0.49333942
195	0x3c1600f2	0.009155499
196	0xbee18b7b	-0.44051728
197	0xbf175106	-0.59108007
198	0x3e7622a0	0.24036646
199	0x3d27e164	0.040986434
200	0xbd7d8e21	-0.061903123
201	0xbe949163	-0.2901717
202	0x3d99fa22	0.07518412
203	0x3f20dc2f	0.62835974
204	0xbeca4edc	-0.3951329
205	0xbe870b96	-0.26376027
206	0xbf122eaa	-0.57102454
207	0x3ead57c8	0.33856034
208	0xbe25fe9f	-0.16210411
209	0x3ecaa22e	0.39576858
210	0x3ea87723	0.32903394
211	0x3e288df4	0.16460401
212	0x3c5a0253	0.013306218
213	0xbe4b3d6a	-0.19847646
214	0x3ea9513f	0.33069798
215	0x3ef47a71	0.47749665
216	0xbeacded2	-0.33763748
217	0x3eab4bb8	0.33456206
218	0x3f1bb72e	0.60826385
219	0x3ee1812a	0.44043857
220	0x3b830e11	0.0039994796
221	0xbeab2df2	-0.3343349
222	0x3e5220ca	0.2052032
223	0x3ea30cbc	0.31845653
224	0xbeb7763a	-0.35832387
225	0x3ea576db	0.32317242
226	0x3e0b44c0	0.13600445
227	0x3d49a929	0.04923359
228	0x3ef56c03	0.4793397
229	0xbda1c253	-0.078983925
230	0xbe939181	-0.28821948
231	0x3c6a67d7	0.014306984
232	0x3e985d1a	0.2975853
233	0xbd1fe776	-0.039039098
234	0xbe8acb15	-0.27108064
235	0xbe6695c7	-0.22518073
236	0x3e643e02	0.22289279
237	0x3f03ae2f	0.5143766
238	0xbe766c61	-0.24064781
239	0xbe05c96e	-0.1306512
240	0xbd8d7a98	-0.069081485
241	0x3e8d1bf6	0.27560395
242	0xbd4b23c0	-0.04959464
243	0xbe7d37f9	-0.24728383
244	0xbd43741d	-0.047718156
245	0x3efaeeb4	0.4901024
246	0x3eb627de	0.3557729
247	0x3de1d425	0.110267915
248	0xbe61d94f	-0.22055553
249	0xbecb121e	-0.3966226
250	0xbe167fd4	-0.146972
251	0xbd41c382	-0.04730559
252	0xbe88def5	-0.26732603
253	0x3d8df0be	0.069306836
254	0x3d8414e2	0.064492956
255	0xbe673908	-0.2258035

lstm.bias_ih_l0 f4 [128]
0	0x3ecdff9e	0.40234083
1	0xbd88e640	-0.06684542
2	0xbd85d336	-0.06534426
3	0xbdcc1a59	-0.09965963
4	0x3e6531c3	0.22382264
5	0x3ebcf94c	0.36908948
6	0xbdc081af	-0.09399735
7	0xbd2b1c55	-0.041775066
8	0xbe201353	-0.15632372
9	0x3f29443e	0.66119754
10	0x3caa281f	0.020771084
11	0x3e108cdd	0.14116235
12	0x3e7ed32e	0.24885246
13	0x3e801750	0.25017786
14	0x3da52366	0.08063392
15	0x3ebc57c5	0.36785713
16	0x3e7a2e56	0.24431738
17	0x3f5223ce	0.82085884
18	0xbc5fb8de	-0.013654916
19	0x3e0cd356	0.13752493
20	0x3b9e03d2	0.0048222328
21	0x3ecd8d28	0.40146756
22	0x3f44b2a8	0.7683511
23	0x3f39da3a	0.7259861
24	0x3e7c28d3	0.24624948
25	0x3d99a334	0.07501832
26	0x3edf7fbb	0.43652138
27	0x3ef51cb6	0.47873467
28	0x3f3d7fb4	0.74022985
29	0xbebb0fe8	-0.36535573
30	0xbf053d8e	-0.5204705
31	0xbd4ff206	-0.05076792
32	0xbea443bc	-0.32082927
33	0x3e2997b1	0.16561772
34	0x3e821352	0.25405365
35	0x3dcbc3ed	0.09949479
36	0xbefbe8a1	-0.4920092
37	0xbf362dbe	-0.7116355
38	0x3ec2500d	0.379517
39	0xbec88e09	-0.39170864
40	0xbec663d6	-0.38748044
41	0xbf578095	-0.84180576
42	0xbe35e1f5	-0.17761977
43	0xbf1618c5	-0.58631545
44	0xbf2e9984	-0.68202996
45	0xbeaba07e	-0.33520883
46	0x3d602591	0.054723326
47	0xbf34db2e	-0.7064694
48	0x3e063023	0.131043
49	0xbf6189b3	-0.8810074
50	0x3eea7951	0.45795682
51	0x3e6e8fd3	0.23297052
52	0x3c073f28	0.008254804
53	0xbdd41729	-0.1035598
54	0xbf2bce79	-0.6711193
55	0xbf0c408f	-0.5478601
56	0xbeadb1ab	-0.33924612
57	0xbe369d8f	-0.17833541
58	0xbf2aa391	-0.6665583
59	0xbee81ad0	-0.45332956
60	0xbf0d8180	-0.55275726
61	0x3f13f9db	0.57803124
62	0x3f030510	0.511796
63	0x3e82a322	0.25515085
64	0xbd333a15	-0.043756563
65	0x3e8089e3	0.251052
66	0x3e5b4a18	0.21414983
67	0x3d57cbc3	0.052684557
68	0xbe4b4df0	-0.1985395
69	0x3dc03bb5	0.09386388
70	0xbdf920d5	-0.12164465
71	0x3d349e6e	0.044096403
72	0xbe2e6606	-0.17031106
73	0x3de010ce	0.10940705
74	0xbe31dfd3	-0.17370538
75	0xbdf256c0	-0.118329525
76	0xbe30a8ce	-0.17251894
77	0xbe4f2247	-0.2022792
78	0xbd995f5b	-0.07488891
79	0x3e398bb5	0.181197
80	0x3e9357d3	0.28777942
81	0xbdb8790d	-0.090074636
82	0xbe6df543	-0.23238091
83	0x3daa485f	0.08314585
84	0xbe6d7979	-0.2319087
85	0xbed9f0af	-0.4256644
86	0xbe51a404	-0.20472723
87	0xbbf95140	-0.0076085627
88	0x3eae3478	0.34024405
89	0xbe5a2a26	-0.21305141
90	0xbe0e5193	-0.13898306
91	0xbe892ac0	-0.26790428
92	0x3e218883	0.15774731
93	0xbc2477a3	-0.010038289
94	0x3e32522b	0.17414157
95	0xbe64eee7	-0.22356759
96	0x3eea7153	0.45789585
97	0x3efba507	0.49149343
98	0x3ea6d13e	0.32581514
99	0x3e442251	0.19153716
100	0x3eb1d8eb	0.34735808
101	0x3f16dfa3	0.5893499
102	0x3f1c68ed	0.61097604
103	0x3e268d27	0.16264783
104	0x3d8f3904	0.06993297
105	0x3f083876	0.5321115
106	0x3ef9b0e5	0.48767772
107	0x3e8c3f2e	0.27391952
108	0x3f1d2442	0.6138345
109	0x3e25c75d	0.16189332
110	0x3e73ff1e	0.23827788
111	0x3f013003	0.50463885
112	0x3ee83a00	0.4535675
113	0x3f5ba1b8	0.8579364
114	0x3ef60d18	0.48056865
115	0x3e1bfb40	0.15232563
116	0x3ed7142e	0.42007583
117	0x3eee165b	0.4650143
118	0x3f3d4e96	0.7394804
119	0x3f70e479	0.9409862
120	0x3e896fe0	0.26843166
121	0x3d79500c	0.060867354
122	0x3f2ba108	0.6704259
123	0x3f5f9727	0.87340015
124	0x3f2045e4	0.62606645
125	0x3d665e5c	0.05624233
126	0xbe4e2e0f	-0.20134757
127	0x3eb8f49a	0.36124116

lstm.bias_hh_l0 f4 [128]
0	0x3e3fc555	0.1872762
1	0xbdcfe58a	-0.10151203
2	0xbd38432a	-0.044985928
3	0x3d68d362	0.056842215
4	0x3e9da177	0.3078725
5	0x3e8422a5	0.25807682
6	0xbe0d4775	-0.1379679
7	0xbdfc8e7e	-0.12331866
8	0xbca2cf5a	-0.019874264
9	0x3f117bb5	0.56829387
10	0x3ccb7c6a	0.024839599
11	0x3d0e7bdd	0.034786094
12	0x3e860cc7	0.26181623
13	0x3e63455a	0.22194424
14	0xbda551a4	-0.08072212
15	0x3f29ccfb	0.663284
16	0x3def9ef6	0.11700241
17	0x3f70003b	0.9375035
18	0xbc231c44	-0.0099554695
19	0x3e249165	0.16071089
20	0x3de7201f	0.112854235
21	0x3ee13dd6	0.4399249
22	0x3f4ab8d7	0.79188293
23	0x3f46c09b	0.7763764
24	0x3d9b960c	0.075969785
25	0x3d5169d9	0.051126335
26	0x3ec1256f	0.37723872
27	0x3f372316	0.7153791
28	0x3f47478b	0.7784354
29	0xbe764dee	-0.24053165
30	0xbe938932	-0.2881561
31	0xbc981077	-0.018562539
32	0xbeb664a8	-0.3562367
33	0x3ea19423	0.31558332
34	0x3dc82b35	0.09773866
35	0x3da2cfaa	0.07949765
36	0xbe823697	-0.25432274
37	0xbf0ce27e	-0.550331
38	0x3f039976	0.5140604
39	0xbec72dd5	-0.38902155
40	0xbefebc7c	-0.49753177
41	0xbf0e1f91	-0.55516917
42	0xbe9ee5e4	-0.31034768
43	0xbf12c735	-0.57335216
44	0xbf354895	-0.70813876
45	0xbf1d28e1	-0.613905
46	0xbd4fa7d4	-0.050697163
47	0xbf20c92b	-0.6280696
48	0x3d8649d1	0.06557048
49	0xbf298902	-0.6622468
50	0x3eddd1cf	0.43324134
51	0x3df0b630	0.117534995
52	0x3d7c3989	0.061578307
53	0xbec8c683	-0.39213952
54	0xbf248b46	-0.64275014
55	0xbebdcd29	-0.37070587
56	0xbf004c43	-0.50116366
57	0xbdf0fc8e	-0.11766921
58	0xbedc958a	-0.4308284
59	0xbf213fbe	-0.6298789
60	0xbf41c2ff	-0.75688165
61	0x3eea091f	0.45710084
62	0x3f17f060	0.5935116
63	0x3edaf537	0.4276521
64	0xbb1ac862	-0.0023617973
65	0x3e4d8ae1	0.2007251
66	0xbd1ad6da	-0.037802555
67	0xbbac1f45	-0.005252751
68	0xbec196cf	-0.3781037
69	0x3e81de13	0.25364742
70	0x3d8083f8	0.06275171
71	0x3dc444ac	0.095834106
72	0x3c3be5c4	0.011468355
73	0x3d0620f3	0.032746267
74	0xbe3d9073	-0.18512134
75	0xbea41e7b	-0.32054505
76	0xbe1fd4ad	-0.15608473
77	0xbec58433	-0.38577422
78	0xbdb0be9e	-0.08630107
79	0x3dccb5a4	0.09995583
80	0x3e6766a6	0.22597751
81	0xbe08c11b	-0.13354914
82	0xbec775c4	-0.38957036
83	0x3e2989f1	0.16556527
84	0xbe03f396	-0.1288589
85	0xbec4242d	-0.3830885
86	0xbe05f545	-0.13081844
87	0xbe0a0690	-0.13479066
88	0x3daf49ad	0.085589744
89	0xbce52ed4	-0.027976431
90	0xbed2621c	-0.41090477
91	0xbe0fabea	-0.14030424
92	0x3dbc1841	0.091843136
93	0xbe35544f	-0.17707942
94	0x3e1ac469	0.15113987
95	0xbe572733	-0.21011047
96	0x3f00c2d0	0.5029726
97	0x3e966e4a	0.2938102
98	0x3e6398c0	0.22226238
99	0x3cf6fdb0	0.030150265
100	0x3e63b66b	0.22237556
101	0x3f0c769b	0.5486848
102	0x3eba6db1	0.36411813
103	0x3d8538c7	0.0650497
104	0x3e031844	0.12802225
105	0x3f0ae639	0.5425754
106	0x3e8072f3	0.250877
107	0x3d64c535	0.055852134
108	0x3ea7cd62	0.32773882
109	0x3ea4bb95	0.32174364
110	0x3ddeff35	0.10888521
111	0x3f48a376	0.7837442
112	0x3eb8be42	0.36082655
113	0x3f86c120	1.0527687
114	0x3f030060	0.5117245
115	0x3ea26e7f	0.31724927
116	0x3eb4e0bb	0.35327706
117	0x3eb99868	0.3624909
118	0x3f038a4f	0.5138292
119	0x3f8a7dce	1.0819643
120	0x3ea2c91e	0.31794065
121	0x3e706f8c	0.23480052
122	0x3f28296c	0.65688205
123	0x3f4e8db1	0.80684954
124	0x3f29a2f4	0.6626427
125	0x3e6560d5	0.2240022
126	0x3d2b6d8a	0.04185251
127	0x3ece63b5	0.40310445

lstm.weight_ih_l1 f4 [128, 32]
0	0xbe16666a	-0.14687505
1	0x3ef2743c	0.47354305
2	0xbd7eccd4	-0.062207058
3	0x3ddcfce4	0.107904226
4	0x3d69df90	0.05709797
5	0xbe59dafd	-0.21274944
6	0xbeb2a88c	-0.34894216
7	0x3e0c6fae	0.13714477
8	0x3d8045cd	0.062633134
9	0xbeb5a8d1	-0.3548036
10	0x3e131ec7	0.1436721
11	0x3f1bde01	0.60885626
12	0x3e07967d	0.13241
13	0xbe19ea09	-0.15030684
14	0xbd5d5a3a	-0.054041125
15	0x3e5c55bf	0.21517085
16	0xbc9dbff6	-0.019256573
17	0x3e2b4f84	0.16729552
18	0xbc7a067e	-0.015260337
19	0xbe449c5a	-0.19200268
20	0x3ecb6e15	0.39732423
21	0xbccce8f1	-0.025013419
22	0x3e1a1c94	0.15049964
23	0x3dfc8b35	0.12331239
24	0xbea96485	-0.33084503
25	0x3e1728b9	0.14761628
26	0x3ee58b92	0.44833046
27	0x3e77e0a2	0.24206784
28	0x3dc2fd72	0.09520997
29	0x3d802146	0.062563464
30	0xbe0cd335	-0.13752444
31	0xbee4d9f5	-0.44697538
32	0xbe214522	-0.15749028
33	0xbc4180b3	-0.011810469
34	0x3d5a22a4	0.053255692
35	0x3e428d43	0.189992
36	0xbf05598c	-0.5208976
37	0xbea61d6e	-0.32444328
38	0xbe6694db	-0.22517721
39	0xbd8ca31b	-0.068670474
40	0x3e80c673	0.25151405
41	0xbec2edab	-0.3807195
42	0xbc1faf15	-0.009746333
43	0x3ea7e22f	0.32789752
44	0xbe53b445	-0.20674236
45	0xbe6a8a50	-0.22904325
46	0xbefebeb8	-0.49754882
47	0x3ee0f473	0.439365
48	0xbd67d0e3	-0.056595694
49	0x3ae5f650	0.001754472
50	0xbd587a15	-0.0528508
51	0x3dace331	0.08441771
52	0x3e9be6e8	0.30449605
53	0xbd98c3d2	-0.07459225
54	0x3e9ef1b4	0.3104378
55	0x3f2bc461	0.67096525
56	0xbf08e2f5	-0.5347131
57	0x3e3f068d	0.18654843
58	0x3f271519	0.6526657
59	0x3f428196	0.7597898
60	0xbe222a03	-0.15836339
61	0x3ad2177c	0.0016028727
62	0x3ecb5610	0.39714098
63	0x3e2a81b5	0.16651042
64	0x3cd557cb	0.02604284
65	0x3db90f40	0.09036112
66	0xbb2d5e16	-0.0026453785
67	0x3d8125f3	0.06306066
68	0xbea25fae	-0.31713623
69	0xbde21982	-0.110400215
70	0x3e1234cc	0.14277953
71	0x3db214c2	0.086953655
72	0x3e5a24a6	0.21303043
73	0xbe85e3fa	-0.26150495
74	0x3dbcec48	0.092247546
75	0x3e036ce7	0.12834512
76	0x3d803ed5	0.06261984
77	0x3c87ba6b	0.016568383
78	0xbe39a932	-0.18130949
79	0x3da48b47	0.080343775
80	0xbca4f2f8	-0.020135388
81	0x3e896461	0.26834396
82	0xbd8e7be8	-0.06957227
83	0xbe5ac82a	-0.21365419
84	0x3e9e4ebe	0.3091945
85	0xbec58bfc	-0.38583362
86	0x3ec22374	0.37917674
87	0x3f1497b0	0.58043957
88	0xbec260e4	-0.37964547
89	0x3e8e1e99	0.2775772
90	0x3f043b41	0.51652914
91	0x3ed57196	0.41688222
92	0x3d275e51	0.04086143
93	0xbf0e8802	-0.5567628
94	0xbd595241	-0.05305696
95	0x3dd0d1a6	0.10196237
96	0xbe0ed75d	-0.13949342
97	0x3e2a4d42	0.16631034
98	0xbd00bdee	-0.03143113
99	0x3d816cf1	0.06319607
100	0xbee14617	-0.43998787
101	0xbe980d01	-0.2969742
102	0x3e249e78	0.16076076
103	0x3d9dee46	0.07711463
104	0x3ea2ba21	0.3178263
105	0xbef556d2	-0.479178
106	0xbe219bbe	-0.15782067
107	0x3e9d22fe	0.3069076
108	0xbd066c7a	-0.032818295
109	0xbc38c0f2	-0.0112764705
110	0xbe07d2f0	-0.1326406
111	0x3eefad34	0.4681183
112	0xbcf5b1a4	-0.029991932
113	0x3e5b2a5a	0.21402875
114	0x3d058871	0.032600824
115	0x3e225b7a	0.15855208
116	0x3e711dad	0.23546477
117	0xbdc0244b	-0.09381922
118	0x3e9fb910	0.3119588
119	0x3f0f3138	0.55934477
120	0xbf29a8da	-0.6627327
121	0xbe436e00	-0.1908493
122	0x3f16658d	0.58748704
123	0x3f0567ca	0.52111495
124	0xbd97f212	-0.07419218
125	0xbe31bf87	-0.17358218
126	0xbd4f43bc	-0.050601706
127	0xbd9c88a1	-0.076432474
128	0xbe806b6a	-0.2508195
129	0xbe2b29b1	-0.16715123
130	0xbe25c276	-0.16187462
131	0xbef5212e	-0.47876877
132	0x3e8ba878	0.2727697
133	0xbde1cfcb	-0.110259615
134	0xbd325e45	-0.043546934
135	0xbca3800a	-0.019958515
136	0x3cbc4a7c	0.022984736
137	0xbf0db297	-0.5535063
138	0xbe88fc01	-0.26754764
139	0x3ea340c8	0.31885362
140	0x3eca118f	0.3946652
141	0x3dd1757d	0.10227487
142	0x3bd3a0bc	0.00645837
143	0x3c57a4a8	0.013161816
144	0xbcce349b	-0.025171569
145	0x3d6a8b6d	0.057261873
146	0xbe70d534	-0.2351883
147	0xbd796b7c	-0.06089352
148	0x3eca4ff5	0.39514127
149	0x3db0936e	0.0862187
150	0x3e80b122	0.25135142
151	0x3e856111	0.26050618
152	0xbeb04774	-0.34429514
153	0x3e19fa46	0.15036878
154	0x3e25078b	0.16116159
155	0x3eb197a7	0.34686014
156	0x3e144b0a	0.1448175
157	0xbf269376	-0.6506876
158	0xbe81959e	-0.2530946
159	0xbe8b8609	-0.27250698
160	0xb9b6b693	-0.00034849774
161	0x3c5db88a	0.013532767
162	0xbe12f0f4	-0.14349729
163	0x3d0a6084	0.03378345
164	0xbe91f5fa	-0.28507978
165	0xbe132fba	-0.14373675
166	0x3dd3114c	0.103060335
167	0x3dae7b88	0.085196555
168	0xbcdf19da	-0.027234007
169	0xbed97594	-0.42472517
170	0x3e019c14	0.12657195
171	0x3eacc360	0.3374281
172	0xbd80f7a8	-0.06297237
173	0x3e790cb4	0.24321252
174	0x3dd5a41e	0.104316935
175	0x3e9e7945	0.30951896
176	0xbe6dca10	-0.23221612
177	0xbe294f55	-0.16534169
178	0x3dcb64a7	0.09931307
179	0x3d864b45	0.06557325
180	0xbd347c8c	-0.04406409
181	0x3e6a8ab7	0.22904478
182	0xbb3d6ddd	-0.0028904595
183	0x3e840c03	0.25790414
184	0xbe50c18c	-0.20386332
185	0x3e8418c9	0.2580016
186	0x3f16c8f6	0.5890039
187	0x3e3034bd	0.17207618
188	0xbf2ab69b	-0.66684884
189	0x3d757ebe	0.059935324
190	0xbd82b568	-0.06382257
191	0xbdfe3218	-0.124118984
192	0xbe9a0e4a	-0.30089027
193	0xbd9c468a	-0.07630642
194	0xbcc03216	-0.023461383
195	0x3e276149	0.16345705
196	0x3d80faab	0.06297811
197	0x3dce00a3	0.10058715
198	0xbe52a4b7	-0.20570646
199	0x3e94c372	0.29055363
200	0x3d9d6eb5	0.07687131
201	0xbea71d40	-0.32639503
202	0xbdba1af8	-0.09087175
203	0x3cb78a4f	0.022404818
204	0x3d721323	0.05910028
205	0x3e6ac117	0.2292522
206	0xbd72485f	-0.05915105
207	0x3e3950d3	0.18097238
208	0x3eebb348	0.46035218
209	0x3e88ca70	0.26716948
210	0xbd84bb33	-0.06481018
211	0xbe98ff61	-0.2988234
212	0x3d94580a	0.072433546
213	0x3eb41d9b	0.35178837
214	0x3e9495bf	0.29020497
215	0xbd9b995d	-0.07597611
216	0xbe57de2f	-0.2108085
217	0x3d39c10e	0.045350127
218	0x3db4f11a	0.08835049
219	0x3ec4e50b	0.38455996
220	0xbe1e720f	-0.15473197
221	0xbe2b804c	-0.1674816
222	0xbe978ad7	-0.29598114
223	0xbe463101	-0.19354631
224	0xbee68112	-0.45020348
225	0x3ee296a4	0.44255555
226	0x3d737fc8	0.059448034
227	0xbe76dafc	-0.24106973
228	0x3e87136b	0.26382002
229	0xbbe3f7e1	-0.0069570397
230	0x3da3cc77	0.07997983
231	0x3e637260	0.222116
232	0x3e913e93	0.28368053
233	0x3e4375c9	0.190879
234	0xbd5fbff4	-0.05462642
235	0x3d510ec1	0.05103946
236	0x3f0c4be0	0.54803276
237	0x3e8b4d6a	0.272075
238	0xbd308321	-0.043093804
239	0xbccbd575	-0.024882058
240	0xbe83f8ab	-0.25775656
241	0x3e920484	0.2851907
242	0x3e28f35f	0.16499089
243	0xbe1abc07	-0.15110789
244	0x3f056848	0.52112246
245	0xbe9c2532	-0.30497128
246	0x3e09d2dc	0.13459343
247	0xbdefe8bb	-0.11714312
248	0x3c463ec6	0.012099927
249	0x3e047b74	0.12937719
250	0x3e40079b	0.18752901
251	0xbe3c437b	-0.18385117
252	0xbea3fa2a	-0.32026798
253	0x3e0ecdd7	0.13945709
254	0xbd84ed41	-0.06490565
255	0x3ecf02ff	0.40431973

lstm.weight_hh_l1 f4 [128, 32]
0	0x3ddd15d2	0.107951775
1	0xbc97f189	-0.01854779
2	0xbde459f4	-0.1114997
3	0x3c63b15f	0.013897269
4	0xbe118a9a	-0.14213029
5	0x3da84493	0.082162045
6	0x3d2ab5c2	0.041677244
7	0x3eacd64e	0.33757252
8	0x3cc8cb14	0.024510898
9	0xbd298e7c	-0.04139565
10	0xbe27eb90	-0.16398454
11	0x3daea661	0.08527828
12	0xbe09725e	-0.13422534
13	0x3d866d38	0.065638006
14	0x3dc8dc41	0.09807635
15	0x3e46d311	0.19416453
16	0x3de36e68	0.11105043
17	0xbe874be3	-0.26425084
18	0xbd104815	-0.035224993
19	0xbeba2072	-0.3635288
20	0x3e80a837	0.25128338
21	0xbe840590	-0.25785494
22	0x3c14a035	0.009071399
23	0x3e3dea5f	0.18546437
24	0xbdb33487	-0.08750253
25	0xbc2a49a9	-0.0103935385
26	0x3ea33614	0.31877196
27	0x3d971074	0.07376185
28	0xbd19f52c	-0.03758733
29	0x3e3a947e	0.18220708
30	0xbe97c285	-0.29640594
31	0x3d91bb4f	0.071158044
32	0x3e0503ef	0.12989782
33	0xbd70344c	-0.058643624
34	0xbea888ea	-0.32916957
35	0x3d91f715	0.07127205
36	0xbbc57162	-0.006025479
37	0x3cae895f	0.021305738
38	0x3dd7b0e2	0.105317846
39	0x3ea5c394	0.32375777
40	0x3c91f8c9	0.017818825
41	0x3d743270	0.059618413
42	0xbc346c85	-0.011012201
43	0x3db86632	0.09003867
44	0x3e4b86d2	0.19875649
45	0x3e49deda	0.19713917
46	0xbdc06b51	-0.09395469
47	0xbed0eb22	-0.40804392
48	0x3e432d13	0.19060163
49	0xbe89dff5	-0.26928678
50	0xbe6b36ad	-0.22970076
51	0x3db62378	0.08893484
52	0xbd1cfc69	-0.038326655
53	0xbd259c02	-0.040431984
54	0x3e406f6e	0.18792507
55	0x3ddecef1	0.10879315
56	0x3d9b9dad	0.07598434
57	0x3ddaf717	0.1069166
58	0x3db71b73	0.089407824
59	0xbdd2ca49	-0.10292489
60	0x3cfcb550	0.030848175
61	0xbe3d04c0	-0.18458843
62	0xbe74022f	-0.23828958
63	0x3d343e2e	0.04400461
64	0xbe0eba80	-0.13938332
65	0x3da9c93e	0.08290337
66	0xbc70b136	-0.014690688
67	0x3d0d071b	0.034430604
68	0xbe334d8d	-0.17510052
69	0xbcd0918f	-0.025460033
70	0x3ec52e6b	0.38511977
71	0x3e380af6	0.17972931
72	0x3e5663ce	0.2093651
73	0xbb6190c7	-0.003441857
74	0xbe310ecd	-0.17290802
75	0x3e6b4654	0.22976047
76	0xbdd498fd	-0.10380743
77	0x3d908a19	0.0705759
78	0xbe659eb0	-0.22423816
79	0xbc2afc7e	-0.010436175
80	0xbdcfc4a1	-0.10144926
81	0x3e5fc6fd	0.21853252
82	0x3ea40147	0.32032225
83	0xbdad0437	-0.084480695
84	0xbe0d9f29	-0.13830246
85	0x3dfc33f4	0.12314597
86	0xbcb47cc6	-0.022032153
87	0xbdff596f	-0.1246823
88	0x3e0b453e	0.13600633
89	0xbe38dd29	-0.18053116
90	0xbe2c97b4	-0.16854745
91	0xbe3c35fa	-0.18379965
92	0x3da853b6	0.082190916
93	0xbe8400a0	-0.25781727
94	0xbe35fd75	-0.17772467
95	0xbd7107fb	-0.0588455
96	0x3e2009b6	0.15628704
97	0x3d81aa49	0.063313074
98	0xbe8ccd3d	-0.27500334
99	0x3e31a7f3	0.17349224
100	0xbdb4edfd	-0.08834455
101	0xbde58b4e	-0.11208211
102	0xbcd008f3	-0.025394892
103	0x3e912229	0.28346375
104	0xbe46be44	-0.19408518
105	0x3d0ff30b	0.035143893
106	0x3d281929	0.04103962
107	0x3db2c6c2	0.08729316
108	0xbdcfc522	-0.10145022
109	0x3dc02acd	0.093831636
110	0xbd5bee83	-0.05369426
111	0xbe3c17dd	-0.18368478
112	0x3e4ddca3	0.20103697
113	0x3e618df0	0.22026801
114	0x3de7edac	0.11324629
115	0x3da44793	0.08021464
116	0xbce1393e	-0.027493116
117	0xbdc2c813	-0.095108174
118	0xbda46bf6	-0.080284044
119	0xbd201ce1	-0.03909004
120	0xbc64dc3e	-0.013968525
121	0x3db8a9ed	0.09016786
122	0x3e3c8c63	0.18412928
123	0xbc8649b9	-0.016392576
124	0x3d665aed	0.056239057
125	0x3e406d94	0.187918
126	0xbea217a4	-0.3165866
127	0xbd880469	-0.06641466
128	0xbe4e5cf2	-0.20152643
129	0x3d7d9f65	0.06191959
130	0xbd02740d	-0.031848956
131	0xbd44e95a	-0.048074104
132	0xbe4b7079	-0.19867124
133	0xbe8ac353	-0.27102146
134	0xbd0b2bdc	-0.033977374
135	0x3dfbec74	0.12300959
136	0x3d4c69e9	0.04990569
137	0x3c572c3c	0.013133105
138	0x3debf95c	0.11522171
139	0x3dbed08b	0.0931712
140	0xbd9b0655	-0.07569567
141	0xbd0b0d47	-0.03394821
142	0xbd3b1d64	-0.045682326
143	0x3db6a938	0.08918995
144	0xbe1075a7	-0.14107381
145	0xbe5e4f21	-0.21709873
146	0xbe797a01	-0.24362947
147	0xbd5160c5	-0.051117677
148	0x3cacbd27	0.021086289
149	0x3dbb8ae9	0.091573544
150	0xbe32d723	-0.1746488
151	0xbe8fbc74	-0.28073466
152	0x3d1df779	0.038566086
153	0xbe23c08e	-0.15991423
154	0x3e3fb696	0.18721995
155	0x3dcd2177	0.100161485
156	0xbdd737f4	-0.10508719
157	0x3e04d9b7	0.12973677
158	0xbdead688	-0.114667
159	0x3e4d9c60	0.20079184
160	0x3dd3620a	0.10321434
161	0xbc9cff39	-0.019164668
162	0x3d924bf5	0.07143394
163	0x3e1a9a99	0.15098037
164	0xbe7c5815	-0.24642976
165	0xbe91dab0	-0.28487158
166	0xbdc925bc	-0.098216504
167	0xbdc1dd22	-0.09466006
168	0xbe092ee4	-0.13396794
169	0x3e0d1828	0.13778746
170	0xbe2fd4cf	-0.17171024
171	0xbe9b548c	-0.30337942
172	0xbdcfe812	-0.10151686
173	0x3d3481c1	0.044069055
174	0xbd49a695	-0.04923113
175	0xbd9bfa9a	-0.07616158
176	0x3d290876	0.041267835
177	0xbb931531	-0.00448861
178	0xbe7ad14c	-0.24493903
179	0xbe1b414a	-0.15161625
180	0x3e091a6d	0.13388987
181	0xbe83b273	-0.25722083
182	0x3c52bce2	0.012862416
183	0x3d87807d	0.06616304
184	0xbcac414f	-0.021027235
185	0xbbcc7f60	-0.00624077
186	0xbdbcd5af	-0.092204444
187	0xbaac6bdd	-0.0013154704
188	0xbe4896f6	-0.19588837
189	0x3dd80f5a	0.10549803
190	0xbd9e1ec9	-0.077207156
191	0x3d7b6bbe	0.061382048
192	0x3d350445	0.044193525
193	0xbcdc9863	-0.026928132
194	0x3c434663	0.011918637
195	0xbdc3dd85	-0.09563736
196	0xbd129c31	-0.035793487
197	0x3dbe90f0	0.093049884
198	0xbe8761d2	-0.26441818
199	0x3d964796	0.07337873
200	0x3e558192	0.20850208
201	0xbd555b01	-0.05208874
202	0x3e05b56e	0.13057491
203	0x3e12f856	0.14352545
204	0x3cbb9f73	0.02290318
205	0x3db951d7	0.09048813
206	0x3d0c2f73	0.03422494
207	0xbe167582	-0.14693263
208	0xbe192350	-0.14954877
209	0x3e536a9a	0.20646134
210	0x3e5feade	0.21866938
211	0x3d0d2b13	0.034464907
212	0xbd3241c9	-0.04351977
213	0x3b86303e	0.0040951064
214	0x3d1a647a	0.03769348
215	0x3c7bfae5	0.015379642
216	0x3d03a883	0.032143127
217	0xbb834a23	-0.0040066405
218	0xbdd932fc	-0.106054276
219	0x3dc2ea34	0.09517327
220	0x3bfd3dc5	0.007728311
221	0xbdb0a2ef	-0.08624827
222	0x3d7abe4a	0.06121663
223	0x3dfa9359	0.122351356
224	0xbda01ac1	-0.07817603
225	0xbe2157d9	-0.15756167
226	0x3e8a955a	0.2706707
227	0xbddc31ca	-0.10751684
228	0xbd567da2	-0.052365907
229	0x3a5b9b16	0.00083772966
230	0xbddd1568	-0.107950985
231	0xbe5a9f72	-0.21349886
232	0x3df5bcbe	0.1199889
233	0x3e7ecd2d	0.24882956
234	0x3d0e9d5b	0.034818035
235	0x3bc9b8f5	0.006156082
236	0xbdfb5d06	-0.12273602
237	0x3cc5cfa1	0.024146857
238	0x3e6a305e	0.22870013
239	0x3d394fe1	0.045242194
240	0xbe913b01	-0.2836533
241	0x3a8546c0	0.001016818
242	0xbc8ede79	-0.017440068
243	0x3e28b892	0.16476658
244	0xbdaa0cfd	-0.083032586
245	0xbc761806	-0.015020376
246	0xbe645729	-0.22298874
247	0x3e2c6371	0.16834809
248	0xbdd56c19	-0.104210086
249	0xbd46d009	-0.04853824
250	0xbe37ccb3	-0.1794918
251	0xbd02cfa6	-0.03193631
252	0xbd49db2d	-0.049281288
253	0x3e40e4a7	0.18837224
254	0x3e74a1e7	0.23889886
255	0xbda00475	-0.0781335

lstm.bias_ih_l1 f4 [128]
0	0xbe062f52	-0.13103989
1	0xbe2c143a	-0.16804591
2	0xbe35886c	-0.17727822
3	0xbe5bbb12	-0.2145808
4	0x3dad3d23	0.084589265
5	0xbe234553	-0.15944414
6	0x3d2bf302	0.041979797
7	0x3c38fd25	0.011290823
8	0x3c78dcda	0.015189374
9	0xbe3aa66c	-0.18227547
10	0xbd81be61	-0.0633514
11	0xbe6d3dfd	-0.23168178
12	0xbdc0e15a	-0.094179824
13	0xbe248402	-0.16065982
14	0x3de9dfa0	0.11419606
15	0xbe038b0a	-0.12846008
16	0xbdf919ef	-0.121631496
17	0xbd064a57	-0.03278574
18	0xbe1aa241	-0.15100957
19	0xbc42489e	-0.011858134
20	0xbe5747ca	-0.21023479
21	0x3d62ceec	0.055373117
22	0xbde07d60	-0.109614134
23	0x3d75efc2	0.060043104
24	0xbcec0bbf	-0.028814195
25	0x3b8c4b78	0.0042814575
26	0xbdc722e3	-0.09723451
27	0x3e421529	0.18953384
28	0x3d369e63	0.044584643
29	0xbe1c8e0c	-0.15288562
30	0xbded765b	-0.1159484
31	0xbd4095d4	-0.047017887
32	0xbed313f4	-0.4122616
33	0xbe9ed577	-0.31022236
34	0xbe811d93	-0.25217876
35	0xbf01ee27	-0.50754017
36	0xbeb149a7	-0.34626505
37	0xbec25d65	-0.3796188
38	0xbef1411b	-0.47119984
39	0xbed481e2	-0.41505343
40	0xbf15357b	-0.5828473
41	0xbea8f385	-0.3299829
42	0xbe9812cb	-0.29701838
43	0xbeefc3b8	-0.4682901
44	0xbecb1c53	-0.39670047
45	0xbeba57b4	-0.36395037
46	0x3d466453	0.04843552
47	0xbe0ddc67	-0.13853608
48	0xbe8d8653	-0.27641544
49	0xbeeeccfa	-0.4664076
50	0xbe5a25ed	-0.2130353
51	0xbe5b5a2c	-0.21421117
52	0xbe20d8b4	-0.15707666
53	0xbe33ceab	-0.17559306
54	0xbdb5c623	-0.08875682
55	0xbee6255c	-0.44950378
56	0xbecee536	-0.4040925
57	0xbec26a0d	-0.37971535
58	0xbeda974e	-0.4269356
59	0xbdf3ade8	-0.11898404
60	0xbee0955c	-0.43863952
61	0xbeabfa99	-0.33589628
62	0xbe82ac35	-0.2552201
63	0x3e09c5b5	0.13454325
64	0xbd4efae9	-0.050532255
65	0x3e1c612c	0.15271443
66	0x3d2e2853	0.042518925
67	0xbe1579eb	-0.1459729
68	0xbdf47fb6	-0.119384214
69	0xbda03688	-0.07822901
70	0x3dcc7eed	0.09985147
71	0x3d5ea6d9	0.054358337
72	0xbdd88bd7	-0.10573547
73	0xbcd3ba48	-0.025845662
74	0xbe0c3eae	-0.13695785
75	0x3ce0d643	0.027445918
76	0x3d902518	0.07038325
77	0x3b0cf45d	0.0021507957
78	0xbe0073a4	-0.12544113
79	0x3bd75aa3	0.006572084
80	0xbb90818a	-0.0044099735
81	0x3c7ba156	0.01535829
82	0xbd075b3f	-0.033046003
83	0x3ddcae9c	0.107754916
84	0xbd6158d2	-0.055016346
85	0xbdac28c0	-0.0840621
86	0x3d23e173	0.040009927
87	0xbc7ace53	-0.015307981
88	0x3e18a1f3	0.14905529
89	0xbcc27b17	-0.023740334
90	0x3d29799c	0.04137574
91	0x3e0e0450	0.13868833
92	0xbd36ca5f	-0.04462659
93	0x3db56fd9	0.08859224
94	0xbe229fef	-0.15881322
95	0x3b6673bb	0.0035164196
96	0x3ddb1dfb	0.10699078
97	0xbd6ec2e3	-0.058291327
98	0xbbab1c94	-0.0052219126
99	0xbd884162	-0.06653096
100	0x3e23f1e1	0.16010238
101	0xbc72460d	-0.014787209
102	0x3e38fbbc	0.18064779
103	0x3d1a280c	0.037635848
104	0xbe4d84bc	-0.20070165
105	0xbd0806a6	-0.033209465
106	0x3d089874	0.033348516
107	0x3e43db15	0.19126542
108	0xbdca0844	-0.09864858
109	0x3dea5a74	0.11443034
110	0xbcfa3d0a	-0.030546684
111	0xbe0beabe	-0.13663766
112	0xbe3008d3	-0.17190866
113	0x3d99e18b	0.07513722
114	0xbe048fc6	-0.1294547
115	0xbe54023a	-0.20703974
116	0xbdfecb23	-0.12441089
117	0xbcb64d74	-0.02225373
118	0xbdc1f7e6	-0.09471111
119	0x3d341edf	0.043974753
120	0xbe29d94d	-0.165868
121	0xbe28112a	-0.16412798
122	0x3ddc1246	0.10745673
123	0xbda2855a	-0.07935591
124	0x3d1fe1ca	0.03903369
125	0xbe54aa81	-0.20768167
126	0xbd4df252	-0.050279923
127	0x3d02bffc	0.03192137

lstm.bias_hh_l1 f4 [128]
0	0xbc8c774e	-0.017146733
1	0xbd4f754e	-0.05064898
2	0xbe7c4f3f	-0.24639605
3	0x3bc14f03	0.0058993115
4	0x3d21fdef	0.03954881
5	0xbd032286	-0.032015346
6	0xbe2a8725	-0.16653116
7	0xbe451e56	-0.19249853
8	0xbe26ea1e	-0.16300246
9	0xbdc2b73c	-0.095076054
10	0x3e164fdc	0.14678901
11	0xbe5865f9	-0.2113265
12	0xbd2c6dc6	-0.042096876
13	0xbc4f6dc8	-0.012660451
14	0xbd0a92fe	-0.03383159
15	0xbe93c84f	-0.2886376
16	0x3d5c4ce4	0.053784266
17	0xbe7db20e	-0.24774954
18	0xbe44c5a5	-0.1921602
19	0xbd5a8fbb	-0.05335973
20	0x3d80b3ab	0.06284269
21	0x3daca82b	0.08430513
22	0xbe13f8cd	-0.14450379
23	0xbdbf32ef	-0.09335887
24	0xbe639daf	-0.2222812
25	0xbe2a9f4c	-0.1666233
26	0x3d9749ac	0.07387099
27	0x3e1bf1a5	0.15228899
28	0xbe25ae99	-0.16179885
29	0xbe2d1a73	-0.16904621
30	0x3e3f55d9	0.18685092
31	0x3cbaadca	0.022787947
32	0xbe7b2115	-0.24524339
33	0xbed3be10	-0.41355944
34	0xbeb35426	-0.35025138
35	0xbf05af46	-0.5222057
36	0xbe995efe	-0.29955286
37	0xbea7f9c8	-0.32807755
38	0xbec8d7ec	-0.39227235
39	0xbf0b0253	-0.5430042
40	0xbef77c5e	-0.48337072
41	0xbe7644b2	-0.24049643
42	0xbeeddbb8	-0.46456695
43	0xbec675d3	-0.38761768
44	0xbe16d332	-0.14729002
45	0xbed6901c	-0.41906822
46	0xbdcc851c	-0.09986326
47	0xbddda8fe	-0.10823248
48	0xbed33b30	-0.41256094
49	0xbeccf502	-0.40030676
50	0xbee3bb80	-0.4447899
51	0xbe8f1234	-0.27943575
52	0xbeb4874a	-0.35259467
53	0xbe8faf4b	-0.28063425
54	0xbe200ba6	-0.15629444
55	0xbebd36f2	-0.36955982
56	0xbed5df14	-0.41771758
57	0xbecc4df7	-0.39903232
58	0xbe892edd	-0.26793566
59	0xbe864b94	-0.26229537
60	0xbf0c973e	-0.5491828
61	0xbe57cfa2	-0.210753
62	0xbe1bc110	-0.15210366
63	0x3d556b7d	0.052104462
64	0x3d809d74	0.06280032
65	0xbce4d6e3	-0.027934497
66	0xbdbf3cea	-0.0933779
67	0x3de63461	0.11240459
68	0x3d6104ff	0.054936405
69	0x3db55486	0.08854012
70	0xbda82b50	-0.08211386
71	0x3ce003e8	0.027345613
72	0x3dfc4649	0.12318093
73	0x3d35aaaa	0.04435221
74	0x3d5bee7b	0.05369423
75	0x3d6b61c5	0.057466287
76	0xbd9557de	-0.0729215
77	0x3d68348d	0.05669074
78	0x3e1558b8	0.14584625
79	0x3c748965	0.0149253355
80	0x3dc6fa31	0.09715689
81	0xbd22b1f4	-0.03972049
82	0x3d757148	0.059922487
83	0xbd8581b4	-0.065188795
84	0xbc40c894	-0.011766572
85	0x3ded6ead	0.11593375
86	0x3b2e0a4e	0.0026556435
87	0x3d589a2b	0.0528814
88	0xbd295601	-0.041341785
89	0xbcd2e7a6	-0.025745224
90	0x3d6b43ab	0.05743758
91	0xbd951c5d	-0.072808005
92	0x3d0b611c	0.034028158
93	0xbda05f78	-0.07830709
94	0x3cf0cc84	0.029394396
95	0x3bbbef60	0.005735323
96	0xbe62c67f	-0.22146033
97	0x3c162603	0.009164336
98	0xbda4e275	-0.08051006
99	0xbc9cecef	-0.019155947
100	0x3e0a4519	0.13502921
101	0xbd221b8d	-0.039577056
102	0x3e633bce	0.22190782
103	0xbe3d429a	-0.18482438
104	0xbdf6ed35	-0.120569624
105	0x3d351ca7	0.044216778
106	0x3e0e336a	0.138868
107	0x3e25e9a8	0.16202414
108	0xbd5b462b	-0.053533714
109	0x3da9dafe	0.082937226
110	0x3e47addc	0.19499916
111	0xbe6d802c	-0.23193425
112	0xbe3bb003	-0.18328862
113	0x3e2bee38	0.16790092
114	0xbdfe9cf6	-0.12432282
115	0xbe2fa0d8	-0.17151201
116	0xbe00a775	-0.1256388
117	0x3e1f5574	0.15559942
118	0xbd00a53b	-0.031407576
119	0xbe2a4bad	-0.1663043
120	0xbd9262eb	-0.07147773
121	0x3c05da71	0.008169756
122	0xbce6ca2c	-0.028172575
123	0xbde3fe41	-0.111324795
124	0xbd851761	-0.064986
125	0x3cbfc31b	0.023408463
126	0x3d958af6	0.07301895
127	0xbd15fcca	-0.03661803

lstm.weight_ih_l2 f4 [128, 32]
0	0xbe92cd40	-0.28672218
1	0x3e9c3a78	0.30513358
2	0x3c219b5a	0.009863699
3	0x3d04ff15	0.032469828
4	0xbda781c6	-0.08179049
5	0xbc7d1400	-0.015446663
6	0x3e7bf2e3	0.24604373
7	0x3e44bde3	0.19213061
8	0x3eec9b3a	0.46212178
9	0x3ef7282b	0.48272833
10	0xbd1b695a	-0.037942268
11	0x3e45b1fd	0.19306178
12	0xbe01f3b0	-0.12690616
13	0xbd1b8a47	-0.03797367
14	0xbe5a1945	-0.21298702
15	0x39deadbb	0.0004247258
16	0xbe28fdf7	-0.1650313
17	0xbe99480e	-0.29937786
18	0xbd87ba61	-0.06627346
19	0x3d7ee89c	0.062233552
20	0x3dce5682	0.10075094
21	0xbdef23a8	-0.11676723
22	0xbcf477fb	-0.029842367
23	0xbdd8ec42	-0.105919376
24	0xbe6167fb	-0.22012322
25	0x3d5ef053	0.05442841
26	0x3e9d728c	0.30751455
27	0x3cfd3566	0.030909251
28	0x3bf187a3	0.0073709055
29	0xbddaaf88	-0.10678011
30	0xbeacaabc	-0.3372401
31	0xbdcc7a32	-0.099842444
32	0xbeb5a699	-0.35478666
33	0x3dc2601a	0.09490986
34	0xbd165dc9	-0.036710534
35	0xbe1365f4	-0.14394361
36	0xbc4422fc	-0.011971232
37	0x3e32a217	0.17444645
38	0x3e9bfa1d	0.3046426
39	0xbe811ed6	-0.25218838
40	0x3eb0a575	0.34501234
41	0x3ed84a3c	0.42244136
42	0xbe94cc54	-0.2906214
43	0xbde8c5c5	-0.113658465
44	0xbf0d67f9	-0.55236775
45	0xbed6da1f	-0.41963288
46	0x3f0362ab	0.5132243
47	0x3f183a3e	0.5946387
48	0xbde355a5	-0.1110032
49	0x3e866dd3	0.26255664
50	0x3e4d898c	0.20072001
51	0x3e87da31	0.26533654
52	0xbe15a8e3	-0.14615206
53	0xbd3bca8f	-0.04584747
54	0x3db7efdf	0.08981299
55	0x3e8d1105	0.27552047
56	0xbe0bd112	-0.13653973
57	0x3ef84bd5	0.48495355
58	0xbc2b9e81	-0.010474802
59	0xbe9a7d1e	-0.30173582
60	0x3b937e7c	0.004501162
61	0xbca3c228	-0.019990042
62	0x3e13f1b9	0.14447679
63	0xbeea078d	-0.45708886
64	0x3e0b069f	0.13576744
65	0x3ea2f80a	0.31829864
66	0x3cb380f6	0.02191208
67	0x3e9ff3a9	0.31240585
68	0xbe8c1ae8	-0.27364278
69	0xbef4c15b	-0.4780377
70	0x3c304669	0.010758975
71	0x3814c9c7	3.547387e-05
72	0xbe5acf92	-0.21368244
73	0x3f5986e1	0.84971434
74	0xbe8ce7b1	-0.27520517
75	0xbecb4a22	-0.39704996
76	0xbf4a9c0e	-0.7914437
77	0xbf0ac144	-0.5420115
78	0x3eee1051	0.46496823
79	0x3db7b8d2	0.089707986
80	0x3e732ba3	0.23747115
81	0xbe7a2d06	-0.24431238
82	0xbe24e4b0	-0.16102862
83	0x3d5846ce	0.0528019
84	0x3e6edf4c	0.23327368
85	0xbd4577d9	-0.04821
86	0xbed16026	-0.40893668
87	0x3f1c9c60	0.6117611
88	0xbf390776	-0.7227701
89	0x3f2043cf	0.6260347
90	0x3e393357	0.18085991
91	0xbf29efcb	-0.6638152
92	0xbe52191c	-0.20517391
93	0x3e90bd62	0.28269488
94	0x3dac99d5	0.08427779
95	0xbe83c1f4	-0.25733912
96	0xbe522641	-0.20522405
97	0x3daad9f8	0.083423555
98	0x3e11077c	0.14163011
99	0xbeae637b	-0.34060273
100	0x3ea10fb9	0.31457308
101	0xbe9060d5	-0.28198877
102	0x3ecea956	0.40363568
103	0xbe43795a	-0.1908926
104	0x3e99d19f	0.3004274
105	0x3e86bde0	0.26316738
106	0x3d3a02ad	0.045412708
107	0x3df0a95c	0.11751053
108	0xbe227423	-0.15864615
109	0xbe4f915b	-0.20270292
110	0xbe477d41	-0.19481374
111	0x3cc8c7df	0.024509368
112	0xbe039892	-0.1285117
113	0x3df93945	0.121691264
114	0xbe13fe55	-0.14452489
115	0x3d7f53c4	0.062335745
116	0xbeaf1466	-0.3419525
117	0x3e92fad0	0.2870698
118	0xbeb94316	-0.36183995
119	0xbdc4c884	-0.09608558
120	0xbda02d4b	-0.07821139
121	0xbd14483c	-0.0362017
122	0xbecbfdbb	-0.39842018
123	0xbe4a327f	-0.19745825
124	0x3d7d4166	0.061829947
125	0x3e3f82fc	0.1870231
126	0xbe42aed9	-0.19012012
127	0x3db02445	0.08600668
128	0xbe1837b8	-0.14865005
129	0x3cf7a363	0.030229276
130	0xbcc36145	-0.023850093
131	0xbdeece42	-0.11660434
132	0xbd33eb8c	-0.043925807
133	0xbcc0eb4f	-0.023549704
134	0x3e175368	0.1477791
135	0x3b727959	0.0036998598
136	0x3dd9aeae	0.10629021
137	0x3e09385a	0.13400403
138	0xbd711140	-0.05885434
139	0x3db2c8cb	0.087297045
140	0x3de2fbf9	0.11083216
141	0x3d56aa4e	0.05240851
142	0x3d5c0cb7	0.053723063
143	0x3ddd4e7c	0.10805985
144	0x3e4f28bb	0.20230381
145	0xbcdecba0	-0.027196705
146	0x3e73ab7b	0.23795883
147	0x3eb7b47a	0.3587988
148	0x3e0361f1	0.1283033
149	0xbe0f4706	-0.13991937
150	0x3e821504	0.2540666
151	0xbdca6a15	-0.09883515
152	0xbe040301	-0.12891771
153	0x3d862926	0.06550817
154	0xbc523968	-0.0128310695
155	0xbe3bcfdf	-0.18341015
156	0xbd71a54c	-0.05899553
157	0xbd8ba58a	-0.068186834
158	0xbdc2c88f	-0.0951091
159	0xbe34f795	-0.1767257
160	0x3d1ac5f1	0.037786428
161	0xbe718b24	-0.23588234
162	0xbc6d84f9	-0.014497035
163	0xbe1111e2	-0.14166978
164	0xbe940874	-0.289127
165	0x3eef786c	0.46771562
166	0x3e7795f6	0.241783
167	0xbd546312	-0.051852293
168	0x3eb4895b	0.35261044
169	0x3b02ef6d	0.0019979135
170	0xbe7b782b	-0.24557559
171	0x3df16b74	0.11788073
172	0xbe2d9af2	-0.16953638
173	0xbc7ca25a	-0.015419567
174	0x3f058d34	0.52168584
175	0x3e1128fb	0.14175789
176	0x3df08924	0.117449075
177	0x3edef444	0.43545735
178	0x3e955b55	0.29171243
179	0xbe0a327b	-0.1349582
180	0x3e0e1456	0.13874945
181	0xbce27e62	-0.027648155
182	0xbb731f8b	-0.0037097658
183	0x3da4ceb0	0.08047235
184	0xbdacdaf6	-0.08440201
185	0x3d426341	0.047457937
186	0x3d82492a	0.06361611
187	0xbe13250b	-0.143696
188	0xbe37eb2b	-0.17960803
189	0xbed2c2b3	-0.4116417
190	0xbe826ff2	-0.25476032
191	0xbf093924	-0.53602815
192	0xbdd880e7	-0.10571461
193	0x3e852e8d	0.26012078
194	0xbe05442c	-0.13014287
195	0x3da1fd25	0.079096116
196	0xbd565fbd	-0.052337397
197	0x3eaaaae4	0.33333504
198	0x3f06ff51	0.5273333
199	0x3e7e6204	0.24842077
200	0x3c9459bc	0.018109195
201	0xbc7d8ae7	-0.015475011
202	0xbe415c7b	-0.18882935
203	0x3efa4052	0.48877198
204	0x3d934c34	0.07192269
205	0xbd36bc7d	-0.04461335
206	0x3ed2f672	0.41203648
207	0x3e49f29f	0.19721459
208	0xbd3dd1d6	-0.046342693
209	0x3ef0a038	0.46997237
210	0xbd741cb6	-0.059597693
211	0x3e67db75	0.2264231
212	0x3ea7cc87	0.3277323
213	0xbd380552	-0.04492695
214	0x3e124203	0.14282994
215	0xbd3df304	-0.046374336
216	0x3df6c210	0.12048733
217	0xbc81bf20	-0.015838206
218	0x3edcd7d2	0.43133408
219	0x3dd3d495	0.10343281
220	0xbe176c8a	-0.14787498
221	0xbea6ce1d	-0.32579127
222	0xbe9a9055	-0.30188242
223	0xbeabf7b5	-0.33587423
224	0x3e21df9b	0.15807955
225	0xbdd8b221	-0.105808504
226	0x3eb666ed	0.356254
227	0xbe55eedf	-0.20891903
228	0xbd000996	-0.03125914
229	0x3ef5e92e	0.48029464
230	0xbd001525	-0.031270165
231	0xbdf66f31	-0.12032927
232	0xbe0f6fbd	-0.14007469
233	0xbc42a2fb	-0.011879678
234	0xbe32dedc	-0.17467827
235	0xbdea676b	-0.11445507
236	0xbe56505a	-0.20929089
237	0xbe099d31	-0.1343887
238	0x3e06d787	0.13168155
239	0xbecab245	-0.39589134
240	0xbe0938f3	-0.1340063
241	0x3f2f1787	0.68395275
242	0x3e959be7	0.29220507
243	0x3c2cc7a3	0.010545644
244	0xbdeb4763	-0.11488225
245	0xbe25d0e9	-0.16192974
246	0x3e42bd7b	0.19017594
247	0xbc95f21c	-0.018303923
248	0xbc84f830	-0.016231626
249	0x3db669f4	0.08906928
250	0xbd940120	-0.07226777
251	0xbdbc955b	-0.09208175
252	0xbdd37f1f	-0.10326981
253	0xbe9bbbfa	-0.30416852
254	0x3dd46ca1	0.10372282
255	0xbef14d5b	-0.4712933
