model_params/full_model.pth (torch, 99768 bytes, 17 tensors)

lstm.weight_ih_l0 f4 [128, 7]
-0.072084665 0.009400892 -0.29991406 0.0038044553 -0.17146945 -0.030213408 -0.09953166 -0.10042206
0.12158459 0.08921234 -0.30482462 0.01221087 -0.21090892 0.30771762 0.21892709 0.33427277
-0.27514637 0.077576526 0.17231299 0.3917872 0.1179496 0.06642089 -0.08087988 0.14669137
0.03560298 0.18358156 -0.06489762 -0.10938678 -0.031900443 -0.14063184 0.50956184 0.22391263
-0.053723484 -0.030793501 -0.17531006 -0.039170235 -0.008176242 0.018599356 -0.11830731 0.0705991
0.1582176 -0.09680431 0.06890833 0.2469515 -0.16154395 0.30351645 0.30348453 -0.02828002
0.12974888 0.26004443 -0.151623 0.14981517 0.21682125 -0.04388768 -0.048789013 -0.30921125
-0.027990777 -0.11605082 0.4043309 -0.083168834 -0.19132408 -0.13765886 -0.32995886 -0.08483981
0.052603465 0.935822 -0.11430567 0.011031102 -0.069873504 -0.0859326 -0.108379655 0.17039299
0.0105545325 -0.05501954 0.35419524 0.006862155 0.17288207 -0.045843355 0.07505807 -0.060244847
-0.19346176 -0.03214668 -0.18444759 0.11277199 -0.1972856 -0.0018774668 -0.14423215 -0.2640235
0.081396595 0.0131826615 0.071649 0.060129676 0.044933815 -0.047767058 0.028740242 0.0238767
-0.0715825 0.29778054 0.18280268 0.12110564 0.12198562 0.03457529 0.16833869 0.38320708
-0.1294483 -0.0300298 0.11214168 0.103527114 0.24217066 0.3497922 0.0770641 -0.1783785
0.06310235 -0.20956226 0.6591455 0.25237897 -0.19375786 -0.18063979 0.05926529 -0.067488074
-0.23579966 0.28480947 -0.083574854 -0.23268506 -0.09883401 -0.08157299 -0.08316969 0.0063601523
-0.22773288 0.1597581 -0.05403012 0.031467278 -0.10997785 -0.12537625 -0.18941085 0.28414863
-0.042096466 -0.37737262 0.16202812 -0.31118497 -0.16512416 -0.07842922 -0.13492168 0.055052646
-0.066484205 0.29066795 -0.33612698 0.18499161 -0.011691536 0.21571581 -0.08692965 -0.25228143
-0.084293276 -0.14903508 0.17747295 -0.111374855 0.8890012 0.17584203 -0.052888103 -0.03134579
0.029546233 -0.13570909 0.107785456 0.5521625 -0.1600685 0.054449055 -0.1992851 0.14404187
0.20092094 -0.055457488 -0.2860622 -0.07127002 -0.009565213 0.025388153 0.22019967 -0.11674403
-0.055827305 0.17824198 0.036372576 -0.049263597 0.04907482 0.19397666 -0.13516833 0.20937075
0.15733282 -0.1608454 0.36362082 -0.14428659 0.1739186 0.12237575 0.06769804 -0.49659657
0.11610538 0.05453268 0.12718794 0.31836325 -0.13508932 0.14436506 -0.2786385 -0.20948094
0.08116665 -0.3056092 0.16782095 0.07840841 -0.024025096 0.117477864 0.25159052 -0.24952385
-0.21257074 0.22752963 -0.022521216 0.19788627 0.6970595 -0.16619584 0.10198332 -0.013250114
-0.18226194 -0.13247421 -0.026087176 -0.022725005 -0.36202502 -0.24762844 0.094182275 0.1416683
0.21367422 0.25065255 -0.23550135 0.24754213 0.08823921 -0.0744412 0.06384783 0.17221993
0.001814662 0.21888195 0.09135433 -0.048721734 -0.0013806033 -0.13748996 -0.32941988 -0.09594885
-0.13110165 -0.5426828 -0.07634021 -0.50837445 0.0072649075 0.021479405 0.070771515 -0.3639256
0.2299393 -0.00517544 -0.16522636 -0.15692204 0.31776097 0.03477771 -0.35200807 0.062472966
00000000: 20a1 93bd 3306 1a3c 568e 99be 2b54 793b
00000010: b095 2fbe 1c82 f7bc 41d7 cbbd 15aa cdbd
00000020: 5701 f93d f6b4 b63d f911 9cbe 1a10 483c
00000030: 82f8 57be 2a8d 9d3e 6c2e 603e cd25 ab3e
00000040: fcdf 8cbe 71e0 9e3d d172 303e 5598 c83e
00000050: 8f8f f13d ad07 883d 5aa4 a5bd 4336 163e
00000060: 6ed4 113d cefc 3b3e 0be9 84bd 2d06 e0bd
00000070: 0aaa 02bd cb01 10be a572 023f 5a49 653e
00000080: 280d 5cbd a742 fcbc 7b84 33be f870 20bd
00000090: a5f5 05bc ad5d 983c 1a4b f2bd 4396 903d
000000a0: cb03 223e 5741 c6bd cf1f 8d3d dbe0 7c3e
000000b0: c76b 25be 8266 9b3e 5362 9b3e 80ab e7bc
000000c0: e4dc 043e 8b24 853e 0f43 1bbe 2669 193e
000000d0: 6406 5e3e 91c3 33bd fdd6 47bd f050 9ebe
000000e0: ea4c e5bc 0dac edbd 7604 cf3e 6c54 aabd
000000f0: 76ea 43be 72f6 0cbe 5ef0 a8be 7fc0 adbd
00000100: bb76 573d 0892 6f3f 1719 eabd ccbb 343c
00000110: d719 8fbd 6efd afbd 27f6 ddbd 807b 2e3e
00000120: ebec 2c3c 2b5c 61bd 1459 b53e eedb e03b
00000130: ff07 313e 3ec6 3bbd 0cb8 993d 4dc3 76bd
00000140: d71a 46be 3dac 03bd d4df 3cbe 00f5 e63d
00000150: 3c05 4abe 5515 f6ba 98b1 13be 172e 87be
00000160: 42b3 a63d 17fc 573c b6bc 923d 894a 763d
00000170: 850c 383d 64a7 43bd a870 eb3c 1299 c33c
00000180: d999 92bd b176 983e a030 3b3e 3c06 f83d
00000190: 99d3 f93d d29e 0d3d fa60 2c3e b833 c43e
000001a0: 188e 04be 0e01 f6bc 8aaa e53d 0606 d43d
000001b0: 96fb 773e f717 b33e c8d3 9d3d daa8 36be
000001c0: ce3b 813d 7d97 56be c2bd 283f d137 813e
000001d0: 7668 46be a3f9 38be 29c0 723d 3037 8abd
000001e0: 7775 71be 8cd2 913e 4b29 abbd fe44 6ebe
000001f0: 7c69 cabd bd0f a7bd df54 aabd d368 d03b
00000200: cf32 69be a197 233e b04e 5dbd d5e3 003d
00000210: 113c e1bd a262 00be ebf4 41be ee7b 913e
00000220: 586d 2cbd fc36 c1be b3ea 253e a353 9fbe
00000230: 4f16 29be 809f a0bd e928 0abe e27e 613d
00000240: df28 88bd 6ed2 943e d618 acbe 716e 3d3e
00000250: db8d 3fbc 9be4 5c3e 2c08 b2bd 082b 81be
00000260: f4a1 acbd a79c 18be 78bb 353e 8018 e4bd
00000270: 9595 633f ef0f 343e 32a1 58bd 7164 00bd
00000280: f10a f23c 53f7 0abe 9fbe dc3d 865a 0d3f
00000290: ffe8 23be f905 5f3d 6511 4cbe b67f 133e
000002a0: 38be 4d3e 6427 63bd bf76 92be 04f6 91bd
000002b0: 69b7 1cbc d1fa cf3c 067c 613e 7e17 efbd
000002c0: 2cab 64bd 1185 363e 69fb 143d a0c8 49bd
000002d0: ae02 493d d1a1 463e 9169 0abe 4965 563e
000002e0: db1b 213e a8b4 24be 822c ba3e ddbf 13be
000002f0: b817 323e 23a0 fa3d 45a5 8a3d e841 febe
00000300: a8c8 ed3d a95d 5f3d 8e3d 023e 8200 a33e
00000310: db54 0abe 6fd4 133e b5a9 8ebe 2c82 56be
00000320: b33a a63d cf78 9cbe 41d9 2b3e 9794 a03d
00000330: 47d0 c4bc 3c98 f03d 79d0 803e 2e83 7fbe
00000340: 25ac 59be 87fd 683e 6a7e b8bc b3a2 4a3e
00000350: 7e72 323f 3e2f 2abe a2dc d03d 0217 59bc
00000360: e0a2 3abe 52a7 07be c6b4 d5bc ca29 babc
00000370: 585b b9be 4f92 7dbe a3e2 c03d 7f11 113e
00000380: 6acd 5a3e 8855 803e 4427 71be af7b 7d3e
00000390: c2b6 b43d a174 98bd a7c2 823d 6c5a 303e
000003a0: f4d9 ed3a 9722 603e fb17 bb3d 7190 47bd
000003b0: 5cf5 b4ba 2bca 0cbe b9a9 a8be d580 c4bd
000003c0: 833f 06be 43ed 0abf 4258 9cbd d424 02bf
000003d0: 760e ee3b 94f5 af3c a8f0 903d 7554 babe
000003e0: 3575 6b3e bd96 a9bb 1931 29be 2cb0 20be
000003f0: 91b1 a23e 1273 0e3d 673a b4be a7e3 7f3d

lstm.weight_hh_l0 f4 [128, 32]
-0.007570301 -0.2290078 -0.07550384 0.07997643 -0.5066152 0.26701373 -0.58144987 -0.45186687
-0.3017227 0.19301772 0.07341542 0.17771518 0.004663021 0.13429146 -0.04195494 0.3969028
0.035223622 -0.5984904 0.0010304285 -0.5620868 -0.14415386 -0.007872667 0.060979247 -0.12566955
0.17488301 0.19112723 -0.17515506 -0.31724995 0.30269444 0.30249858 0.10914942 -0.5789072
-0.2666051 -0.06510233 -0.30168343 0.32312903 0.22626024 0.073404916 0.2850626 0.26957804
0.16898784 0.40863073 0.03996594 -0.18516295 0.17947018 -0.23187728 0.5985217 -0.34779105
0.3346718 0.07456198 0.5446172 -0.14557524 0.14323838 -0.1586021 0.4572602 -0.00864476
0.21629883 0.5995367 0.08949585 0.041639075 -0.0037686946 0.17339677 0.18881069 0.07780971
0.02323518 0.1944186 0.10795474 0.17284542 -0.1147993 -0.3277582 -0.14255822 0.026618885
0.30850852 -0.048384868 -0.019637216 0.0914138 0.14343402 -0.20964493 0.26371914 0.14627032
-0.554146 -0.0377563 -0.5054094 -0.028624918 -0.025756257 -0.1965499 -0.013740729 0.009501109
0.05498685 -0.28719345 0.32853496 -0.53278464 0.08876714 -0.11116257 -0.23976673 -0.23722596
-0.048506122 0.32126033 0.41968173 -0.017529681 0.07427768 -0.066336334 -0.18786193 -0.35502297
-0.2348746 0.10829707 -0.26468742 -0.16103637 -0.031560738 0.022520944 -0.26751855 0.005446881
-0.058666486 -0.038976163 0.4198868 0.3880802 -0.071642615 0.37203777 -0.4493979 -0.20603986
-0.09380677 0.17743231 0.11094354 -0.033704 0.094395526 0.16960086 0.05783557 0.24991687
0.070230484 0.26013568 0.08635651 0.13336769 -0.20845182 0.31955135 -0.38218695 0.040864512
0.11235865 -0.035903465 -0.19277468 0.17683847 0.1764453 0.26948366 0.38448408 -0.4054033
-0.044099748 -0.075653315 0.29274973 -0.4198896 -0.07355953 0.29593298 -0.008033348 -0.5833455
-0.15755372 0.25407955 0.48969325 0.23673841 -0.5779146 0.24442908 -0.27625427 -0.18521492
-0.6182112 -0.18972664 -0.26257974 0.28358996 0.18444043 0.09577369 -0.43694595 0.098916195
0.030201465 0.21886805 0.055366665 0.1857647 0.15095703 -0.43259603 0.6748496 -0.25062513
0.10571074 -0.19143774 -0.20905894 0.1503469 0.25685856 -0.31627297 0.12483166 0.5441721
0.40149945 0.17532617 0.029664982 -0.0014248192 0.27386013 0.14092062 0.2211836 -0.476416
0.025749214 0.1080385 -0.4502711 0.11795428 -0.17272674 -0.21484467 0.16424347 -0.04347756
-0.047475435 -0.33881003 -0.2477104 0.059476715 0.10627139 -0.066650465 0.042446706 -0.3485789
0.0062891194 -0.066168636 0.3036198 -0.070682675 -0.05069694 0.15187529 0.11053213 0.03684825
-0.18982822 0.25570986 0.39944687 0.3103417 -0.19620606 -0.10088159 0.0048847296 -0.05417705
0.11974865 -0.01698657 -0.4067904 -0.15318683 -0.10965899 0.04802697 0.434793 -0.1469508
0.28529724 -0.21302266 -0.30054158 -0.3510856 -0.10169406 0.50617 -0.58060384 -0.19571221
-0.18844694 -0.10786181 0.077107646 0.11203926 0.16602142 0.34188783 0.09055131 -0.14000438
-0.13333817 -0.16091028 0.11830008 0.33893895 -0.023432449 0.059352376 0.22990607 0.41850924
00000000: 4a10 f8bb 0581 6abe c2a1 9abd afca a33d
00000010: 89b1 01bf 06b6 883e e6d9 14bf 185b e7be
00000020: 667b 9abe 70a6 453e d35a 963d f8fa 353e
00000030: 41cc 983b b383 093e f1d8 2bbd d836 cb3e
00000040: a546 103d ab36 19bf 710f 873a ece4 0fbf
00000050: 129d 13be 5cfc 00bc 60c5 793d 85af 00be
00000060: 8814 333e dbb6 433e d95b 33be 966e a2be
00000070: c4fa 9a3e 18e1 9a3e bb89 df3d 4333 14bf
00000080: 7780 88be 5f54 85bd 4076 9abe 2b71 a53e
00000090: c4b0 673e 5155 963d baf3 913e 2206 8a3e
000000a0: 260b 2d3e 0c38 d13e 53b3 233d 5b9b 3dbe
000000b0: 08c7 373e 3d71 6dbe b838 193f ab11 b2be
000000c0: 1a5a ab3e f4b3 983d 086c 0b3f ad11 15be
000000d0: 15ad 123e 9768 22be 021e ea3e c0a2 0dbc
000000e0: 717d 5d3e 3d7b 193f 9a49 b73d bc8d 2a3d
000000f0: 34fc 76bb ec8e 313e 9757 413e b25a 9f3d
00000100: b457 be3c ab15 473e 6017 dd3d 64fe 303e
00000110: e51b ebbd eccf a7be c8fa 11be d90f da3c
00000120: d4f4 9d3e 362f 46bd 3ade a0bc 2937 bb3d
00000130: 5ee0 123e 29ad 56be 3206 873e e3c7 153e
00000140: 83dc 0dbf 5aa6 1abd 8362 01bf ce7e eabc
00000150: c9fe d2bc 6144 49be cb20 61bc 8aaa 1b3c
00000160: e439 613d 050b 93be bc35 a83e 9364 08bf
00000170: 8ccb b53d 34a9 e3bd 6985 75be 5deb 72be
00000180: 5bae 46bd 3c7c a43e 86e0 d63e 689a 8fbc
00000190: e51e 983d 58db 87bd e15e 40be 92c5 b5be
000001a0: f882 70be dbca dd3d 1c85 87be b8e6 24be
000001b0: d545 01bd d87d b83c 31f8 88be c07b b23b
000001c0: 454c 70bd 78a5 1fbd 67fb d63e 73b2 c63e
000001d0: 5db9 92bd bc7b be3e 7b17 e6be 1dfc 52be
000001e0: c41d c0bd d1b0 353e 5e36 e33d 350d 0abd
000001f0: 7152 c13d d9ab 2d3e fee4 6c3d 35ea 7f3e
00000200: 00d5 8f3d 8130 853e afdb b03d 8a91 083e
00000210: 6574 55be 3c9c a33e 02ae c3be 8c61 273d
00000220: 4b1c e63d 830f 13bd ba66 45be 2515 353e
00000230: 14ae 343e c3f9 893e 19db c43e 0591 cfbe
00000240: f0a1 34bd 20f0 9abd 4be3 953e c5fb d6be
00000250: 61a6 96bd 8784 973e 4e9e 03bc 2156 15bf
00000260: c355 21be b716 823e 13b9 fa3e 8e6b 723e
00000270: 36f2 13bf 9e4b 7a3e 3371 8dbe fba8 3dbe
00000280: 1743 1ebf b347 42be da70 86be b432 913e
00000290: f4dd 3c3e ff24 c43d 61b7 dfbe 9394 ca3d
000002a0: 1069 f73c f21e 603e 28c8 623d 1a39 3e3e
000002b0: 7b94 1a3e 3a7d ddbe f2c2 2c3f f051 80be
000002c0: df7e d83d 4108 44be 8c13 56be 8af4 193e
000002d0: f782 833e 88ee a1be bea7 ff3d dd4e 0b3f
000002e0: 5691 cd3e b488 333e fa03 f33c 00c1 baba
000002f0: 6537 8c3e 7f4d 103e f47d 623e ccec f3be
00000300: 04f0 d23c 4a43 dd3d ef89 e6be 0392 f13d
00000310: 47df 30be 3e00 5cbe 712f 283e 8715 32bd
00000320: 9a75 42bd 8278 adbe cca7 7dbe db9d 733d
00000330: d1a4 d93d 0a80 88bd 99dc 2d3d ef78 b2be
00000340: f514 ce3b 6c83 87bd 0e74 9b3e 14c2 90bd
00000350: 98a7 4fbd 3285 1b3e ab5e e23d 31ee 163d
00000360: 5462 42be 67ec 823e 4d84 cc3e 1be5 9e3e
00000370: 3eea 48be 029b cebd 1510 a03b c1e8 5dbd
00000380: c83e f53d 6b27 8bbc d546 d0be 02dd 1cbe
00000390: e494 e0bd eeb7 443d 309d de3e 457a 16be
000003a0: 7b12 923e 9d22 5abe 96e0 99be 7ec1 b3be
000003b0: fa44 d0bd 5b94 013f 74a2 14bf c868 48be
000003c0: 3cf8 40be a7e6 dcbd 9dea 9d3d d774 e53d
000003d0: 8501 2a3e ec0b af3e f772 b93d 4f5d 0fbe
000003e0: cd89 08be aac5 24be 5047 f23d 6889 ad3e
000003f0: 68f5 bfbc 7a1b 733d 7f6c 6b3e d846 d63e

lstm.bias_ih_l0 f4 [128]
0.18734463 0.06808534 -0.16623382 0.36344334 0.01081861 -0.05429403 0.18403123 0.5357804
0.20795397 0.84098077 0.1008771 0.26958954 0.2428439 -0.0007818554 0.24832894 0.031154593
0.20928617 -0.06056799 0.43431637 -0.2879734 0.11168633 0.06683647 0.77581596 0.60125387
-0.053844362 0.40588734 0.106839664 0.121460475 -0.2998227 0.19519569 0.35614598 0.1831791
0.12323454 -0.03705086 0.42544383 -0.26038054 -0.21818687 0.32360423 -0.46791613 -0.32032645
-0.07674263 -0.057710186 0.13371623 0.18696244 -0.03195764 0.18181586 -0.09263734 0.019928595
-0.5123785 -0.5837848 0.27228743 0.044510588 -0.24863072 0.21312198 -0.61740965 -0.5873344
0.3479416 -0.18683204 -0.0125140855 0.16423768 0.34830484 -0.64895993 -0.067306735 -0.061129633
-0.12747288 -0.022713637 0.20052034 -0.010961862 -0.2452292 0.02214277 0.08665947 -0.27213624
0.331513 0.11600461 -0.4435935 -0.3986183 0.24797747 -0.10239329 -0.22894272 -0.25634432
-0.27590325 0.161472 0.1985349 0.118708 0.032826122 0.06762933 0.101990595 -0.20174484
-0.15424702 0.14668402 0.35227394 0.2749063 0.26538837 0.13519321 0.060883265 0.2533548
0.5201866 0.06633416 0.23122078 0.39383093 0.20605548 0.30665874 0.24342598 0.5655545
0.25295442 0.8860793 0.3949885 0.49109638 0.3344377 0.35389048 0.22967657 0.44277626
0.22784494 0.064596444 0.26843023 0.14376327 0.24476463 0.3520473 0.90905297 0.5940397
0.041339554 0.36130553 0.2195039 0.32952145 0.2352134 0.30372584 0.23342271 0.13224852
00000000: 45d7 3f3e 5470 8b3d 3339 2abe 3f15 ba3e
00000010: 8a40 313c 6b63 5ebd af72 3c3e e728 093f
00000020: e3f1 543e 844a 573f a798 ce3d a407 8a3e
00000030: 12ac 783e 6df5 4cba f149 7e3e eb37 ff3c
00000040: 1d4f 563e 2416 78bd b75e de3e 4071 93be
00000050: cdbb e43d 8fe1 883d e09b 463f c6eb 193f
00000060: e88b 5cbd 77d0 cf3e c1ce da3d 45c0 f83d
00000070: 5c82 99be 61e1 473e c458 b63e 4d93 3b3e
00000080: 6462 fc3d a4c2 17bd c6d3 d93e 9950 85be
00000090: 616c 5fbe 74af a53e b492 efbe d401 a4be
000000a0: 3d2b 9dbd 8461 6cbd e8ec 083e 1573 3f3e
000000b0: 04e6 02bd f02d 3a3e a5b8 bdbd 4b41 a33c
000000c0: 3d2b 03bf ec72 15bf 4269 8b3e bc50 363d
000000d0: 0d99 7ebe a63c 5a3e 8f0e 1ebf 8c5b 16bf
000000e0: 6725 b23e e650 3fbe e107 4dbc ec2d 283e
000000f0: 0355 b23e 3d22 26bf 1dd8 89bd 1163 7abd
00000100: 4088 02be f311 babc 3455 4d3e 6299 33bc
00000110: 5d1d 7bbe c164 b53c 857a b13d 7155 8bbe
00000120: 12bc a93e d393 ed3d b01e e3be b317 ccbe
00000130: ceed 7d3e 93b3 d1bd f66f 6abe 903f 83be
00000140: 3143 8dbe ea58 253e bc4c 4b3e 2e1d f33d
00000150: af74 063d 3f81 8a3d 72e0 d03d 3396 4ebe
00000160: eef2 1dbe 5634 163e 405d b43e 85c0 8c3e
00000170: fce0 873e 1770 0a3e bb60 793d b8b7 813e
00000180: f32a 053f 34da 873d 24c5 6c3e 35a4 c93e
00000190: 3500 533e 6002 9d3e a944 793e 2ec8 103f
000001a0: 3e83 813e 18d6 623f ef3b ca3e fc70 fb3e
000001b0: 6b3b ab3e 2231 b53e 5630 6b3e 92b3 e23e
000001c0: 2f50 693e 244b 843d b06f 893e ae36 133e
000001d0: 94a3 7a3e 8b3f b43e b2b7 683f fc12 183f
000001e0: aa53 293d 0afd b83e a1c5 603e 09b7 a83e
000001f0: c8db 703e f481 9b3e 5d06 6f3e 286c 073e

lstm.bias_hh_l0 f4 [128]
0.040166795 -0.13790911 -0.39339125 0.4728047 0.15266666 0.04011309 0.28033432 0.71235806
0.4422625 0.88817054 0.13435814 0.103965916 0.20263432 0.21422885 0.46829492 -0.1122075
0.34589615 -0.06036666 0.23774175 -0.25493228 0.16121313 0.027011836 0.7555188 0.8250125
0.20643115 0.27572086 0.3998749 -0.07225338 -0.25887388 0.45959902 0.21062231 0.23497128
0.23018332 -0.057880685 0.38224393 -0.31184512 -0.12424933 0.28313914 -0.41020006 -0.14803013
-0.12904003 -0.094033875 -0.023117179 -0.0644439 -0.05600473 0.1621059 -0.3100645 0.09909123
-0.4062792 -0.6115833 0.22599842 0.046971552 -0.21978424 0.26261738 -0.58898705 -0.4148488
0.25298712 -0.13843921 0.007022187 -0.13380058 0.41703445 -0.3893849 -0.05922887 -0.25138503
-0.16460624 0.019980175 0.00096170383 -0.0353117 -0.36512077 -0.079825394 0.35843065 -0.15048678
0.2077088 0.041626487 -0.19356997 -0.07287949 0.13614997 -0.112958685 -0.18479623 -0.2746359
-0.016075583 0.08205265 0.074038446 0.19262032 0.27029446 0.15993492 -0.03077184 -0.13704866
-0.092524655 0.112142205 0.1982687 0.29819146 0.14472793 -0.15023917 0.100354336 0.24669895
0.38947073 -0.0057419254 0.2646509 0.26011088 0.024399793 0.2867231 0.42821807 0.40129644
0.17191346 0.6834439 0.3246677 0.14804383 0.30811968 0.177488 0.24016565 0.37404418
0.3624532 0.050355125 0.12831411 0.16194205 0.4491842 0.49563566 0.83789396 0.83609307
0.27726036 0.3862228 0.2662132 0.140378 0.17605177 0.4895012 0.42022395 0.17662658
00000000: f085 243d 0c38 0dbe 946a c9be 7513 f23e
00000010: a654 1c3e a04d 243d fb87 8f3e 195d 363f
00000020: 3b70 e23e 255f 633f 2e95 093e 15ec d43d
00000030: 5f7f 4f3e cf5e 5b3e 5ac4 ef3e 0ccd e5bd
00000040: 4d19 b13e 0843 77bd 9372 733e 7c86 82be
00000050: 0e15 253e ed47 dd3c ae69 413f 0534 533f
00000060: b062 533e 492b 8d3e 67bc cc3e 95f9 93bd
00000070: 1e8b 84be 9050 eb3e 60ad 573e 509c 703e
00000080: 2db5 6b3e 4c14 6dbd 7ab5 c33e 2aaa 9fbe
00000090: 6f76 febd 9df7 903e be05 d2be 3695 17be
000000a0: 1223 04be d594 c0bd 3d60 bdbc 2afb 83bd
000000b0: 3765 65bd 17ff 253e c6c0 9ebe 58f0 ca3d
000000c0: d403 d0be b990 1cbf 216c 673e 3e65 403d
000000d0: 1f0f 61be c975 863e dbc7 16bf 1067 d4be
000000e0: 8787 813e 02c3 0dbe 601a e63b 0503 09be
000000f0: 8a85 d53e 755d c7be f999 72bd 8ab5 80be
00000100: 8a8e 28be 77ad a33c da1a 7c3a 00a3 10bd
00000110: 1cf1 babe 7f7b a3bd 3984 b73e 3519 1abe
00000120: 9eb1 543e 8980 2a3d 3537 46be d841 95bd
00000130: e66a 0b3e e256 e7bd 393b 3dbe 149d 8cbe
00000140: f1b0 83bc 380b a83d 78a1 973d 433e 453e
00000150: 0964 8a3e fbc5 233e 3a15 fcbc 7c56 0cbe
00000160: 917d bdbd d0aa e53d f306 4b3e 8dac 983e
00000170: 8f33 143e 4cd8 19be 9386 cd3d a69e 7c3e
00000180: b568 c73e c326 bcbb 5380 873e 412d 853e
00000190: 13e2 c73c 5fcd 923e 663f db3e ba76 cd3e
000001a0: 150a 303e 2ef6 2e3f d83a a63e cd98 173e
000001b0: ddc1 9d3e 6abf 353e fced 753e b882 bf3e
000001c0: 7793 b93e 2d41 4e3d c664 033e 23d4 253e
000001d0: 79fb e53e f5c3 fd3e 3880 563f 320a 563f
000001e0: 12f5 8d3e ffbe c53e 194d 883e 40bf 0f3e
000001f0: ea46 343e e79f fa3e 9827 d73e 99dd 343e

lstm.weight_ih_l1 f4 [128, 32]
0.1073315 -0.029815963 -0.4234 -0.08000905 -0.06226104 0.022921706 -0.14139737 -0.23658301
0.28303137 0.17853457 0.09076288 0.085041575 -0.077947944 -0.11701593 0.26653215 -0.12244378
-0.07330317 0.14811678 0.056054704 -0.014512378 0.13852514 0.00075701054 0.016605359 -0.0593895
-0.12273364 0.17576712 0.20047234 -0.26343837 -0.3857915 0.11181868 -0.043938197 -0.34856582
-0.032726478 -0.035667155 -0.0929652 0.28134173 0.43184817 0.05546008 -0.42962062 0.22417699
0.0041548717 0.21830599 0.2435667 0.25588688 -0.10253865 -0.12995069 0.12889576 0.15636633
0.5634535 0.006201166 -0.035578273 0.046154886 0.064190805 -0.13230897 0.19475241 0.4567043
0.010760759 0.010545837 -0.053902 0.19277242 -0.35782182 0.4589408 -0.23780659 0.08045586
0.023646481 0.010137759 -0.26995495 -0.00865465 0.36039847 -0.024927873 0.38015223 0.19844191
-0.19265507 0.08931767 0.35791424 -0.25992373 -0.19992678 -0.013672584 -0.14486077 0.5027209
0.5520642 -0.22817545 0.038670134 0.089332506 -0.2194402 -0.12108825 -0.031531222 0.098925374
0.016171219 -0.3185774 -0.854308 0.13305154 0.021540625 0.37541398 0.30389804 0.33922312
0.026456524 -0.33358964 0.108300686 0.00677423 0.5141614 0.23912446 0.1709002 0.42574653
0.10080485 0.31518203 -0.4617255 0.0607641 0.11998278 -0.17487076 -0.07930619 -0.1779647
0.45619118 0.20232148 0.27612522 -0.026298711 0.096442066 -0.14861692 0.15397601 0.4256575
0.2307916 0.4550911 0.25913575 0.35493833 0.08305085 0.3341161 0.12815557 0.3478271
-0.29973775 -0.12185487 0.04047041 0.046957545 -0.052100305 0.15542462 -0.5049593 -0.18361348
-0.10539463 -0.104459174 0.35539117 0.059713252 0.18630321 -0.11436999 0.4483734 0.08618858
0.3020848 -0.63546133 0.23321734 0.07818766 -0.39186388 -0.16511641 -0.10361557 0.47531316
0.15507376 0.0690123 -0.12218388 -0.34039912 0.04857758 0.1931963 0.14646721 0.092728846
-0.007774903 -0.10820785 -0.23115264 0.24983668 0.15133703 0.11265179 -0.30669728 -0.11814683
-0.52547294 0.19173795 0.29745266 -0.07619929 0.23484659 -0.110877484 0.5247872 -0.045149717
-0.1597335 -0.30855247 -0.091059655 -0.2826115 -0.19992387 0.070985354 -0.22052826 0.028017834
0.053619206 0.17778741 -0.031928387 -0.11063816 0.11359608 -0.059483875 -0.02613699 -0.22462182
0.12903236 -0.090508066 -0.22125344 -0.083797395 0.30965737 -0.28007448 0.27093568 0.21858878
0.19029579 0.112705804 -0.040111635 0.23146997 0.05136434 0.08806181 -0.11846091 0.017081128
0.18847293 -0.21224615 -0.0415646 0.14204507 -0.3885626 0.1348632 0.033358008 0.32611102
-0.07201196 0.15872444 -0.31412822 0.41011313 -0.25314647 0.5171794 -0.13032575 0.12318196
0.028073281 0.3369308 0.18980476 -0.0877765 0.0040536653 -0.0628649 -0.3974335 -0.21692075
-0.35405713 0.28567085 0.29541934 -0.032739434 0.1671093 0.07005351 0.10949989 0.36931118
0.031687792 -0.5725751 -0.15927011 0.01145142 -0.7175892 -0.12780927 0.17966074 -0.0409164
0.031855192 0.1970537 0.034240916 -0.47239795 0.21747224 0.026040772 0.14909323 -0.12996456
00000000: 9ed0 db3d 9b40 f4bc e3c7 d8be c9db a3bd
00000010: 6f05 7fbd 4dc6 bb3c 79ca 10be d142 72be
00000020: 7de9 903e c4d1 363e e4e1 b93d 472a ae3d
00000030: 2ca3 9fbd 0ca6 efbd e776 883e cec3 fabd
00000040: f91f 96bd edab 173e 9e99 653d 53c5 6dbc
00000050: 89d9 0d3e 1e72 463a f607 883c 6842 73bd
00000060: c65b fbbd 4cfc 333e 9f48 4d3e 65e1 86be
00000070: 7786 c5be 3101 e53d 8af8 33bd 3877 b2be
00000080: 330c 06bd b917 12bd 8a64 bebd 060c 903e
00000090: 341b dd3e 1c2a 633d 3cf7 dbbe a78e 653e
000000a0: 9725 883b 9b8b 5f3e 8d69 793e 9b03 833e
000000b0: c9ff d1bd cb11 05be 40fd 033e 7f1e 203e
000000c0: 7d3e 103f 2733 cb3b 86ba 11bd e80c 3d3d
000000d0: 7876 833d 017c 07be 2d6d 473e 25d5 e93e
000000e0: e54d 303c 72c8 2c3c 58c8 5cbd 2266 453e
000000f0: 6c34 b7be 4afa ea3e 9283 73be 0bc6 a43d
00000100: 44b6 c13c d818 263c 8937 8abe 3ccc 0dbc
00000110: 2686 b83e 8a35 ccbc 50a3 c23e 5b34 4b3e
00000120: 5f47 45be 2fec b63d 8940 b73e b914 85be
00000130: 9bb9 4cbe f902 60bc 6256 14be 51b2 003f
00000140: 1454 0d3f d3a6 69be 9364 1e3d f6f3 b63d
00000150: efb4 60be 1efd f7bd e226 01bd 6399 ca3d
00000160: 8179 843c 941c a3be eeb3 5abf aa3e 083e
00000170: f775 b03c 4336 c03e 8698 9b3e a7ae ad3e
00000180: 5abb d83c 43cc aabe c0cc dd3d 5cfa dd3b
00000190: 15a0 033f 0bdd 743e 7600 2f3e 73fb d93e
000001a0: c672 ce3d 8a5f a13e 4967 ecbe c7e3 783d
000001b0: 88b9 f53d 5211 33be 496b a2bd 613c 36be
000001c0: e491 e93e 5d2d 4f3e 4960 8d3e 6570 d7bc
000001d0: 6b83 c53d 092f 18be e3ab 1d3e c8ef d93e
000001e0: a254 6c3e b301 e93e 71ad 843e 7aba b53e
000001f0: 9016 aa3d 4411 ab3e 373b 033e 6516 b23e
00000200: 3a77 99be 0c8f f9bd 4dc4 253d 8e56 403d
00000210: 2167 55bd a227 1f3e 0345 01bf 2c05 3cbe
00000220: 24d9 d7bd b1ee d5bd d5f5 b53e e295 743d
00000230: 45c6 3e3e d03a eabd 3391 e53e a383 b03d
00000240: dcaa 9a3e 98ad 22bf 87d0 6e3e da20 a03d
00000250: 62a2 c8be 4714 29be 6634 d4bd 3f5c f33e
00000260: a8cb 1e3e 5256 8d3d 8b3b fabd cb48 aebe
00000270: 49f9 463d 40d5 453e 80fb 153e 9fe8 bd3d
00000280: 9dc4 febb 149c ddbd 47b3 6cbe 30d5 7f3e
00000290: 18f8 1a3e fbb5 e63d 6d07 9dbe f7f6 f1bd
000002a0: 6585 06bf f456 443e b74b 983e 600e 9cbd
000002b0: a07b 703e bc13 e3bd 7458 063f e9ee 38bd
000002c0: 2e91 23be 97fa 9dbe 7c7d babd 74b2 90be
000002d0: d8b8 4cbe c560 913d 29d2 61be a885 e53c
000002e0: d09f 5b3d e70d 363e 57c7 02bd 4296 e2bd
000002f0: 10a5 e83d 5da5 73bd 3e1d d6bc 4303 66be
00000300: 0f21 043e 4b5c b9bd 4390 62be f89d abbd
00000310: 698b 9e3e ec65 8fbe 15b8 8a3e bdd5 5f3e
00000320: e6dc 423e 4dd2 e63d 194c 24bd 7706 6d3e
00000330: 6a63 523d c059 b43d a29b f2bd b9ed 8b3c
00000340: 0cff 403e 0e57 59be a43f 2abd 4374 113e
00000350: adf1 c6be 9419 0a3e 68a2 083d 06f8 a63e
00000360: 027b 93bd a988 223e 6ad5 a0be 59fa d13e
00000370: 6a9c 81be df65 043f 1d74 05be d346 fc3d
00000380: f0f9 e53c 3282 ac3e 2e5c 423e 2ac4 b3bd
00000390: 9cd4 843b 50bf 80bd 677c cbbe 7920 5ebe
000003a0: fa46 b5be 7343 923e 3441 973e c919 06bd
000003b0: b31e 2b3e 3778 8f3d 7a41 e03d 5b16 bd3e
000003c0: 0fcb 013d 4894 12bf b417 23be bd9e 3b3c
000003d0: edb3 37bf 6fe0 02be fcf8 373e f497 27bd
000003e0: 977a 023d 72c8 493e 3440 0c3d 25de f1be
000003f0: 0bb1 5e3e 7553 d53c e5ab 183e 6e15 05be

lstm.weight_hh_l1 f4 [128, 32]
0.013451948 -0.31217614 -0.10957952 -0.14765297 -0.0057640313 -0.016442781 0.30453354 -0.22514239
0.26807564 0.04529815 0.18102133 -0.07779908 0.1855503 -0.26707283 -0.026507799 -0.05291134
-0.004502331 0.22847635 -0.018565211 -0.21177858 0.06136657 0.12729566 0.12722884 -0.252966
-0.22078565 0.37006095 0.07164763 0.44975507 -0.017276652 -0.16470833 0.11606952 -0.11262088
-0.021863766 0.021368276 -0.056794707 -0.18188761 -0.06906745 -0.065216154 0.31256407 -0.017993229
0.052643437 0.09338281 -0.15933597 0.1020919 -0.010580109 -0.09398789 0.07833883 0.20208344
-0.028260289 -0.07156732 -0.22396646 -0.06863076 -0.11673316 -0.30915123 0.07872826 -0.033104967
0.24852642 0.103533454 -0.054034125 0.094741486 -0.07101461 0.171636 -0.15654129 -0.08123735
-0.03434477 0.2755863 -0.020681337 -0.2271467 -0.07968303 0.25729606 -0.025391575 -0.047433678
-0.0658348 -0.04477222 -0.050501455 -0.009353888 0.08496879 -0.011415184 -0.024552388 0.073761605
-0.03904778 0.38119712 0.1047505 -0.08883493 0.052969374 -0.19671477 0.34042403 -0.038763855
0.013848878 -0.037116043 0.15346481 0.01838383 -0.17618036 0.11021568 -0.08830843 0.06348323
-0.13347933 -0.16619468 -0.17182188 -0.022765044 0.0021091572 -0.18893278 0.07880495 0.2045728
0.044294454 0.16239521 -0.24650306 0.115938365 -0.03156268 0.17800143 0.0731306 -0.29779437
0.1521779 0.26350072 0.10611682 -0.20986715 -0.022392416 0.065649495 0.21054621 0.14365222
0.17465074 0.28063938 -0.11405411 0.058764365 0.2025628 -0.16896747 -0.04908849 0.19202267
-0.08331653 0.23081335 0.11126588 -0.24039893 0.16129547 0.16713382 0.054231446 0.09984097
0.08416075 -0.07275191 -0.019763669 -0.02517553 0.0130351465 -0.013707955 0.19349861 0.10516006
0.14957787 0.21479101 0.20750697 0.053759392 -0.052710794 0.05445469 -0.09440102 -0.14820406
0.06462374 0.13357326 -0.0018073648 0.1540165 0.10276964 -0.01932843 -0.113891035 -0.064587355
-0.09931621 0.088113606 -0.15770122 -0.32054666 0.10360215 -0.055933394 0.22005232 0.09880595
0.08064477 0.07864045 -0.21250388 -0.029863073 -0.20665248 0.1484396 -0.002298795 0.21655253
0.32059923 -0.13232058 0.012911463 -0.23466977 0.054274373 -0.036420804 0.24378219 -0.02922547
0.31181931 -0.0907912 -0.16792397 0.27040216 0.0018841971 -0.21912532 -0.1889501 -0.06769112
0.13614677 -0.08787489 -0.14003319 0.050064053 -0.07034688 0.0007405335 -0.083633445 -0.029871779
0.13255629 -0.21870081 0.12949707 0.21935166 0.22577481 -0.13320573 -0.1398574 0.06307314
0.076360285 0.0035832531 0.047268108 -0.27807054 -0.23026851 -0.026451198 -0.17833208 -0.088265955
-0.07066077 0.066034265 -0.020521207 0.27811283 0.2690015 -0.17543699 -0.23606437 0.073618546
0.09570722 -0.044803053 -0.09370586 0.1352051 -0.027775234 -0.14235005 -0.036222763 -0.12365584
-0.07398266 -0.0011910103 -0.099924535 -0.11491969 0.040730976 0.041669052 -0.08726409 0.15653381
0.018011674 0.21594739 0.11338624 0.04674647 0.14816268 -0.1707781 -0.01161951 0.10865634
0.055916876 -0.084171474 0.0024213658 0.2354252 -0.08015383 -0.08751472 -0.054726955 0.16061148
00000000: 8f65 5c3c 8dd5 9fbe 3a6b e0bd 5732 17be
00000010: 33e0 bcbb 03b3 86bc d2eb 9b3e ba8b 66be
00000020: 3641 893e 8e8a 393d a85d 393e 2055 9fbd
00000030: e600 3e3e c5bd 88be e226 d9bc 90b9 58bd
00000040: 4a88 93bb b4f5 693e 1216 98bc 7cdc 58be
00000050: 835b 7b3d cb59 023e 4748 023e c284 81be
00000060: a215 62be a178 bd3e febb 923d 4c46 e63e
00000070: c487 8dbc 4da9 28be dbb5 ed3d c7a5 e6bd
00000080: a41b b3bc 860c af3c 91a1 68bd bf40 3abe
00000090: 3c73 8dbd 0c90 85bd 6608 a03e 8966 93bc
000000a0: a5a0 573d 7d3f bf3d f828 23be 8f15 d13d
000000b0: 3258 2dbc b97c c0bd 1c70 a03d f6ee 4e3e
000000c0: 1f82 e7bc e391 92bd 7757 65be 498e 8cbd
000000d0: cc11 efbd 1249 9ebe 483c a13d 1399 07bd
000000e0: b67d 7e3e 5909 d43d e352 5dbd d307 c23d
000000f0: 1c70 91bd 59c1 2f3e 5c4c 20be c55f a6bd
00000100: 1aad 0cbd a619 8d3e e86b a9bc 2599 68be
00000110: db30 a3bd 4fbc 833e fe01 d0bc d149 42bd
00000120: 65d4 86bd 1363 37bd 9dda 4ebd 0d41 19bc
00000130: 1e04 ae3d c006 3bbc 1722 c9bc 5310 973d
00000140: 91f0 1fbd 452c c33e 6e87 d63d 16ef b5bd
00000150: 6af6 583d 996f 49be 0f4c ae3e d9c6 1ebd
00000160: 68e6 623c fe06 18bd e125 1d3e b099 963c
00000170: a068 34be c2b8 e13d 0ddb b4bd 7f03 823d
00000180: ceae 08be f02e 2abe 13f2 2fbe c27d babc
00000190: c939 0a3b 9877 41be 7d64 a13d 887b 513e
000001a0: 1a6e 353d ee4a 263e 4c6b 7cbe 1871 ed3d
000001b0: de47 01bd 0246 363e 7fc5 953d 8178 98be
000001c0: 86d4 1b3e 91e9 863e c653 d93d 6ae7 56be
000001d0: 4d70 b7bc 3e73 863d 6d99 573e 9119 133e
000001e0: a5d7 323e f7af 8f3e 3495 e9bd e7b2 703d
000001f0: 9f6c 4f3e cf05 2dbe 0311 49bd 97a1 443e
00000200: dba1 aabd 565a 6c3e 5edf e33d 232b 76be
00000210: a42a 253e 2125 2b3e cb21 5e3d 6c79 cc3d
00000220: 795c ac3d f4fe 94bd 6be7 a1bc ea3c cebc
00000230: 5e91 553c 5597 60bc 8024 463e 285e d73d
00000240: f12a 193e 2df2 5b3e b57c 543e cf32 5c3d
00000250: 46e7 57bd e20b 5f3d 5255 c1bd cec2 17be
00000260: 7459 843d 6ec7 083e 19e5 ecba 80b6 1d3e
00000270: e478 d23d a856 9ebc b43f e9bd 6046 84bd
00000280: 4c66 cbbd e874 b43d 6e7c 21be b11e a4be
00000290: 5d2d d43d 6a1a 65bd 6555 613e c65a ca3d
000002a0: 1629 a53d 3f0e a13d 9e9a 59be 67a3 f4bc
000002b0: b59c 53be 8d00 183e 61a7 16bb f2bf 5d3e
000002c0: 9525 a43e 0c7f 07be 9a8a 533c 464d 70be
000002d0: ce4e 5e3d fb2d 15bd 0aa2 793e 416a efbc
000002e0: c8a6 9f3e bdf0 b9bd 43f4 2bbe 2772 8a3e
000002f0: 2af7 f63a 6362 60be 237c 41be a4a1 8abd
00000300: 0f6a 0b3e c0f7 b3bd dc64 0fbe f70f 4d3d
00000310: 0612 90bd 5d20 423a 0348 abbd a9b5 f4bc
00000320: d6bc 073e 1bf3 5fbe e19a 043e b99d 603e
00000330: 8331 673e 1567 08be c736 0fbe 7e2c 813d
00000340: c862 9c3d 03d5 6a3b 349c 413d 435f 8ebe
00000350: 82cb 6bbe 2fb0 d8bc af9c 36be c8c4 b4bd
00000360: 98b6 90bd f93c 873d 171c a8bc ce64 8e3e
00000370: 91ba 893e c1a5 33be dcba 71be 52c5 963d
00000380: 2602 c43d 6883 37bd dce8 bfbd 3573 0a3e
00000390: e388 e3bc 36c4 11be 525e 14bd 463f fdbd
000003a0: 3984 97bd ad1b 9cba 3ca5 ccbd 045b ebbd
000003b0: 86d5 263d 2bad 2a3d 84b7 b2bd 664a 203e
000003c0: 388d 933c 5021 5d3e 0c37 e83d 3a79 3f3d
000003d0: f5b7 173e 74e0 2ebe c25f 3ebc 3787 de3d
000003e0: 1809 653d 1862 acbd c7af 1e3b 4e13 713e
000003f0: b127 a4bd eb3a b3bd 5f29 60bd 5677 243e

lstm.bias_ih_l1 f4 [128]
0.121901274 -0.13063931 0.15228374 -0.14391558 -0.042737667 -0.048979204 0.04875175 -0.11931057
-0.10782144 -0.028843367 0.051355343 -0.11012331 -0.019693645 -0.23083553 -0.053003103 0.18018639
0.13415301 -0.053259738 -0.054199424 -0.10544309 -0.11245643 -0.04431624 0.036585074 0.152368
-0.12283322 0.08298839 0.03455038 0.11068282 0.18004897 -0.19313063 0.165269 0.108175345
-0.3766265 -0.22593437 -0.38108733 -0.41257653 -0.25301057 -0.25418052 -0.38918334 -0.28592274
-0.23332632 -0.19745705 -0.3154917 -0.23688544 -0.30249164 -0.4367313 -0.20092155 -0.20649348
-0.31700802 0.1280038 -0.07577472 -0.07450119 -0.30385253 -0.19710355 -0.5256873 -0.2474225
-0.3789067 0.15992963 -0.26637518 -0.08657469 -0.2732044 -0.1359124 -0.22437003 -0.31119108
-0.0454684 0.013092424 0.06774962 0.12543231 -0.040006418 0.069163926 -0.005905231 0.050817937
-0.064065434 -0.032075293 -0.06978055 0.052383784 0.03218259 -0.06189107 -0.033662498 -0.15195301
0.021319354 -0.10722695 -0.14480354 -0.0063532265 0.12994845 -0.020586599 0.06200285 -0.074568935
0.06482081 -0.08989305 0.11914348 0.01810958 -0.107732624 0.060059834 0.20829225 0.0332686
-0.17578289 -0.16309606 -0.041738167 0.010543253 -0.081924774 -0.04390121 -0.0034809972 -0.17291589
0.17484623 -0.089457825 -0.17434032 -0.057967823 -0.055349063 0.0176168 -0.06255753 0.09469697
0.015080132 -0.052544665 -0.15422733 -0.16039842 0.048585955 0.11160137 0.0070035434 0.113844156
0.020462079 0.1067418 0.00394231 0.05024558 -0.029194532 0.049912605 -0.1277319 0.025332231
00000000: 60a7 f93d 50c6 05be 45f0 1b3e 9b5e 13be
00000010: b10d 2fbd 6b9e 48bd eaaf 473d 1a59 f4bd
00000020: 7dd1 dcbd ed48 ecbc fb59 523d 5488 e1bd
00000030: 9154 a1bc 2660 6cbe c819 59bd c882 383e
00000040: 685f 093e e226 5abd 3700 5ebd 8cf2 d7bd
00000050: 8f4f e6bd f284 35bd 3bda 153d 5b06 1c3e
00000060: fc8f fbbd d1f5 a93d b384 0d3d adad e23d
00000070: c25e 383e 09c4 45be 473c 293e 098b dd3d
00000080: 30d5 c0be 575b 67be e11d c3be 3b3d d3be
00000090: 9a8a 81be f323 82be 0a43 c7be 7764 92be
000000a0: 18ed 6ebe 2e32 4abe 2188 a1be 1992 72be
000000b0: 2fe0 9abe 3f9b dfbe 61be 4dbe 0773 53be
000000c0: e04e a2be 6e13 033e c72f 9bbd 1494 98bd
000000d0: 8f92 9bbe 83d5 49be 7193 06bf 535c 7dbe
000000e0: 0f00 c2be 98c4 233e 5462 88be 124e b1bd
000000f0: 72e1 8bbe 9f2c 0bbe 42c1 65be 7054 9fbe
00000100: 133d 3abd 9b81 563c 50c0 8a3d 5471 003e
00000110: c5dd 23bd d1a5 8d3d ab80 c1bb 7826 503d
00000120: bd34 83bd 6261 03bd 1be9 8ebd 6190 563d
00000130: e4d1 033d 7e81 7dbd b0e1 09bd 9299 1bbe
00000140: eda5 ae3c ce99 dbbd 6147 14be ba2e d0bb
00000150: 3511 053e 3aa5 a8bc b3f6 7d3d 99b7 98bd
00000160: c6c0 843d d919 b8bd 7f01 f43d 8b5a 943c
00000170: eca2 dcbd 4d01 763d 904a 553e a844 083d
00000180: 6e00 34be a702 27be a4f5 2abd 9cbd 2c3c
00000190: 2dc8 a7bd c1d1 33bd 7121 64bb dd10 31be
000001a0: e40a 333e aa35 b7bd 4586 32be ab6f 6dbd
000001b0: b3b5 62bd 1b51 903c 2a1e 80bd 7cf0 c13d
000001c0: a812 773c 1339 57bd c5ed 1dbe 7c3f 24be
000001d0: 1102 473d 428f e43d fb7d e53b 2027 e93d
000001e0: 17a0 a73c 729b da3d 7e2e 813b 4fce 4d3d
000001f0: 5f29 efbc 2971 4c3d 27cc 02be 8a85 cf3c

lstm.bias_hh_l1 f4 [128]
0.088378586 -0.012498267 -0.09958092 -0.047520388 -0.13432266 0.020256978 0.18782136 -0.030469311
-0.160415 0.17471771 0.08492835 0.20850976 -0.17093134 0.027775414 0.01881312 0.30482185
0.06156411 0.03834882 -0.03480868 -0.17139998 -0.07098634 -0.11831565 0.047728363 0.12718357
-0.15787609 0.03550864 -0.09124802 -0.06780066 0.15090628 -0.17761841 0.044473697 -0.21609572
-0.20674944 -0.14609574 -0.41211474 -0.54576683 -0.18167357 -0.22171472 -0.11268111 -0.21289079
-0.28302264 -0.433402 -0.28480196 -0.0807498 -0.53119737 -0.21930681 -0.30550343 -0.107376255
-0.24422796 0.38311374 -0.17941819 -0.14709009 -0.30837286 -0.18055052 -0.27727354 -0.19368711
-0.30476162 0.21600385 -0.2751122 -0.17036915 -0.26950103 -0.23661569 -0.19392109 -0.3716702
0.18536334 0.012395976 0.07434798 -0.1445768 -0.109654635 -0.025388332 -0.0143996 0.10818367
0.103195876 -0.058356833 -0.097108744 -0.00048802973 0.01968342 0.14445421 0.11797316 -0.04161689
-0.115152135 -0.019277671 0.083546 0.05346001 0.025174158 0.03528843 0.1431007 0.20949924
-0.06900663 0.025456188 -0.08764254 -0.20322257 -0.049845994 0.11080792 -0.016889242 0.032168303
0.041178603 -0.110711634 0.13114446 -0.12032111 0.14466463 0.21244302 0.00049149134 -0.08645724
-0.07376278 -0.13980117 0.06550342 -0.15172225 0.075520046 -0.09219507 -0.034563348 0.17196661
-0.109185256 0.2811394 -0.14660291 -0.14458534 -0.113183126 0.092368424 0.003538574 0.016537871
0.07911854 -0.043807667 0.048919532 0.0031714945 -0.0102589885 -0.03777915 0.07456483 -0.2401588
00000000: d5ff b43d 88c5 4cbc 15f1 cbbd bda4 42bd
00000010: e18b 09be f6f1 a53c 3e54 403e c79a f9bc
00000020: d443 24be 33e9 323e eaee ad3d 9583 553e
00000030: a008 2fbe 4489 e33c f91d 9a3c 9c11 9c3e
00000040: a62a 7c3d a713 1d3d 8c93 0ebd 7a83 2fbe
00000050: 4961 91bd 7a4f f2bd d17e 433d 693c 023e
00000060: 45aa 21be 8271 113d 3ee0 babd 13db 8abd
00000070: 2d87 1a3e 9ae1 35be 0d2a 363d 3248 5dbe
00000080: 20b6 53be 1f9a 15be b400 d3be 60b7 0bbf
00000090: a308 3abe 2f09 63be 5bc5 e6bd 0b00 5abe
000000a0: 58e8 90be dee6 ddbe 90d1 91be 2760 a5bd
000000b0: 8dfc 07bf f791 60be f26a 9cbe 15e8 dbbd
000000c0: e516 7abe 7c27 c43e 67b9 37be c99e 16be
000000d0: 0ce3 9dbe 3ce2 38be ccf6 8dbe ea55 46be
000000e0: b709 9cbe 1d30 5d3e 82db 8cbe 4075 2ebe
000000f0: 0afc 89be 624b 72be 4093 46be 8e4b bebe
00000100: e3cf 3d3e 7e18 4b3c c143 983d f10b 14be
00000110: 9c92 e0bd 31fb cfbc 4dec 6bbc 668f dd3d
00000120: 5c58 d33d 9307 6fbd f3e0 c6bd 3ede ffb9
00000130: 203f a13c ceeb 133e ea9b f13d 7976 2abd
00000140: e2d4 ebbd 35ec 9dbc 2a1a ab3d e2f8 5a3d
00000150: 093a ce3c 9a8a 103d fd88 123e f886 563e
00000160: 5953 8dbd 7f89 d03c ef7d b3bd 9419 50be
00000170: 502b 4cbd 43ef e23d 4f5b 8abc e9c2 033d
00000180: e5aa 283d c8bc e2bd bc4a 063e ea6a f6bd
00000190: f722 143e aa8a 593e 6dd7 003a 7e10 b1bd
000001a0: f110 97bd 0a28 0fbe a826 863d 145d 1bbe
000001b0: 41aa 9a3d c5d0 bcbd 4c92 0dbd 0418 303e
000001c0: 859c dfbd 81f1 8f3e 131f 16be 2e0e 14be
000001d0: 8ecc e7bd a82b bd3d 6ce7 673b 6e7a 873c
000001e0: e708 a23d ab6f 33bd d95f 483d d9d8 4f3b
000001f0: 5115 28bc 4fbe 1abd 72b5 983d 30ec 75be

lstm.weight_ih_l2 f4 [128, 32]
0.1780935 0.0020027333 0.1270652 -0.28379753 0.42767614 -0.00073554146 0.10332744 0.05940838
-0.10905654 -0.15149075 -0.0052719098 0.07564785 0.33601296 -0.093719415 0.43030986 0.3225123
-0.51297873 -0.007498635 0.4634921 0.3655093 -0.025446342 0.12865983 -0.059383966 -0.07372968
-0.45489293 0.23944338 -0.022911988 -0.02035043 -0.2434939 0.42452398 0.19102925 -0.161416
-0.14375974 0.43196648 -0.050038677 -0.06306418 -0.21803023 -0.123162486 -0.057142142 0.099498786
-0.14208847 -0.03577793 -0.02601425 -0.10724465 -0.16170658 -0.1758677 0.09128767 0.23058085
0.15489067 0.16548514 -0.13452072 0.2000562 -0.075530164 -0.37909004 0.018038526 -0.0015814863
0.22954811 -0.30123806 -0.11489488 0.007454929 0.019353278 0.32227993 -0.039181147 0.15897873
-0.21913673 -0.040052887 0.16089258 0.024062278 -0.08352251 -0.017570999 0.32002017 0.03545112
-0.09435081 0.04708872 0.08998314 -0.30976155 -0.020573938 0.25703087 -0.038275488 0.10869092
0.007257182 0.27371943 -0.039940152 0.09247196 0.24372621 0.17485552 0.005840441 -0.05012106
-0.3183957 0.14092317 -0.2004151 -0.08702707 -0.28882247 0.41747764 0.28303218 0.067513734
-0.017597875 0.16687967 -0.7425211 0.4886048 0.17080535 -0.32014275 -0.49300355 0.1432227
0.53036124 0.07335964 0.16854067 0.54164547 -0.13486 -0.0009997546 -0.27876318 -0.19836892
0.33942163 0.08344793 0.08556689 -0.54404217 -0.22954912 0.07786047 -0.3248548 -0.044842366
0.36741439 -0.08363838 -0.30348328 -0.053769056 0.5979298 -0.14221016 -0.7676082 0.019236313
0.046073332 0.21721195 0.05097238 -0.40665603 -0.1511654 -0.14141904 0.2605983 0.10674276
0.26798743 0.0974996 -0.13854715 -0.12317178 -0.096430205 0.014633787 0.37902185 0.040344648
0.0045640995 -0.32112095 -0.16475797 0.21688987 0.2828294 -0.39267427 0.13507341 0.3231647
-0.13437913 -0.38134667 0.0007635925 -0.08270597 -0.34774846 0.09572408 0.04815693 0.19819482
-0.2523266 -0.030645637 0.0818815 0.19499548 -0.09768682 -0.22078457 0.017338926 0.01963619
0.014274486 0.3885076 -0.15810227 0.15609024 -0.029983426 0.00989978 0.12538965 -0.13767429
0.18684669 0.07912493 0.045076508 0.20079324 -0.090031415 0.19211313 0.07601948 -0.04779668
-0.24122491 0.2536473 0.15233465 0.12594557 -0.06691564 0.030471634 -0.078798704 0.27307072
-0.22756128 -0.4135131 0.15974185 -0.7675832 -0.0103159305 -0.18551981 1.0980719 0.16336133
-0.10665195 0.3296351 -0.5083269 -0.47428328 -0.20685416 0.49891877 0.6186418 0.5864696
-0.11000052 0.17169829 -0.21247919 0.023641968 0.82476264 0.23590162 0.7243341 0.23025787
-0.17889358 0.49591947 -0.37971222 0.16515468 0.068954326 -0.15941757 0.06531243 0.6904341
0.13918851 0.25664052 0.37189102 -0.020522183 0.06876566 0.115755096 -0.16615655 0.18048145
0.06658218 -0.053777512 0.20319259 0.07826727 0.1042693 0.09176363 0.15825109 0.36431533
0.27281207 0.39863983 0.4609669 -0.044416904 -0.314733 -0.050830316 -0.28693098 0.06824201
0.07881036 -0.7981334 0.2969182 -0.17077371 0.19235235 -0.003992997 -0.27260652 -0.123062514
00000000: 245e 363e 4a40 033b 611d 023e e94d 91be
00000010: 5ef8 da3e 5ad1 40ba 569d d33d 3456 733d
00000020: 0959 dfbd 6420 1bbe fcbf acbb 43ed 9a3d
00000030: e409 ac3e f7ef bfbd 9351 dc3e 5520 a53e
00000040: 9352 03bf 1cb7 f5bb d64e ed3e 0924 bb3e
00000050: d974 d0bc 67bf 033e 9a3c 73bd 96ff 96bd
00000060: bae7 e8be a530 753e ecb1 bbbc f2b5 a6bc
00000070: 7756 79be 355b d93e 2c9d 433e 3c4a 25be
00000080: c135 13be b62a dd3e 5bf5 4cbd cb27 81bd
00000090: 5143 5fbe 9d3c fcbd e10d 6abd 05c6 cb3d
000000a0: a47f 11be e18b 12bd d61b d5bc 15a3 dbbd
000000b0: 6996 25be aa16 34be 08f5 ba3d 631d 6c3e
000000c0: a99b 1e3e f074 293e cdbf 09be 88db 4c3e
000000d0: 8faf 9abd 1718 c2be 88c5 933c e049 cfba
000000e0: a90e 6b3e e03b 9abe 024e ebbd 7a48 f43b
000000f0: c48a 9e3c e001 a53e 697c 20bd 52cb 223e
00000100: 6165 60be 7f0e 24bd 06c1 243e 411e c53c
00000110: da0d abbd 0ef1 8fbc afd9 a33e 3235 113d
00000120: ff3a c1bd 1ae0 403d 1549 b83d 1199 9ebe
00000130: ad8a a8bc 8d99 833e c2c6 1cbd 5899 de3d
00000140: a8cd ed3b f424 8c3e 4998 23bd f061 bd3d
00000150: 5d93 793e 530d 333e 2c61 bf3b be4b 4dbd
00000160: c304 a3be 2a4e 103e 9e39 4dbe 403b b2bd
00000170: 8ae0 93be a1bf d53e 98e9 903e a444 8a3d
00000180: 6b29 90bc 81e2 2a3e dd15 3ebf 692a fa3e
00000190: 99e7 2e3e c0e9 a3be f66a fcbe f9a8 123e
000001a0: c1c5 073f 943d 963d ed95 2c3e 47a9 0a3f
000001b0: bd18 0abe 330a 83ba 0cba 8ebe 3921 4bbe
000001c0: acc8 ad3e c0e6 aa3d b23d af3d 5946 0bbf
000001d0: ed0e 6bbe 4f75 9f3d 5e53 a6be a1ac 37bd
000001e0: bd1d bc3e 994a abbd 2962 9bbe f13c 5cbd
000001f0: ed11 193f 8a9f 11be f981 44bf 7995 9d3c
00000200: 64b7 3c3d cf6c 5e3e 6ac8 503d 3835 d0be
00000210: 1acb 1abe 27d0 10be 246d 853e f39b da3d
00000220: a635 893e dfad c73d 4edf 0dbe 7c41 fcbd
00000230: 337d c5bd 8dc2 6f3c 270f c23e 6e40 253d
00000240: 718e 953b f769 a4be 50b6 28be 6118 5e3e
00000250: 04cf 903e 9a0c c9be af50 0a3e d875 a53e
00000260: af9a 09be df3f c3be d32b 483a bf61 a9bd
00000270: 160c b2be fd0a c43d 3340 453d 95f3 4a3e
00000280: f430 81be 8f0c fbbc 7db1 a73d e5ac 473e
00000290: 0710 c8bd 5a15 62be 5d0a 8e3c 13dc a03c
000002a0: 89df 693c 78ea c63e 90e5 21be 1fd6 1f3e
000002b0: cd9f f5bc b032 223c 2566 003e 7dfa 0cbe
000002c0: bd54 3f3e 400c a23d 25a2 383d be9c 4d3e
000002d0: 6462 b8bd 4eb9 443e 1ab0 9b3d 74c6 43bd
000002e0: aa03 77be 0fde 813e 9dfd 1b3e e0f7 003e
000002f0: 110b 89bd a69f f93c 3761 a1bd edcf 8b3e
00000300: d305 69be fdb7 d3be 5e93 233e 5580 44bf
00000310: 2604 29bc e8f8 3dbe 9f8d 8c3f 3148 273e
00000320: 566c dabd efc5 a83e b621 02bf 42d5 f2be
00000330: 94d1 53be 4872 ff3e 4f5f 1e3f df22 163f
00000340: f447 e1bd add1 2f3e 2594 59be cdac c13c
00000350: a523 533f 3290 713e f66d 393f b8c8 6b3e
00000360: e12f 37be 28e9 fd3e a469 c2be 4f1e 293e
00000370: ed37 8d3d 5c3e 23be 86c2 853d 4ac0 303f
00000380: 6f87 0e3e 6366 833e 8068 be3e 231e a8bc
00000390: 03d5 8c3d 0211 ed3d f124 2abe 21d0 383e
000003a0: 3d5c 883d cf45 5cbd b811 503e 974a a03d
000003b0: 258b d53d 92ee bb3d 930c 223e 8a87 ba3e
000003c0: 06ae 8b3e 851a cc3e db03 ec3e 80ee 35bd
000003d0: af24 a1be 7333 50bd 9ee8 92be 78c2 8b3d
000003e0: 5367 a13d 7852 4cbf aa05 983e 4edf 2ebe
000003f0: 04f8 443e b0d7 82bb 1593 8bbe 3308 fcbd

lstm.weight_hh_l2 f4 [128, 32]
-0.3346413 -0.25188318 -0.18450265 0.037989616 -0.07931395 -0.024607247 0.09015442 0.37141523
-0.15677999 0.02575807 0.15025187 -0.1906605 -0.2737101 -0.043816563 0.4933275 -0.14493993
-0.2828584 -0.12459231 0.47665617 0.3703388 0.021996079 -0.20294659 0.08656591 0.13153836
-0.06255655 0.057183735 0.26846477 -0.22179322 0.4481172 -0.2951922 -0.035426818 0.13234378
0.08561383 -0.34792605 0.4163099 0.35818022 0.08867423 -0.013650422 -0.06965087 0.15581451
0.24286242 0.293598 0.2230228 0.38611284 0.19929636 -0.19523679 -0.06043079 0.29854125
0.37541878 0.77129877 -0.2412965 -0.22279629 0.16052955 0.0012614017 -0.23026498 -0.34018725
-0.09052233 0.01832279 0.14775088 0.014674642 -0.2656267 -0.2868562 0.10800003 -0.18309072
-0.11973109 -0.03557478 0.03582251 0.20742026 0.01700899 0.19424556 0.12520102 0.15949321
-0.04700518 -0.10127647 -0.0719844 -0.060996175 -0.03969539 -0.38224393 -0.058524866 0.02340807
-0.044657476 0.21020508 -0.040431824 0.11026641 -0.0598637 0.2454105 0.23657134 -0.116415925
0.046736274 0.3965501 0.056860954 -0.28720534 -0.14018588 -0.077769525 -0.008039548 0.35610723
0.002375011 -0.10999285 0.19974668 0.12721473 -0.04212285 -0.14971729 -0.0074375356 -0.33307227
0.1906717 0.22766283 0.082113504 0.08172481 0.044840835 -0.22150363 -0.05987171 0.14435357
0.088331275 0.07288435 0.18178864 0.15282367 0.21254969 -0.20362666 0.08593061 0.112153195
0.2018162 0.13768168 0.077834174 0.07724095 0.12958916 0.038696706 0.16382071 -0.06602535
-0.119819514 0.11988923 0.06799618 -0.08346712 -0.11523565 0.03675044 -0.17927003 -0.06934106
-0.12590219 -0.13626754 -0.00082198036 0.0328529 0.12216802 -0.16116503 -0.012157263 0.13570863
0.034449846 0.16245495 0.054225456 0.11886894 -0.03736724 0.112654775 0.024411453 0.030144732
0.09090921 -0.032677505 0.20216049 -0.077329114 0.1756929 -0.03517067 -0.13392629 0.23781489
-0.019339915 0.046564642 0.009734563 -0.23176637 -0.017046185 0.061348524 0.13465056 0.3794095
0.016930249 -0.12992226 -0.21025993 -0.031620923 -0.17942525 0.0410047 0.029920744 -0.0060044318
-0.014713855 0.2432305 0.042228278 -0.065097205 -0.1373875 -0.1434759 0.07273742 0.08774219
-0.41045624 -0.05120696 -0.14162524 0.1852207 -0.15101928 -0.01734661 0.16492303 0.24755841
-0.21864547 -0.0034752537 0.21652713 0.38746622 0.081356324 -0.11631151 -0.05443188 -0.24347995
-0.027531298 0.21756667 -0.058062907 0.0009041629 -0.06948742 -0.10105744 -0.053823434 0.015163309
0.18403949 -0.05983328 -0.044343576 -0.37043887 -0.027815042 0.25199795 0.089420944 0.039644133
0.12082397 0.096555546 0.096607625 -0.011465174 -0.17428784 0.056975678 0.080707274 0.37475193
0.26469317 -0.3706319 0.07057169 0.13011095 0.37283662 0.06444144 -0.2733673 -0.03114263
0.23556219 0.086192064 -0.20354442 0.08364616 0.21103688 0.28191057 -0.12405264 0.28517556
0.32706174 -0.3537201 -0.28989634 -0.18759881 0.3122196 -0.17908457 0.089855835 -0.08128546
-0.41020414 -0.002151444 0.30439696 0.53671044 -0.21564321 -0.018873103 0.16852082 -0.13673578
00000000: 1b56 abbe d5f6 80be 43ee 3cbe 009b 1b3d
00000010: 5a6f a2bd 2395 c9bc e1a2 b83d 232a be3e
00000020: ef8a 20be 9702 d33c a0db 193e 823c 43be
00000030: bb23 8cbe ff78 33bd 6c95 fc3e 226b 14be
00000040: d1d2 90be 412a ffbd 470c f43e 0c9d bd3e
00000050: 1f31 b43c 3bd1 4fbe 7849 b13d feb1 063e
00000060: a61d 80bd 7e39 6a3d 3774 893e c31d 63be
00000070: 9e6f e53e 6f23 97be b61b 11bd 2185 073e
00000080: 4e56 af3d 5d23 b2be 9226 d53e 6663 b73e
00000090: d69a b53d 05a6 5fbc 1ea5 8ebd d78d 1f3e
000000a0: edb0 783e 7a52 963e 1760 643e 95b0 c53e
000000b0: 5814 4c3e 27ec 47be 4786 77bd 66da 983e
000000c0: e436 c03e d673 453f 6e16 77be b624 64be
000000d0: dc61 243e 9e55 a53a 95ca 6bbe 062d aebe
000000e0: c563 b9bd ad19 963c 024c 173e e96d 703c
000000f0: 3900 88be d1de 92be 1f2f dd3d 227c 3bbe
00000100: 9335 f5bd dcb6 11bd a0ba 123d fa65 543e
00000110: 7056 8b3c 4fe8 463e b234 003e 3052 233e
00000120: 8188 40bd 0a6a cfbd 8f6c 93bd 20d7 79bd
00000130: a297 22bd 7ab5 c3be c5b7 6fbd 48c2 bf3c
00000140: c2ea 36bd 0040 573e d79b 25bd 5bd3 e13d
00000150: a433 75bd e44c 7b3e c23f 723e 796b eebd
00000160: 896e 3f3d 9d08 cb3e 08e7 683d 940c 93be
00000170: e38c 0fbe a145 9fbd 4fb8 03bc b053 b63e
00000180: 13a6 1b3b ee43 e1bd 658a 4c3e 9444 023e
00000190: 0289 2cbd 7d4f 19be 92b6 f3bb 7388 aabe
000001a0: 713f 433e 7220 693e 202b a83d 565f a73d
000001b0: 06ab 373d d9d1 62be 0a3c 75bd 6cd1 133e
000001c0: 07e7 b43d 6444 953d cd26 3a3e cf7d 1c3e
000001d0: a0a6 593e 8283 50be 63fc af3d 93b0 e53d
000001e0: e8a8 4e3e 6dfc 0c3e 8667 9f3d 8130 9e3d
000001f0: 05b3 043e 7080 1e3d 9ec0 273e 4c38 87bd
00000200: ef63 f5bd 7c88 f53d 9541 8b3d cff0 aabd
00000210: ab00 ecbd a187 163d 9092 37be b002 8ebd
00000220: 81ec 00be b889 0bbe 2b7a 57ba c390 063d
00000230: 3a33 fa3d 7208 25be 422f 47bc 34f7 0a3e
00000240: 481b 0d3d 975a 263e 831b 5e3d 8f71 f33d
00000250: 640e 19bd 8cb7 e63d 87fa c73c 16f2 f63c
00000260: 9c2e ba3d d9d8 05bd 2903 4f3e ba5e 9ebd
00000270: d7e8 333e 1f0f 10bd f923 09be bf85 733e
00000280: be6e 9ebc 91ba 3e3d b77d 1f3c 2a54 6dbe
00000290: 71a4 8bbc 9748 7b3d d6e1 093e f641 c23e
000002a0: 4eb1 8a3c 570a 05be 614e 57be f184 01bd
000002b0: 41bb 37be 8bf4 273d 591c f53c d3c0 c4bb
000002c0: 6212 71bc 6b11 793e 8ff7 2c3d af51 85bd
000002d0: 4faf 0cbe 59eb 12be 5bf7 943d 2db2 b33d
000002e0: 5227 d2be 64be 51bd 3506 11be 7faa 3d3e
000002f0: cca4 1abe 7a1a 8ebc 95e1 283e f47f 7d3e
00000300: 99e4 5fbe 15c1 63bb 4ab9 5d3e f961 c63e
00000310: 259e a63d bb34 eebd f7f3 5ebd cf52 79be
00000320: 5189 e1bc ccc9 5e3e 5fd3 6dbd 5805 6d3a
00000330: 6c4f 8ebd 34f7 cebd f675 5cbd 876f 783c
00000340: d974 3c3e be13 75bd 9ca1 35bd 2aaa bdbe
00000350: 5fdc e3bc e005 813e 5422 b73d e361 223d
00000360: 8f72 f73d eabe c53d 38da c53d 6dd8 3bbc
00000370: 8378 32be 545f 693d db49 a53d 7cdf bf3e
00000380: dd85 873e 77c3 bdbe e487 903d ce3b 053e
00000390: 71e4 be3e e0f9 833d ccf6 8bbe d41e ffbc
000003a0: 3737 713e 7785 b03d f36d 50be ae4e ab3d
000003b0: 0d1a 583e 9556 903e 4f0f febd 8802 923e
000003c0: a374 a73e cd1a b5be 4b6d 94be e719 40be
000003d0: 3fdb 9f3e f261 37be 5606 b83d fe78 a6bd
000003e0: 4706 d2be 3eff 0cbb ebd9 9b3e db65 093f
000003f0: 93d1 5cbe c49b 9abc b990 2c3e 7704 0cbe
