model_params/full_modelv2.pth (torch, 95185 bytes, 16 tensors)

lstm.weight_ih_l0 f4 [128, 7]
0	0xbe245fe7	-0.16052209
1	0xbe43f3f5	-0.19136031
2	0x3e2b4fe4	0.16729695
3	0xbdc8d822	-0.09806849
4	0xbbfabb09	-0.007651691
5	0xbdbc8bfd	-0.09206388
6	0xbe39564e	-0.18099329
7	0x3dce7a20	0.10081887
8	0xbe45cba3	-0.19315962
9	0x3e612f42	0.21990684
10	0xbddab95f	-0.10679888
11	0x3dbaedbd	0.09127376
12	0xbe11c92e	-0.142369
13	0xbe00c164	-0.12573773
14	0xbdf63e62	-0.12023617
15	0x3e69be86	0.22826585
16	0xbcf09427	-0.02936752
17	0xbc697183	-0.014248255
18	0x3e71db11	0.23618723
19	0x3dbfee6f	0.093716495
20	0x3dc6cfcb	0.09707602
21	0x3dd9e998	0.106402576
22	0xbdb6774c	-0.08909473
23	0x3b6b0580	0.0035861433
24	0xbe52eed0	-0.20598912
25	0x3d5b52e8	0.053545862
26	0xbd61b34d	-0.055102635
27	0xbd609f98	-0.0548397
28	0xbccd7264	-0.02507896
29	0xbe07ce1b	-0.13262217
30	0xbdea046a	-0.11426623
31	0x3d76e068	0.060272604
32	0xbe86b688	-0.26311135
33	0x3e3fc430	0.18727183
34	0xbe5bbcb5	-0.21458705
35	0xbe198287	-0.14991198
36	0x3c933e5f	0.017974077
37	0x3e158928	0.14603102
38	0xbe2a438c	-0.1662733
39	0xbc9721e3	-0.018448776
40	0x3d832f4c	0.064055055
41	0xbdb172a7	-0.08664446
42	0xbe596b2a	-0.21232286
43	0x3cbf42aa	0.023347218
44	0xbd1f9dd2	-0.03896887
45	0x3ca814ff	0.020517824
46	0xbcfd968e	-0.03095558
47	0xbe3b2065	-0.18274076
48	0xbd9b4f02	-0.07583429
49	0xbda94a29	-0.08266098
50	0x3de07105	0.10959057
51	0xbdb4ff0c	-0.08837709
52	0xbd58a492	-0.05289132
53	0x3e30622b	0.17224948
54	0xbd789616	-0.060690008
55	0x3dce675d	0.10078309
56	0xbd64baae	-0.055842094
57	0x3e0112a0	0.12604761
58	0x3e63c2b7	0.22242247
59	0x3d5dc0d4	0.054138973
60	0xbc90f63f	-0.017695544
61	0x3ddec79e	0.10877918
62	0x3b5b7c85	0.0033490967
63	0x3debab75	0.11507312
64	0x3e1620a8	0.14660895
65	0xbdff646d	-0.124703266
66	0xbc6084a7	-0.013703502
67	0x3e0bb24c	0.13642234
68	0x3dd8ff48	0.10595566
69	0x3e3f537d	0.18684192
70	0xbe1e9366	-0.15485916
71	0x3b9ea4f9	0.0048414436
72	0xbd53c9fd	-0.051706303
73	0xbe28ea87	-0.16495715
74	0x3c55a9b7	0.013040951
75	0xbda20f3b	-0.07913061
76	0x3df1efba	0.11813302
77	0x3e086455	0.13319524
78	0x3e0033c7	0.12519751
79	0xbdb880c8	-0.09008938
80	0x3e33a160	0.17542028
81	0x3d6f893d	0.05848049
82	0xbd93b2ae	-0.07211815
83	0xbda7cb81	-0.08193112
84	0x3db5296e	0.08845793
85	0x3d866d95	0.0656387
86	0x3e55143b	0.20808499
87	0x3df74543	0.120737575
88	0xbe089968	-0.1333977
89	0x3de5df9f	0.11224293
90	0xbce444f3	-0.027864909
91	0xbdb212d2	-0.08694996
92	0xbe464aba	-0.19364443
93	0xbdacd28f	-0.08438598
94	0xbce5b80f	-0.028041868
95	0xbddfd461	-0.1092918
96	0xbd754043	-0.059875738
97	0x3d956780	0.07295132
98	0x3e0ea621	0.1393056
99	0xbbb68302	-0.0055698166
100	0x3d6fba65	0.05852737
101	0x3e05e87b	0.13076966
102	0xbc2db6aa	-0.010602633
103	0xbe080388	-0.13282597
104	0x3ca9998a	0.020703096
105	0x3d5ee73a	0.054419734
106	0xbe1bef47	-0.15227996
107	0x3e4616f7	0.19344698
108	0x3c8774f1	0.016535254
109	0xbe207342	-0.15668967
110	0xbe022e7c	-0.12713045
111	0xbdb90270	-0.09033668
112	0x3e5e5408	0.21711743
113	0x3d3cbfbf	0.0460813
114	0xbdb3d804	-0.08781436
115	0x3e58323b	0.21112911
116	0xbdb5ca5f	-0.0887649
117	0x3ccb0b2a	0.024785597
118	0x3dae1007	0.08499151
119	0xbe61a89a	-0.22036973
120	0xbcfe6993	-0.031056201
121	0xbc95c785	-0.018283615
122	0xbe3de823	-0.18545584
123	0xbdba0526	-0.09083013
124	0x3e0060c5	0.12536915
125	0xbb1d2c62	-0.0023982753
126	0xbe9cb14b	-0.30604014
127	0xbc99036a	-0.018678386
128	0xbdd453a5	-0.103675164
129	0xbe477d70	-0.19481444
130	0xbe3069eb	-0.17227904
131	0xbd666718	-0.05625066
132	0x3da7fcdc	0.08202526
133	0xbcb9adda	-0.022665907
134	0x3db12f03	0.08651545
135	0x3e29f778	0.16598308
136	0xbc90514f	-0.017616896
137	0x3de23dec	0.11046967
138	0x3d9a9aee	0.07549082
139	0x3de0ff25	0.10986165
140	0xbdef7b20	-0.11693406
141	0x3e0231ab	0.1271426
142	0x3e3d5a5b	0.18491499
143	0x3da1ddaa	0.07903607
144	0x3d805080	0.06265354
145	0x3c394751	0.011308507
146	0xbd35b048	-0.044357568
147	0xbc367f48	-0.011138745
148	0x3c47adc6	0.012187427
149	0xbdd053ca	-0.101722315
150	0x3e1c039d	0.15235753
151	0xbda64842	-0.08119251
152	0x3d20c9bb	0.039254885
153	0xbc48fbac	-0.0122670345
154	0x3e25aba5	0.16178758
155	0xbd9bb0bf	-0.07602071
156	0x3dfc9821	0.12333704
157	0x3dfcf0d2	0.1235062
158	0x3c156da7	0.009120381
159	0xbda52597	-0.0806381
160	0xbe03f024	-0.12884575
161	0x3e119b5d	0.14219423
162	0x3e43bbf3	0.19114666
163	0x3d975593	0.07389369
164	0x3e2d36e1	0.16915466
165	0x3c271271	0.010197268
166	0xbde25715	-0.11051766
167	0x3cb1c997	0.02170257
168	0xbdf2c4f6	-0.118539736
169	0x3d7cf8c2	0.06176067
170	0xbcf87ace	-0.030331995
171	0xbd26bb7a	-0.040706135
172	0xbe58b4ac	-0.21162671
173	0x3de2e5ed	0.11079011
174	0x3ddae04c	0.106873125
175	0xbd6b0891	-0.057381216
176	0x3ccba498	0.024858758
177	0x3cea5e23	0.028609341
178	0xbd1c4112	-0.038147993
179	0x3d296d7a	0.04136417
180	0x3e511b1f	0.20420502
181	0xbdf03b68	-0.11730081
182	0x3cc9e536	0.02464543
183	0xbe19ad37	-0.15007482
184	0xbca9411a	-0.020660926
185	0x3e8482dc	0.25881088
186	0x3c79cfef	0.015247329
187	0x3e8eaa1b	0.27864155
188	0x3cb530ab	0.022117933
189	0xbd9f6abd	-0.077840306
190	0xbd7efefc	-0.06225489
191	0x3e652785	0.22378357
192	0x3a84a0cd	0.0010118723
193	0x3e514a50	0.20438504
194	0xbe09f7a0	-0.13473368
195	0xbdb8b3f1	-0.09018696
196	0xbe3da83d	-0.18521209
197	0xbe2f3c02	-0.17112735
198	0x3e128278	0.14307582
199	0xbe244033	-0.16040115
200	0x3ba6e2b4	0.005092943
201	0x3de30a7f	0.11085986
202	0x3c26f3a5	0.010189925
203	0xbe51d5ab	-0.20491664
204	0x3dd1f58c	0.102519125
205	0x3de01d09	0.10943038
206	0xbe4cef06	-0.20013055
207	0xbce28a9f	-0.02765399
208	0x3d99252b	0.07477792
209	0x3c21a77a	0.00986659
210	0xbdb39c5b	-0.08770057
211	0x3e48d457	0.19612251
212	0x3e0e844b	0.13917653
213	0x3c3454d5	0.011006554
214	0x3e6ec605	0.23317726
215	0xbe579e7e	-0.21056554
216	0x3e19dcfa	0.15025702
217	0x3b8aab82	0.004231871
218	0xbe2112be	-0.15729806
219	0xbd912770	-0.070876
220	0xbdf1f0a1	-0.118134744
221	0xbe5e0d72	-0.21684816
222	0xbc72fd94	-0.014830966
223	0x3e1a594b	0.15073125
224	0x3db05a34	0.08610955
225	0xbd70864e	-0.058721833
226	0x3d55f661	0.05223692
227	0x3db26f39	0.0871262
228	0xbe215443	-0.157548
229	0xbd968d04	-0.07351115
230	0x3dc9e5c7	0.0985828
231	0x3de5a347	0.11212783
232	0x3dcacb3c	0.09902045
233	0x3e0eb661	0.1393676
234	0xbcbbde95	-0.022933284
235	0x3d21801b	0.03942881
236	0xbe067b36	-0.13132939
237	0x3e33af3f	0.1754732
238	0x3e79cd3d	0.24394698
239	0xbdbced48	-0.09224945
240	0xbcd27e98	-0.02569513
241	0x3c411d2f	0.011786743
242	0x3d93ca31	0.07216299
243	0x3dbce44e	0.09223233
244	0x3df54e4d	0.11977825
245	0xbca723d6	-0.02040283
246	0x3de2e2c2	0.11078407
247	0xbdc67535	-0.09690324
248	0xbe4979a7	-0.19675313
249	0x3e0bdcca	0.13658443
250	0xbd7c77ce	-0.061637692
251	0xbe2ea5b0	-0.17055392
252	0xbd8d2a9a	-0.06892891
253	0x3e10db4a	0.14146152
254	0x3e08f493	0.13374548
255	0xbc964845	-0.018345008

lstm.weight_hh_l0 f4 [128, 32]
0	0xbda7ce25	-0.08193616
1	0xbe23070d	-0.15920658
2	0xbde2542a	-0.11051209
3	0xbe51968c	-0.20467585
4	0xbe0c967f	-0.13729285
5	0xbd4e0823	-0.05030073
6	0xbdaadf0b	-0.08343323
7	0x3db7652a	0.089548424
8	0x3e096ad0	0.13419652
9	0xbdf4ace8	-0.11947042
10	0x3d0f94fe	0.0350542
11	0xbe2e1ace	-0.17002413
12	0x3c8fdf6a	0.017562587
13	0xbe3f21b6	-0.18665203
14	0xbda465cd	-0.080272295
15	0x3d500653	0.05078728
16	0xbe43356a	-0.19063345
17	0x3dd90f20	0.10598588
18	0x3d1e4e20	0.038648725
19	0xbdc0f122	-0.094209924
20	0xbd34cb6c	-0.04413931
21	0x3d968aee	0.073507175
22	0xbe15f1ab	-0.1464297
23	0xbe2166af	-0.15761827
24	0xbe09f36d	-0.13471766
25	0xbca09148	-0.019600525
26	0xbda62526	-0.08112554
27	0xbe43c234	-0.19117051
28	0xbdbc6d75	-0.09200565
29	0xbe8c0bd9	-0.2735279
30	0x3db3b3ba	0.087745145
31	0x3d662d60	0.056195617
32	0xbcb5c55d	-0.022188837
33	0xbdb93de8	-0.09045011
34	0xbe8b32d8	-0.27187228
35	0xbd9ecc10	-0.077537656
36	0xbd2036b0	-0.039114654
37	0xbc2f72ee	-0.010708554
38	0x3d364235	0.044496734
39	0x3d2178f3	0.039421987
40	0x3e46caf4	0.19413358
41	0x3d97ad0d	0.07406054
42	0x3d4c1504	0.04982473
43	0xbe833a0c	-0.25630224
44	0xbe75dcf7	-0.24010073
45	0xbc8c9024	-0.017158575
46	0x3caf8f98	0.021430776
47	0x3e0b2a60	0.13590384
48	0x3dbf2d1a	0.09334774
49	0x3d19caa6	0.037546776
50	0x3ba38975	0.0049907514
51	0x3cec8082	0.028869871
52	0x3d4b0ddb	0.04957376
53	0x3e38d0a4	0.1804834
54	0xbd78eea3	-0.060774457
55	0xbe016f7e	-0.12640187
56	0xbe862025	-0.261964
57	0x3df76ce2	0.120813146
58	0xbd91a062	-0.07110669
59	0xbd3f8e28	-0.04676643
60	0x3df33e7d	0.11877153
61	0xbe2ce63a	-0.168847
62	0xbd853618	-0.06504458
63	0xbd0d201b	-0.034454446
64	0xbd16795c	-0.03673683
65	0xbd0c1588	-0.03420022
66	0xbd868aa7	-0.065694146
67	0xbdbd62b2	-0.0924734
68	0xbe04378b	-0.12911813
69	0x3e3a95c5	0.18221195
70	0x3dd360ca	0.103211954
71	0x3ddf3e41	0.10900546
72	0x3d66580e	0.05623632
73	0x3a5d3710	0.0008438686
74	0xbe76ea6b	-0.24112861
75	0x3da5cdd5	0.080959
76	0xbda18694	-0.07886997
77	0x3e01567a	0.12630644
78	0x3d287eda	0.0411366
79	0xbe167210	-0.14691949
80	0xbdd3bfa7	-0.10339289
81	0xbe89d885	-0.26923004
82	0xbdc53a93	-0.09630313
83	0xbe2b6b75	-0.1674021
84	0xbdaca3b9	-0.08429665
85	0xbdb51845	-0.0884252
86	0x3da8da19	0.08244724
87	0xbe443d9b	-0.19164126
88	0xbcefce12	-0.029273067
89	0xbda207c5	-0.07911638
90	0xbd1518aa	-0.036400475
91	0xbde8b947	-0.11363464
92	0xbdb9333c	-0.09042975
93	0xbe719018	-0.23590124
94	0xbabe705f	-0.0014529339
95	0x3d0c111a	0.034195997
96	0xbe1a975e	-0.15096804
97	0xbe299a49	-0.16562761
98	0x3d1dccc0	0.038525343
99	0x3d735926	0.05941119
100	0xbcba41a4	-0.022736378
101	0x3dc6af1a	0.09701367
102	0xbd9f5842	-0.07780506
103	0xbe426c5f	-0.18986653
104	0x3db6c549	0.08924348
105	0x3da71832	0.08158912
106	0xbcd11b94	-0.025525846
107	0x3d27c11d	0.04095565
108	0xbd4ea3df	-0.05044925
109	0xbd257421	-0.040393952
110	0xbcf910bf	-0.030403493
111	0xbd66181d	-0.05617534
112	0x3e535ff0	0.20642066
113	0xbcecf7d3	-0.028926766
114	0x3e1747d1	0.1477349
115	0x3d978fff	0.07400512
116	0xbde38a9c	-0.11110422
117	0xbd92deb3	-0.07171383
118	0x3e14f6ba	0.14547244
119	0x3d4af825	0.049553055
120	0x3a654fe9	0.0008747564
121	0xbcfab80f	-0.030605344
122	0xbe10c4a9	-0.1413752
123	0xbd9217ec	-0.07133469
124	0xbe41dc2e	-0.18931648
125	0xbc8e6efd	-0.017386908
126	0x3e30e163	0.17273478
127	0xbe2cb07d	-0.168642
128	0x3c224260	0.00990352
129	0xbc8e5ac3	-0.017377263
130	0x3c0118c4	0.00787944
131	0x3cf7befd	0.030242437
132	0x3cbf341d	0.02334028
133	0x3de82a36	0.11336176
134	0x3caaf884	0.020870455
135	0xbe33518b	-0.17511575
136	0xbda0d992	-0.07853998
137	0xbd887889	-0.06663615
138	0xbd901605	-0.0703545
139	0xbb4ebd5d	-0.0031545975
140	0xbe2e5a4c	-0.17026633
141	0x3e1cc575	0.15309699
142	0x3df08418	0.11743945
143	0x3dbb7129	0.09152443
144	0xbdb2d210	-0.087314725
145	0xbe238213	-0.15967588
146	0xbd32404d	-0.043518353
147	0x3df3669d	0.11884806
148	0xbe0b2e56	-0.13591895
149	0xbdbf7dea	-0.09350188
150	0xbe62f4f0	-0.22163749
151	0xbe3c568f	-0.18392394
152	0xbe319b43	-0.17344384
153	0xbabe9057	-0.0014538866
154	0x3ddb1d22	0.10698916
155	0x3d9dfe0c	0.07714471
156	0xbd5d6e36	-0.054060183
157	0xbdce5bd6	-0.1007611
158	0xbb936757	-0.004498403
159	0xbe06c948	-0.1316272
160	0xbe100d42	-0.14067557
161	0xbb64af94	-0.0034894692
162	0xbe197af3	-0.14988308
163	0xbd0d47c5	-0.034492273
164	0xbdfe6d7a	-0.12423225
165	0xbc1147ad	-0.0088671865
166	0xbdcbf83c	-0.09959456
167	0x3ddee3de	0.10883306
168	0x3e6b7ac9	0.22996058
169	0xbdec3696	-0.11533849
170	0x3dceef64	0.10104254
171	0x3d3c1614	0.045919493
172	0xbe91e002	-0.28491217
173	0xbc48ab56	-0.012247881
174	0xbdc2dd89	-0.09514911
175	0x3dcd3192	0.100192204
176	0x3ded935c	0.11600372
177	0x3ddfe7d6	0.10932891
178	0x3dd873fc	0.10568997
179	0x3e60dab1	0.21958424
180	0x3e1dc116	0.15405688
181	0x3e167048	0.1469127
182	0x3e83e881	0.25763324
183	0x3d95e183	0.073184036
184	0xbe81fe57	-0.25389358
185	0x3dad778b	0.08470067
186	0xbda6fb14	-0.08153358
187	0x3d253a7a	0.04033897
188	0xbd2b9e59	-0.04189906
189	0x3da3453c	0.0797219
190	0x3dd2b8ff	0.102891915
191	0x3d0b2a0d	0.03397565
192	0xbcc07e82	-0.023497824
193	0xbe4e549d	-0.20149465
194	0xbe412221	-0.18860675
195	0x3d3fafa6	0.04679837
196	0xbdf5dfd9	-0.12005586
197	0x3cba9682	0.022776846
198	0x3dbc5903	0.09196665
199	0x3e2055c7	0.15657721
200	0x3e5e716b	0.21722953
201	0xbdc567da	-0.09638949
202	0xbd89bb63	-0.06725194
203	0xbe24b766	-0.16085586
204	0xbdf8b149	-0.121431895
205	0x3c9c488b	0.01907756
206	0x3e3e37cc	0.18575972
207	0xbd0c6c64	-0.034283057
208	0xbda52bf1	-0.08065022
209	0xbc268a82	-0.010164859
210	0x3e021638	0.12703788
211	0x3c1feb3b	0.009760673
212	0x3e0a6119	0.13513602
213	0xbe00fc50	-0.1259625
214	0x3ba69b0a	0.0050844
215	0x3c488590	0.012238875
216	0xbe2ece45	-0.17070873
217	0x3c344762	0.011003347
218	0xbc455915	-0.012045165
219	0x3d992dae	0.07479416
220	0x3bf2d454	0.0074105654
221	0xbd6c3f8c	-0.05767779
222	0x3d96a618	0.073558986
223	0xbdb20fcd	-0.0869442
224	0xbd94bd62	-0.072626844
225	0xbde81d52	-0.113337174
226	0x3d0ae031	0.03390521
227	0xbd6a0178	-0.057130307
228	0xbc01f4a8	-0.007931866
229	0xbdb89571	-0.09012879
230	0x3a88ed00	0.0010446608
231	0x3d647204	0.055772796
232	0x3dbc79d0	0.092029214
233	0x3da8025f	0.08203577
234	0xbdcfa39d	-0.10138629
235	0xbda07496	-0.07834737
236	0xbc0a2c7b	-0.0084334565
237	0x3e1184d7	0.1421083
238	0xbe726392	-0.23670796
239	0x3d9ffeb0	0.0781225
240	0x3db1d1ad	0.086825706
241	0x3d3f31ed	0.046678472
242	0xbddcc641	-0.107800014
243	0x3de10978	0.10988134
244	0x3be95d32	0.0071217055
245	0xbd97a637	-0.0740475
246	0xbe195e3d	-0.14977355
247	0x3c08df48	0.008354016
248	0xbe1e5d01	-0.15465166
249	0xbda4c2b6	-0.08044951
250	0xbe1419b5	-0.14462931
251	0xbe291b53	-0.1651433
252	0xbe1e1ccc	-0.15440673
253	0xbe0efd80	-0.1396389
254	0x3b321546	0.0027173324
255	0x3e39b5d5	0.1813577

lstm.bias_ih_l0 f4 [128]
0	0xbe0b3507	-0.13594447
1	0xbd6ea6b9	-0.058264468
2	0xbc32eb6f	-0.01092039
3	0x3de636a8	0.112408936
4	0xbda354a3	-0.079751275
5	0x3e82e7dd	0.25567523
6	0xbd41926c	-0.04725878
7	0xbdab055f	-0.08350634
8	0x3df846b1	0.12122858
9	0x3db9e1bf	0.09076261
10	0xbda4f185	-0.08053879
11	0x3e121284	0.14264876
12	0x3dc8a480	0.09797001
13	0x3e188971	0.1489618
14	0xbd803f5b	-0.06262084
15	0x3d082393	0.03323705
16	0x3d16bb05	0.03679945
17	0x3d1af783	0.0378337
18	0x3dba361f	0.09092354
19	0x3e2a546e	0.1663377
20	0x3cb6935d	0.022287065
21	0x3e097086	0.1342183
22	0x3e02d38d	0.12776013
23	0xbbcaffa4	-0.0061950255
24	0x3e530641	0.20607854
25	0x3e43ee3f	0.19133852
26	0xbd738366	-0.059451483
27	0x3d8bbb4c	0.068228334
28	0x3e1ecbca	0.15507427
29	0x3e25a947	0.16177855
30	0x3df7760f	0.12083065
31	0xbde27823	-0.110580705
32	0x3e3df452	0.18550232
33	0x3e46820f	0.19385551
34	0xbe08e6ac	-0.13369244
35	0x3ca5d9bd	0.020245427
36	0xbdce6f08	-0.10079771
37	0x3e1970dc	0.14984459
38	0xbd2d3f20	-0.04229653
39	0x3d71f5f3	0.059072446
40	0x3dfbcc2f	0.12294804
41	0xbe0694b1	-0.13142659
42	0xbdb33804	-0.087509185
43	0xbdb2594b	-0.087084375
44	0x3e391fc5	0.18078525
45	0x3dde12d2	0.108434334
46	0xbd67c967	-0.056588557
47	0xbd3f27dc	-0.046668872
48	0xbc868948	-0.016422883
49	0x3da15f52	0.07879509
50	0xbdc6a7aa	-0.09699948
51	0xbe57b67a	-0.21065703
52	0xbca84b9c	-0.020543866
53	0xbe21115d	-0.1572928
54	0xbe28d25a	-0.16486493
55	0xbcd84347	-0.026399268
56	0x3e4bf4fc	0.19917673
57	0x3e205127	0.15655957
58	0x3d861955	0.065478005
59	0xbdbc6e4b	-0.09200724
60	0xbe0c1225	-0.13678797
61	0x3d3f80e1	0.046753768
62	0x3d1685d2	0.036748715
63	0x3db55a3d	0.08855102
64	0x3af460d0	0.0018644575
65	0xbe6f6309	-0.23377623
66	0xbc99728e	-0.018731382
67	0x3dec8b9d	0.115500666
68	0x3d4c4826	0.049873494
69	0xbcdff602	-0.027338985
70	0x3becffb8	0.0072326325
71	0x3e51e3c4	0.20497042
72	0x3e338970	0.17532897
73	0x3daf6adc	0.08565304
74	0xbdbdb1fb	-0.09262463
75	0xbd9c261d	-0.07624457
76	0xbe52bb70	-0.20579314
77	0x3e32f362	0.17475656
78	0xbcdb4691	-0.026767047
79	0x3e012f6a	0.12615743
80	0x3d6c0195	0.057618696
81	0xbaa78a4e	-0.0012782307
82	0x3d83d99a	0.064379886
83	0xbd997881	-0.074936874
84	0x3da4a973	0.080401324
85	0x3dcfb94e	0.10142766
86	0xbc88d6bd	-0.016703958
87	0x3d4ce76e	0.050025396
88	0xbe3f07f7	-0.18655382
89	0x3dc4e63a	0.09614225
90	0xbd9e190a	-0.077196196
91	0x3b82a602	0.003987075
92	0xbe1b7c70	-0.15184188
93	0x3e78dfd9	0.24304141
94	0x3d6142dc	0.054995403
95	0x3d9e5aba	0.077321485
96	0xbdcb1f64	-0.09918097
97	0xbdbf4136	-0.0933861
98	0x3e6d897c	0.23196977
99	0x3c01cd2d	0.007922453
100	0x3e403424	0.1876989
101	0x3e76926d	0.24079295
102	0x3e1438de	0.14474818
103	0x3e237972	0.15964296
104	0x3c987e1d	0.018614823
105	0xbda25624	-0.07926586
106	0x3d54521c	0.051836118
107	0x3cba1e09	0.0227194
108	0x3d90cd28	0.070703804
109	0xbd950afc	-0.07277486
110	0x3c61269c	0.013742115
111	0x3e2d38c8	0.16916192
112	0x3b3a0dd1	0.0028389583
113	0xbd4988be	-0.049202673
114	0xbe08a39d	-0.13343664
115	0xbd076ac4	-0.033060804
116	0x3e4d0a6a	0.20023504
117	0x3c8459d9	0.016156124
118	0x3d54098b	0.051766913
119	0xbd340d31	-0.043957893
120	0x3e286914	0.16446334
121	0x3e3b29ad	0.18277617
122	0x3d2265bb	0.0396478
123	0x3d15c7cf	0.036567505
124	0xbd812de4	-0.06307581
125	0x3e4d67bf	0.20059107
126	0xbd552add	-0.05204283
127	0xbdd02b00	-0.101644516

lstm.bias_hh_l0 f4 [128]
0	0xbdd37e71	-0.10326851
1	0x3e7e7fdf	0.24853466
2	0x3e5f53ff	0.21809386
3	0x3c68336b	0.014172415
4	0x3e0280f4	0.12744504
5	0x3cc64666	0.02420349
6	0xbd835b35	-0.06413881
7	0xbde0353c	-0.10947654
8	0x3d2180ac	0.03942935
9	0xbe181d75	-0.14854987
10	0xbd0e1e04	-0.034696594
11	0xbe090e15	-0.13384278
12	0xbc3040da	-0.010757649
13	0x3e15b297	0.14618908
14	0x3df9e7d7	0.12202423
15	0x3ddc9f8b	0.10772618
16	0xbe0103cd	-0.12599106
17	0x3e03db13	0.12876539
18	0xbda73905	-0.081651725
19	0x3e1d2d44	0.15349299
20	0xbcaf8ac8	-0.02142848
21	0x3e2b3ee3	0.16723208
22	0x3e340a06	0.17581949
23	0xbe14b5a9	-0.14522423
24	0xbd51226d	-0.05105822
25	0x3d9768e7	0.073930554
26	0x3e686709	0.22695555
27	0x3e7426a1	0.23842861
28	0x3e50cd61	0.20390846
29	0x3dd1b876	0.10240261
30	0x3e3983ed	0.18116732
31	0xbcc87a12	-0.02447227
32	0x3d712ed5	0.058882553
33	0x3e320f3b	0.17388622
34	0x3dc0ff7f	0.09423732
35	0x3d9f5d6c	0.07781491
36	0x3d9a0784	0.07520965
37	0x3c7a3a16	0.015272638
38	0x3e31bf52	0.17358139
39	0xbe0b1b80	-0.13584709
40	0x3d7d9c61	0.061916713
41	0x3c2a5449	0.010396072
42	0xbdbb7157	-0.09152477
43	0x3e51746d	0.20454569
44	0xbd52f355	-0.05150159
45	0x3d58e69e	0.05295431
46	0x3da50a70	0.080586314
47	0xbd184829	-0.037178192
48	0xbe41f79d	-0.18942113
49	0xbdf2a6da	-0.11848231
50	0xbe0e17cf	-0.1387627
51	0x3d87e627	0.06635695
52	0x3dc0cc93	0.094140194
53	0x3e008e0f	0.12554191
54	0x3e1c9e21	0.15294696
55	0xbe1703f4	-0.14747602
56	0xbda6feee	-0.08154093
57	0x3dcd0d37	0.10012286
58	0xbda8fde7	-0.08251553
59	0x3d2d5a6b	0.042322557
60	0xbd028183	-0.031861793
61	0xbd853e84	-0.065060645
62	0x3dbe6f4b	0.09298571
63	0xbb4d3b5c	-0.0031315899
64	0xbd701e71	-0.05862278
65	0x3d6425ba	0.05570004
66	0x3c70cf3f	0.014697849
67	0xbe1d6aa6	-0.15372714
68	0x3c233e84	0.009963635
69	0x3e22b4b2	0.15889242
70	0x3e2fd503	0.17171101
71	0xbd0ed2c2	-0.034868963
72	0x3e079f55	0.13244374
73	0xbde1f012	-0.11032118
74	0xbe0541fc	-0.13013452
75	0xbe0b4849	-0.13601793
76	0xbdfa1d49	-0.12212617
77	0x3ddfec73	0.10933771
78	0xbe55ec67	-0.20890962
79	0x3ddee3f7	0.108833246
80	0x3d4750b2	0.04866094
81	0x3e029271	0.12751175
82	0x3e88ecef	0.26743266
83	0x3e1fb337	0.15595709
84	0xbcd0b0e8	-0.02547498
85	0x3de6b292	0.11264528
86	0x3e71da29	0.23618378
87	0xbe25a7c5	-0.1617728
88	0xbe26edae	-0.16301605
89	0xbd313fa0	-0.04327357
90	0x3db8897b	0.09010597
91	0x3de3f3d1	0.11130489
92	0xbe0e3def	-0.13890813
93	0xbd86d9a2	-0.06584479
94	0xbde0b6d7	-0.10972374
95	0x3b71dcb6	0.0036905236
96	0x3dba3113	0.090913914
97	0x3dc01486	0.093789145
98	0xbd3d995e	-0.04628884
99	0xbc381237	-0.0112348115
100	0x3e0b579c	0.13607639
101	0x3dc69ada	0.09697504
102	0xbdd7b7d3	-0.105331086
103	0xbda3e31e	-0.080023035
104	0xbcd9d25c	-0.026589565
105	0x3d911f0d	0.070860006
106	0x3dcb321e	0.099216685
107	0x3e1006a1	0.14065029
108	0x3ae9b6bc	0.0017830948
109	0x3e2b4bdf	0.16728161
110	0xbcea3d16	-0.028593581
111	0xbd5342c1	-0.051577333
112	0x3e883f27	0.2661068
113	0x3e1734dc	0.14766258
114	0xbe18b311	-0.14912058
115	0x3c6c7f12	0.014434593
116	0x3ea9e2ef	0.3318095
117	0x3da6cd05	0.08144573
118	0xbbf0d7a1	-0.0073499237
119	0xbae2a907	-0.0017292806
120	0x3e4b15d8	0.19832551
121	0x3e6d8cdb	0.23198263
122	0xbd1b8a41	-0.037973646
123	0x3e5a51d5	0.21320279
124	0x3e2fa89b	0.17154162
125	0x3ddb7807	0.10716253
126	0xba30cc04	-0.0006744268
127	0x3e1d56dc	0.15365165

lstm.weight_ih_l1 f4 [128, 32]
0	0xbde103f7	-0.10987084
1	0xbdc9ab48	-0.098471224
2	0xbe1581ad	-0.14600249
3	0x3e1d75b3	0.1537693
4	0xbd9c3af2	-0.076284304
5	0x3bc17419	0.0059037325
6	0x3d7f6b41	0.062358145
7	0xbd3e4e77	-0.04646155
8	0x3e21bc98	0.15794599
9	0x3ca1eae8	0.019765332
10	0xbe4d86f7	-0.20071016
11	0xbd939460	-0.07206035
12	0x3cae961e	0.021311816
13	0xbdbf554f	-0.09342443
14	0xbe82751d	-0.25479975
15	0xbdf3c739	-0.11903233
16	0xbe4cde17	-0.20006596
17	0x3e275b39	0.16343392
18	0xbdc53419	-0.096290775
19	0xbe3e0b63	-0.18559031
20	0x3d141a59	0.03615794
21	0x3de57488	0.11203867
22	0xbe2776e4	-0.16353947
23	0xbe6b16b3	-0.22957878
24	0x3cd0260d	0.025408769
25	0x3e0c4930	0.13699794
26	0xbd9a3123	-0.07528903
27	0xbdb9eddd	-0.09078572
28	0x3e42d073	0.1902483
29	0x3e221eee	0.15832111
30	0x3e2d6017	0.16931187
31	0xbe06a277	-0.13147913
32	0xbdccd40d	-0.10001383
33	0x3d4f3a04	0.050592437
34	0xbbec0da7	-0.007203776
35	0xbd8f5eaf	-0.07000481
36	0xbd06f3f4	-0.032947496
37	0xbd4294c1	-0.047505144
38	0xbda16918	-0.07881373
39	0xbe18cf85	-0.14922912
40	0xbd13b12a	-0.03605763
41	0xbe31fd61	-0.17381813
42	0x3c555288	0.013020165
43	0x3d807a03	0.06273272
44	0x3e037c99	0.12840499
45	0x3dc7ffd3	0.097655915
46	0x3d815692	0.0631534
47	0xbb82a551	-0.0039869924
48	0x3c2b9da6	0.010474598
49	0x3db3ad02	0.08773233
50	0x3d92671e	0.07148574
51	0x3de79697	0.113080196
52	0xbdead0c0	-0.11465597
53	0xbe6f82a8	-0.23389685
54	0x3d7c7cc6	0.06164243
55	0xbe2c4b00	-0.16825485
56	0xbc789407	-0.015172011
57	0x3c5992c8	0.013279624
58	0xbd0d289b	-0.034462553
59	0x3c70fb21	0.014708311
60	0xbdc90923	-0.09816196
61	0x3db5b3fc	0.0887222
62	0x3d38c4a0	0.04510939
63	0xbd9070cb	-0.070527636
64	0xbe4090ac	-0.18805188
65	0xbb989d42	-0.0046574185
66	0xbdeb8959	-0.11500806
67	0x3c9024bd	0.017595643
68	0xbd4b2538	-0.04959604
69	0x3e464e02	0.19365695
70	0xbc1a91bb	-0.009434159
71	0x3dd59da2	0.10430457
72	0x3e814322	0.2524653
73	0xbe82d2d5	-0.25551477
74	0xbdc3399e	-0.09532474
75	0xbe546b61	-0.20744087
76	0x3bb25500	0.0054422617
77	0x3e2977f0	0.16549659
78	0xbe9e0466	-0.3086273
79	0x3d9cbc2c	0.076530784
80	0xbe0a933c	-0.13532728
81	0x3e1389cc	0.14408034
82	0xbc3bedcf	-0.011470272
83	0xbe559743	-0.20858483
84	0x3e5ca93c	0.21548933
85	0x3d655987	0.055993583
86	0xbd6b29b0	-0.057412803
87	0xbde03009	-0.10946662
88	0xbea80c68	-0.32821965
89	0xbccba9b7	-0.0248612
90	0x3dc69c9d	0.0969784
91	0x3e9742f8	0.2954328
92	0x3dbd097a	0.09230323
93	0x3cb2a024	0.021804877
94	0x3e0b825a	0.13623944
95	0x3d5ac579	0.05341098
96	0x3e0a20fd	0.13489147
97	0xbe4ce098	-0.2000755
98	0xbe81817e	-0.25294107
99	0xbc879242	-0.016549233
100	0x3d19bd6b	0.03753416
101	0x3e0a259c	0.1349091
102	0xbd9a1d77	-0.07525151
103	0xbe0b9b0c	-0.13633364
104	0x3df97f88	0.12182528
105	0xbe2b7b9a	-0.16746369
106	0x3dd44ee9	0.103666134
107	0xbcf05072	-0.029335234
108	0x3da9df7b	0.08294579
109	0x3dd17b0f	0.1022855
110	0x3d1aa09a	0.037750818
111	0xbdf3ebd3	-0.11910214
112	0xbe590c09	-0.21195997
113	0xbd78229b	-0.060579877
114	0x3e46f6e3	0.19430117
115	0xbdf916ef	-0.12162577
116	0x3e138798	0.14407194
117	0x3db20efd	0.08694265
118	0x3c67d816	0.01415064
119	0xbce059f5	-0.027386645
120	0xbe12cecc	-0.14336699
121	0x3dae9d7e	0.08526133
122	0x3dc2a236	0.095035955
123	0x3dd3f112	0.10348715
124	0xbe56cb60	-0.20976019
125	0x3d83dc8f	0.064385526
126	0x3d4a276f	0.049354013
127	0x3c4a23a6	0.012337601
128	0x3c9732e7	0.01845689
129	0xbc97bc2f	-0.01852235
130	0xbd43a07b	-0.047760468
131	0xbcddb503	-0.027063852
132	0x3dfd9e3a	0.12383695
133	0xbe01a88b	-0.1266195
134	0xbd07c273	-0.033144426
135	0xbe2fdc26	-0.17173824
136	0xbd29c193	-0.041444372
137	0xbe26c5dd	-0.16286416
138	0xbdac985a	-0.08427496
139	0xbe22b874	-0.15890676
140	0xbe16f675	-0.14742453
141	0xbe549daf	-0.20763277
142	0xbcb58266	-0.022156905
143	0x3dbdb6df	0.092633955
144	0xbdee5a3d	-0.11638305
145	0xbb66838e	-0.0035173628
146	0x3e0b51ca	0.13605419
147	0x3e246a57	0.1605619
148	0xbe12455c	-0.14284271
149	0x3c316589	0.0108274305
150	0xbe36879e	-0.17825171
151	0x3dd10632	0.1020626
152	0x3dcd8432	0.1003498
153	0xbd547dbd	-0.051877726
154	0x3e5c2afc	0.21500772
155	0xbe07ca61	-0.13260795
156	0x3d88d6d2	0.06681599
157	0xbdc26bc8	-0.09493214
158	0x3e2477a0	0.16061258
159	0xbda5c28d	-0.08093748
160	0x3ce3d6cf	0.02781239
161	0x3de6317d	0.11239908
162	0xbe1a798a	-0.15085426
163	0xbe00a52a	-0.12563005
164	0x3da4c6fb	0.08045765
165	0xbc007375	-0.007840027
166	0xbcb1db7a	-0.0217111
167	0x3d4eeeeb	0.05052082
168	0x3e098027	0.13427792
169	0xbdb74a17	-0.089496784
170	0x3e32555d	0.17415376
171	0xbe15b5ba	-0.14620104
172	0xbdd4545e	-0.10367654
173	0xbcafdb68	-0.021466926
174	0x3d881288	0.066441596
175	0x3e0beeca	0.1366531
176	0xbd9ebebc	-0.077512234
177	0xbe6571df	-0.2240672
178	0xbc9f61f2	-0.019455884
179	0x3de96b95	0.11397473
180	0x3d4838a0	0.048882127
181	0x3dd2c402	0.10291292
182	0x3e13e891	0.14444186
183	0xbe250447	-0.16114913
184	0xbda9785e	-0.08274911
185	0xbd62b012	-0.055343695
186	0x3e84be0f	0.25926253
187	0xbe2f311b	-0.17108576
188	0x3da1e014	0.07904068
189	0x3d050b0a	0.03248123
190	0xbd361878	-0.04445693
191	0xbb113287	-0.002215536
192	0xbe944f65	-0.28966823
193	0xbe883032	-0.2659927
194	0xbc9e4f34	-0.019324876
195	0xbddeb51a	-0.10874386
196	0x3d9e81e4	0.077396184
197	0x3e574935	0.2102402
198	0x3e484b70	0.19560027
199	0x3bcdea35	0.006284023
200	0x3e70f8a7	0.23532353
201	0xbe79dca3	-0.24400572
202	0xbc506187	-0.012718565
203	0xbe71f5c9	-0.23628916
204	0xbe03f73d	-0.12887283
205	0x3e0eaa84	0.13932234
206	0x3d215be2	0.039394267
207	0xbce728d2	-0.028217707
208	0xbdbd026c	-0.092289776
209	0x3d0db790	0.034598887
210	0x3e210df1	0.15727974
211	0xbe1e952b	-0.1548659
212	0x3e928f64	0.28625023
213	0xbcad665d	-0.021166975
214	0x3d26fa08	0.040765792
215	0xbe830c78	-0.2559545
216	0x3d7b25e0	0.061315417
217	0xbce38a7a	-0.027775992
218	0x3dcf1106	0.10110669
219	0xbe3b1242	-0.18268684
220	0xbe25cca7	-0.1619135
221	0xbd18b306	-0.037280105
222	0xbc63b300	-0.013897657
223	0x3c97ab02	0.01851416
224	0x3c9887b5	0.018619398
225	0xbe0ff9b4	-0.14060098
226	0xbe118087	-0.14209186
227	0xbde7144e	-0.1128317
228	0xbd9f68f0	-0.07783687
229	0x3e051b86	0.1299878
230	0x3de9b793	0.11411967
231	0x3dbcd380	0.09220028
232	0xbbf34be3	-0.007424818
233	0x3cce45ec	0.025179826
234	0xbd9daa0d	-0.0769845
235	0xbe51b054	-0.2047742
236	0xbe35b123	-0.17743354
237	0xbdd03d15	-0.101679005
238	0x3e1e32ef	0.15449117
239	0x3d439af6	0.047755204
240	0xbcf16a1b	-0.02946954
241	0xbe2eb410	-0.17060876
242	0xb94699b9	-0.00018940018
243	0xbdc5fb2d	-0.096670486
244	0x3d6d4b7e	0.057933323
245	0xbd7ad52e	-0.06123846
246	0x3c54e56a	0.01299415
247	0x3d3cf28e	0.046129756
248	0x3cf042ec	0.029328786
249	0xbd9b8f15	-0.0759565
250	0xbd5fca6f	-0.054636415
251	0xbe1f05c2	-0.1552954
252	0xbe18b40e	-0.14912435
253	0x3d824815	0.06361405
254	0xbd7ca3a5	-0.0616795
255	0xbdcf6726	-0.10127096

lstm.weight_hh_l1 f4 [128, 32]
0	0x3c981ac2	0.018567447
1	0x3e1c3705	0.15255363
2	0x3d186d98	0.03721389
3	0xbe0af10b	-0.13568513
4	0x3cd6a4d5	0.026201645
5	0xbcfc9e9e	-0.030837353
6	0xbdb4b1a8	-0.08822948
7	0xbc5f643c	-0.013634738
8	0xbddcbcbc	-0.10778186
9	0x3d60d281	0.054888252
10	0x3e199456	0.14997992
11	0x3da2e699	0.07954139
12	0x3dbd337e	0.09238337
13	0x3d3a0e21	0.04542363
14	0xbe0c2bfa	-0.1368865
15	0xbe7dfd53	-0.24803667
16	0xbc44d90d	-0.01201464
17	0x3d83fa66	0.06444244
18	0xbd51807e	-0.05114793
19	0x3dc2be16	0.09508912
20	0x3e414904	0.1887551
21	0xbd3a9fb2	-0.045562454
22	0xbdefa75f	-0.117018454
23	0x3d016d90	0.031598628
24	0x3d2244bb	0.039616328
25	0x3db0fdc7	0.08642154
26	0x3e3c6ffc	0.18402094
27	0xbb9423f1	-0.004520886
28	0x3de9bb43	0.114126705
29	0x3e4a01e2	0.1972728
30	0x3d91c0d0	0.07116854
31	0xbdfd7f03	-0.12377741
32	0x3d72babb	0.05926011
33	0xbe097d9d	-0.13426824
34	0xba08cbfd	-0.0005218385
35	0x3dcd6384	0.10028747
36	0x3c344a15	0.011003991
37	0x3ddce1e4	0.10785273
38	0x3da2013f	0.07910394
39	0x3d5bcd12	0.053662367
40	0xbe2ca358	-0.16859186
41	0xbd0feefd	-0.035140026
42	0xbe38847a	-0.18019286
43	0x3e1e5f54	0.15466052
44	0xbd7f2f1c	-0.062300786
45	0xbe229d94	-0.15880424
46	0x3e3bb62f	0.18331216
47	0xbdbba760	-0.091627836
48	0x3c6e47ee	0.014543517
49	0xbcb7f5b1	-0.022456022
50	0xbe23ad4e	-0.15984079
51	0x3df7c283	0.12097647
52	0x3dd6d4ca	0.10489805
53	0xbe320e65	-0.17388304
54	0xbd2e202e	-0.042511158
55	0xbd0379b3	-0.032098483
56	0xbd1feafe	-0.039042465
57	0x3e500d59	0.20317592
58	0x3e57ad1c	0.2106213
59	0xbdceeab4	-0.1010336
60	0x3db53acd	0.08849106
61	0x3d583099	0.05278072
62	0xbd9860f8	-0.0744037
63	0x3c8623d3	0.016374504
64	0xbde3a988	-0.1111632
65	0x3ec25f60	0.3796339
66	0xbdf74497	-0.12073629
67	0xbe062ceb	-0.13103072
68	0x3d75089b	0.05982266
69	0xbda2ed95	-0.079554714
70	0xbe0855d9	-0.13313998
71	0xbe5df8dc	-0.21676964
72	0xbcf4d158	-0.02988498
73	0x3e8b8a09	0.2725375
74	0xbdd9b44f	-0.10630094
75	0xbd29b6c8	-0.04143408
76	0x3e773a4d	0.24143334
77	0xbe33a2fe	-0.17542645
78	0x3c2e828b	0.010651241
79	0x3ce162b9	0.027512895
80	0x3e98092a	0.29694492
81	0xbe5f4f7c	-0.21807665
82	0xbe1e834b	-0.15479772
83	0x3ecf9ece	0.40550846
84	0x3e8871e9	0.26649407
85	0xbe9528ca	-0.29132682
86	0x3e5fa5d2	0.21840599
87	0xbe69f0cf	-0.22845767
88	0x3df3f791	0.11912454
89	0x3d4d553e	0.05013012
90	0xbc11583f	-0.008871137
91	0xbd935314	-0.0719358
92	0xbe38c553	-0.18044023
93	0x3e7a0f96	0.24420008
94	0x3e6b9766	0.23006973
95	0xbec73b58	-0.38912463
96	0x3d8bce3f	0.06826448
97	0x3dc4f459	0.09616918
98	0xbd509d79	-0.050931428
99	0xbe2de1b0	-0.16980624
100	0xbd3e56a7	-0.046469357
101	0x3c470257	0.012146554
102	0x3d90e45e	0.070748076
103	0xbe263103	-0.16229634
104	0xbc070f49	-0.00824339
105	0x3d9ce4dd	0.0766084
106	0xbe4258d1	-0.18979193
107	0xbe71cc61	-0.2361312
108	0x3c9e332c	0.01931151
109	0x3d780606	0.06055262
110	0x3e2f7455	0.17134221
111	0x3d0b0e0b	0.03394894
112	0x3d03a681	0.032141212
113	0xbe5c1e1d	-0.21495862
114	0xbd618542	-0.055058725
115	0xbcf2eb0a	-0.029653091
116	0x3de7c4ce	0.113168344
117	0xbe778053	-0.24170046
118	0xbd297c9f	-0.041378614
119	0xbd8ab0d4	-0.067720085
120	0x3dac9ea0	0.08428693
121	0x3e1c978e	0.15292189
122	0xbd0774b9	-0.0330703
123	0xbd9920bb	-0.07476946
124	0xbd658d3b	-0.05604289
125	0xbd92cc4e	-0.07167874
126	0xbd680b10	-0.056651175
127	0x3d381d16	0.044949614
128	0x3e36b0da	0.17840901
129	0xbc73cdf1	-0.014880643
130	0x3e316ad2	0.17325905
131	0x3ccee77d	0.025256867
132	0xbe01aa7b	-0.1266269
133	0x3c38f88d	0.011289728
134	0xbe07bf0b	-0.13256471
135	0x3cfce43c	0.03087055
136	0x3d226141	0.03964353
137	0x3d58dc9d	0.05294477
138	0xbd841b24	-0.06450489
139	0x3c9b03cb	0.018922707
140	0x3d246724	0.040137425
141	0xbd5bc6bd	-0.05365633
142	0xbe1ce158	-0.15320337
143	0xbc9e9afd	-0.019361014
144	0xbcd21a3b	-0.025647273
145	0xbda5ba2d	-0.08092151
146	0xbd83cfdf	-0.06436133
147	0x3de74c9d	0.1129391
148	0xbc966d78	-0.018362746
149	0x3dcf05a8	0.10108501
150	0xbcb0df52	-0.021590862
151	0x3d86dbfd	0.06584928
152	0xbe1fea90	-0.15616822
153	0x3dffc70d	0.12489138
154	0x3d493ed2	0.049132176
155	0x3e00636e	0.1253793
156	0x3d6eb3b0	0.058276832
157	0xbe1cac59	-0.1530012
158	0x3dec502f	0.11538731
159	0x3d1c47a0	0.038154244
160	0xbe59a7b3	-0.21255378
161	0x3e6073c1	0.21919157
162	0xbcb415b4	-0.021983005
163	0xbe490e8c	-0.19634455
164	0x3e288004	0.16455084
165	0x3cfad7b5	0.030620435
166	0xbcc0b89b	-0.023525527
167	0xbe26b8a5	-0.16281374
168	0x3da856aa	0.08219655
169	0xbc0a3069	-0.008434393
170	0x3dca93b2	0.09891452
171	0xbe1d0ae8	-0.15336192
172	0x3e08930f	0.13337348
173	0x3d789243	0.06068636
174	0x3d7c4df6	0.061597787
175	0xbdf2f716	-0.11863534
176	0x3db0f180	0.086398125
177	0xbe21955b	-0.15779631
178	0xbe21a698	-0.15786207
179	0x3d895fe5	0.067077436
180	0x3c249f41	0.010047735
181	0xbe409e4f	-0.1881039
182	0x3c83e476	0.01610015
183	0x3c54b4c5	0.012982552
184	0x3dd67119	0.104707904
185	0xbdd73c9e	-0.10509609
186	0x3bb88ac2	0.0056317756
187	0xbdf84c96	-0.121239826
188	0xbdb3a57f	-0.087718
189	0x3dc72948	0.09724671
190	0x3dbcfd66	0.092280194
191	0xbcb5bca2	-0.022184674
192	0xbe6717c0	-0.22567654
193	0x3e7a07bf	0.24417017
194	0xbe0d15e3	-0.1377788
195	0xbe54360f	-0.20723747
196	0x3de3703e	0.11105393
197	0xbe4a6647	-0.19765578
198	0xbe196d2d	-0.14983054
199	0x3d542cc6	0.05180051
200	0xbd00f119	-0.03147993
201	0x3ea0b3f1	0.31387284
202	0xbe3a9040	-0.1821909
203	0xbd160748	-0.036628038
204	0x3d9815cc	0.074260324
205	0xbd3a5d4f	-0.045499142
206	0x3e28659f	0.16445015
207	0xbe435463	-0.1907516
208	0x3de0fe34	0.109859854
209	0xbdaca6d0	-0.084302545
210	0xbd3c6614	-0.045995787
211	0x3de3bf93	0.11120524
212	0x3e7c4d04	0.24638754
213	0xbe8c58d4	-0.2741152
214	0x3c0e7d9c	0.00869694
215	0xbdbfa0be	-0.09356831
216	0x3c9f73e8	0.019464448
217	0x3d613dde	0.05499064
218	0x3d63780b	0.055534404
219	0xbaab25b0	-0.0013057496
220	0xbe60366a	-0.21895757
221	0x3e8f9e3d	0.28050414
222	0x3d7ef7d5	0.06224807
223	0xbec0911b	-0.37610707
224	0x3dc269a8	0.094928086
225	0x3e5ca8c7	0.21548758
226	0xbd9fbba5	-0.07799462
227	0xbbbd38ee	-0.005774609
228	0xbc73e142	-0.014885249
229	0xbe1f437d	-0.15553088
230	0xbe5e855a	-0.21730557
231	0xbdc7a06d	-0.09747396
232	0xbd1b9348	-0.037982255
233	0xbd1719a1	-0.036889676
234	0xbd1d53c5	-0.038409967
235	0xbda91c88	-0.08257395
236	0xbcfb6048	-0.030685559
237	0xbc64ad44	-0.013957325
238	0x3e19a907	0.15005885
239	0x3d80e970	0.06294525
240	0x3e1329a3	0.14371352
241	0x3d87f04e	0.06637631
242	0xbd49fbb2	-0.0493123
243	0x3cca2fc2	0.024680976
244	0xbd233823	-0.039848458
245	0x3dacad59	0.08431501
246	0x3e2c7b0f	0.16843818
247	0xbe33c18f	-0.17554305
248	0xbd01f18a	-0.03172449
249	0xbd1cdefd	-0.038298596
250	0xbdd86904	-0.10566905
251	0x3d08e1d7	0.033418503
252	0xbe666ac8	-0.22501671
253	0x3dad959e	0.08475803
254	0x3dfe05a6	0.12403421
255	0xbe86b0d7	-0.26306793

lstm.bias_ih_l1 f4 [128]
0	0xbdbe105d	-0.09280465
1	0x3e1408c5	0.1445647
2	0x3d363d30	0.044491947
3	0x3cd328ec	0.025776349
4	0xbc53837f	-0.012909769
5	0x3d979cb3	0.07402935
6	0x3e85de9f	0.2614641
7	0x3d35830f	0.04431444
8	0x3e22d125	0.15900095
9	0xbba458bc	-0.005015461
10	0x3d0fbc9e	0.03509199
11	0x3dcc2fc3	0.09970047
12	0x3d91326e	0.07089697
13	0x3e3f78e3	0.18698458
14	0xbb21b319	-0.00246734
15	0x3e06c291	0.13160159
16	0xbdca4b67	-0.09877663
17	0x3dcdd036	0.10049479
18	0x3dc49c49	0.096001215
19	0xbd139bb5	-0.036037166
20	0xbc3398f1	-0.010961757
21	0x3d53441f	0.051578637
22	0x3ddf6e2b	0.10909685
23	0x3e31b991	0.17355944
24	0x3e86bc01	0.2631531
25	0xbdd6480b	-0.1046296
26	0xbda30a4f	-0.079609506
27	0x3db69a7b	0.089161836
28	0x3ce2cd88	0.027685896
29	0x3d444304	0.047915474
30	0x3e355baf	0.17710756
31	0x3e4ec205	0.201912
32	0x3e097a6e	0.1342561
33	0xbdbff46e	-0.09372793
34	0xbd93d106	-0.072176024
35	0xbd09554b	-0.033528607
36	0x3bb9e4bf	0.0056730206
37	0x3e0088af	0.1255214
38	0xbe3594ac	-0.17732495
39	0xbe32f5ca	-0.17476574
40	0xbdf9c850	-0.1219641
41	0xbcda022e	-0.026612367
42	0xbe17ce1b	-0.14824717
43	0x3c050278	0.008118264
44	0x3d80f4a2	0.0629666
45	0xbe0d3bea	-0.13792387
46	0xbd1d0308	-0.03833297
47	0x398d718e	0.0002697822
48	0x3e2023cf	0.1563866
49	0xbdda2ef3	-0.10653486
50	0x3dc69198	0.096957386
51	0xbd76995b	-0.060204845
52	0xbe1f7eca	-0.1557571
53	0x3e076a8a	0.13224235
54	0xbe15011d	-0.14551206
55	0x3cf3cc98	0.029760644
56	0xbc686663	-0.014184567
57	0xbc73a86c	-0.014871698
58	0x3d7b9632	0.061422534
59	0xbda370f6	-0.0798053
60	0xbdcada3d	-0.09904907
61	0xbdd2ca53	-0.102924965
62	0x3e18265b	0.14858381
63	0x3d806adc	0.06270382
64	0xbd044acd	-0.032297898
65	0x3dea624b	0.11444529
66	0x3d1aac87	0.03776219
67	0xbdc571c8	-0.09640843
68	0x3e21676d	0.1576211
69	0xbe0ed597	-0.13948666
70	0x3d0d4227	0.034486916
71	0xbe065005	-0.13116463
72	0xbe11e678	-0.14248073
73	0xbdad218e	-0.08453666
74	0xbd93b5f0	-0.07212436
75	0xbdd139d4	-0.10216108
76	0x3ddba885	0.10725502
77	0xbe00a9d5	-0.12564786
78	0x3cac0b0a	0.021001358
79	0xbc93f0ea	-0.018059213
80	0x3be4181b	0.0069608814
81	0x3d850bc6	0.06496386
82	0xbda1e21d	-0.07904456
83	0x3d068563	0.03284205
84	0x3e178472	0.14796618
85	0xbc084110	-0.008316293
86	0x3d2254d6	0.039631687
87	0x3d284ca6	0.041088723
88	0xbdc8c7fb	-0.09803768
89	0xbd6c089f	-0.05762541
90	0x3e003cad	0.12523146
91	0x3ddaea19	0.10689182
92	0x3dd948f2	0.10609616
93	0xbdc39c4b	-0.09551295
94	0x3cd9b641	0.026576163
95	0xbd96c2f5	-0.07361404
96	0xbc61a2c9	-0.013771721
97	0x3d83ef65	0.06442145
98	0x3cd5279f	0.02601987
99	0xbd7f3608	-0.062307388
100	0x3debad8c	0.11507711
101	0x3e5b6424	0.2142492
102	0x3e216aad	0.1576335
103	0x3e02a0c6	0.12756643
104	0xbd1524b4	-0.036411956
105	0xbd34c6a0	-0.044134736
106	0x3e502adc	0.2032885
107	0xbd15983c	-0.036522135
108	0x3cf41fbb	0.029800287
109	0x3db451a6	0.08804636
110	0x3df8cd7f	0.1214857
111	0xbce08aa2	-0.027409855
112	0x3e1b52cc	0.15168303
113	0xbd27c5a2	-0.04095996
114	0x3d1f0e8f	0.038832244
115	0x3e2518a7	0.16122685
116	0x3e397a7d	0.18113132
117	0x3d1065ac	0.03525321
118	0x3e266044	0.1624766
119	0x3dfdf1e2	0.12399651
120	0x3e13f8bb	0.14450352
121	0x3e3560c0	0.17712688
122	0x3df4a0e3	0.11944749
123	0x3e90b86a	0.28265697
124	0x3daee442	0.085396305
125	0x3df27029	0.11837799
126	0x3e118c1a	0.14213601
127	0x3e5131d9	0.20429172

lstm.bias_hh_l1 f4 [128]
0	0x3cc5726d	0.024102414
1	0x3db910ba	0.090363935
2	0x3e169a57	0.14707313
3	0xbd594de4	-0.053052798
4	0x3dc463f9	0.09589381
5	0x3e3f2e6c	0.18670052
6	0x3d34c696	0.0441347
7	0x3bc2c477	0.0059438306
8	0x3e4b8d63	0.19878154
9	0x3d727218	0.05919084
10	0x3d895138	0.06704944
11	0x3e0242d9	0.12720813
12	0xbe02c2ec	-0.1276967
13	0x3e775732	0.24154356
14	0x3d88503c	0.066559285
15	0x3d5301b3	0.051515292
16	0x3e4d685b	0.2005934
17	0xbcfcb3ea	-0.030847508
18	0xbd50a571	-0.050939027
19	0x3d399f29	0.045317803
20	0x3d69cc07	0.05707934
21	0x3d398d2b	0.045300644
22	0x3e150b8f	0.1455519
23	0xbd66b415	-0.056324083
24	0x3e52d984	0.20590788
25	0x3e26d298	0.16291273
26	0x3c459d77	0.012061468
27	0x3e16a33a	0.14710703
28	0xbbc9f86f	-0.006163649
29	0x3dd6e36c	0.10492596
30	0x3d74fbee	0.05981057
31	0xbda05fa3	-0.07830741
32	0x3d943a92	0.07237734
33	0xbde2604b	-0.11053523
34	0xbc8befbb	-0.017082086
35	0x3dfa09c7	0.12208896
36	0xbd90ffed	-0.07080064
37	0x3d983153	0.07431283
38	0xbe2b4d1d	-0.16728635
39	0x3dfac896	0.1224529
40	0x3e5411d4	0.20709926
41	0xbdb786a9	-0.08961231
42	0xbc9a2b8a	-0.01881959
43	0x3e350a72	0.17679766
44	0xbc9f45cf	-0.019442467
45	0xbd2ae48a	-0.041721858
46	0x3d3d8899	0.046272848
47	0xbc9de450	-0.019273907
48	0xbd41667c	-0.047216877
49	0x3d00d59a	0.031453706
50	0xbdc19776	-0.09452717
51	0xbdd1c730	-0.1024307
52	0xbd84a7cc	-0.06477317
53	0x3c656740	0.0140016675
54	0x3be2ce34	0.006921554
55	0x3b84d05e	0.0040531596
56	0x3da26a74	0.079304606
57	0xbbade269	-0.005306531
58	0xbe017fb5	-0.12646373
59	0x3c235f89	0.009971508
60	0xbd83945c	-0.06424782
61	0xbdb07795	-0.086165585
62	0xbe28cfa0	-0.16485453
63	0x3dd32457	0.10309666
64	0x3d35e6f8	0.044409722
65	0xbc759fc3	-0.014991703
66	0xbe07d60c	-0.13265246
67	0xbd4eb6de	-0.050467364
68	0x3b8c2e9d	0.0042780177
69	0xba81db38	-0.0009907251
70	0xbe11c2f8	-0.14234531
71	0xbda4d9bd	-0.08049343
72	0xbd1bf1aa	-0.038072266
73	0x3e152098	0.14563215
74	0xbc0a46a8	-0.008439697
75	0x3b998034	0.0046844725
76	0x3daff791	0.085921414
77	0xbc976580	-0.018481016
78	0x3e2debad	0.16984434
79	0x3d9b1f05	0.07574276
80	0x3de06e2c	0.109585136
81	0xbdfe89c0	-0.124286175
82	0x3ddd3f78	0.10803121
83	0x3d8971c0	0.06711149
84	0x3d149fc8	0.03628519
85	0x3cece943	0.028919822
86	0x3d2ae4b7	0.041722026
87	0xbe327459	-0.17427196
88	0xbe291d2b	-0.16515033
89	0x3daf61e9	0.08563597
90	0xbcce1b46	-0.02515949
91	0xbdd0670e	-0.10175906
92	0xbe0ccf29	-0.137509
93	0x3db4db9d	0.088309504
94	0x3e237852	0.15963867
95	0xbdad72cd	-0.08469162
96	0xbdbc4d1e	-0.091943964
97	0xbd87eef2	-0.06637372
98	0x3deb4518	0.11487788
99	0x3e0223f5	0.12709029
100	0x3e3b0bd4	0.18266231
101	0x3dfacffb	0.122467004
102	0x3e7d51c7	0.24738227
103	0x3e4b3a76	0.1984652
104	0x3d2f357e	0.042775624
105	0x3e5b0735	0.21389468
106	0x3de93f51	0.1138903
107	0xbd9c8bee	-0.07643877
108	0x3e4b6b01	0.19865038
109	0x3e074633	0.13210373
110	0x3dc71d94	0.097224385
111	0x3dd64b9a	0.104636386
112	0x3e66c73b	0.22536938
113	0xbd81190f	-0.06303608
114	0x3d6fb5df	0.058523055
115	0x3e36e12a	0.17859331
116	0x3daba068	0.083802044
117	0xbc65ffc9	-0.014038035
118	0x3e019765	0.12655409
119	0x3e413e99	0.18871535
120	0x3e3d91f4	0.18512708
121	0xbda905c4	-0.08253053
122	0xbd083757	-0.0332559
123	0xbd2bea83	-0.041971695
124	0x3dd91a9f	0.10600781
125	0x3d2163ea	0.039401926
126	0xbddc877b	-0.10768028
127	0x3e4c4076	0.19946465

lstm.weight_ih_l2 f4 [128, 32]
0	0x3e481878	0.19540584
1	0xbd51eeb6	-0.051253043
2	0x3d5bbdde	0.05364787
3	0xbc014224	-0.007889304
4	0x3cb2e0f4	0.021835782
5	0xbe4f21c0	-0.20227718
6	0xbe18f096	-0.14935526
7	0xbd719668	-0.05898133
8	0x3cf0f4f7	0.029413683
9	0xbd7bbadb	-0.061457496
10	0xbdeeffcc	-0.11669883
11	0x3dee7f69	0.11645395
12	0x3d720c35	0.059093673
13	0xbe224aa8	-0.15848792
14	0xbe002de5	-0.12517507
15	0x3d9cef85	0.07662872
16	0x3dc70fdb	0.09719821
17	0xbd1fbc91	-0.03899819
18	0x3e073b14	0.1320613
19	0x3c463cd7	0.012099466
20	0xbdfcc17e	-0.12341593
21	0xbe15a9b1	-0.14615513
22	0x3d2f0076	0.04272505
23	0xbe638403	-0.22218327
24	0x3de067eb	0.10957321
25	0x3e384216	0.1799396
26	0xbd3039a1	-0.04302371
27	0x3dbd49ae	0.09242569
28	0xbe52b4c6	-0.20576772
29	0x3e0c5120	0.13702822
30	0x3d34dd94	0.044156626
31	0xbe2e176e	-0.17001125
32	0x3e0c9701	0.13729478
33	0x3dfefc72	0.12450494
34	0x3e52a615	0.20571168
35	0xbdd8e6fa	-0.1059093
36	0xbd676215	-0.056490023
37	0xbd769a34	-0.060205653
38	0xbe4acb89	-0.19804205
39	0xbd2bb49d	-0.041920293
40	0x3d1e15aa	0.03859488
41	0xbe05da6d	-0.13071604
42	0xbea20c59	-0.31650046
43	0x3cc30c2e	0.023809519
44	0xbd3b7dd6	-0.045774303
45	0x3e2a03ef	0.16603063
46	0x3a6b21be	0.00089695666
47	0x3d2ce082	0.042206295
48	0x3e38100b	0.1797487
49	0xbdafb661	-0.08579708
50	0x3e09e78e	0.13467237
51	0x3db5d90b	0.08879288
52	0x3ca07fb3	0.019592142
53	0xbe4b6067	-0.19860993
54	0xbd8d4d88	-0.068995535
55	0x3b3450c4	0.002751396
56	0x3c8a2233	0.01686201
57	0x3d1d939f	0.03847086
58	0x3e194ac3	0.14969926
59	0xbd8b5e74	-0.06805125
60	0xbd22e873	-0.039772462
61	0xbdd5db46	-0.10442214
62	0x3e2614c6	0.16218862
63	0xbe11b83c	-0.14230436
64	0xbddd1856	-0.10795657
65	0x3e374eaf	0.17901109
66	0xbc8451b9	-0.01615225
67	0xbd3b1a56	-0.045679413
68	0xbdfe6c28	-0.12422973
69	0xbcf0df40	-0.029403329
70	0x3d866868	0.06562883
71	0x3e057918	0.13034475
72	0xbd988a08	-0.07448202
73	0x3e36cfe8	0.17852747
74	0xbe1237f9	-0.14279164
75	0xbe439cdf	-0.1910281
76	0xbe08499d	-0.13309331
77	0xbc83e343	-0.016099578
78	0x3d5d9c0f	0.054103907
79	0xbd834e54	-0.06411424
80	0xbdc0ad50	-0.09408057
81	0xbe4f1a3d	-0.20224853
82	0x3d449526	0.0479938
83	0xbc0c43f5	-0.008561124
84	0x3e09bdd6	0.13451323
85	0xbddc539e	-0.10758136
86	0x3e28f62e	0.1650016
87	0x3b0a1388	0.002106877
88	0x3bc4bc3c	0.0060038846
89	0x3e06f4c3	0.13179307
90	0x3d8f14d6	0.06986396
91	0xbdbc7a11	-0.0920297
92	0xbe43a858	-0.19107187
93	0x3d9f0c9b	0.07766076
94	0x3ddd82f5	0.10815994
95	0xbc0e2c51	-0.008677558
96	0xbd38e708	-0.045142204
97	0xbdbe8de3	-0.093044065
98	0x3c8408b9	0.01611744
99	0xbe6d4225	-0.23169763
100	0x3e203370	0.15644622
101	0x3ddf926d	0.109166004
102	0x3dbb9d8c	0.09160909
103	0xbd295807	-0.041343715
104	0xbd360a89	-0.04444364
105	0x3d887e07	0.06664663
106	0x3e3d0671	0.18459488
107	0xbdc8e113	-0.098085545
108	0x3e0295da	0.12752476
109	0xbe7db59e	-0.24776313
110	0x3db793f2	0.08963765
111	0xbe0ba4a4	-0.13637024
112	0xbcafcd5f	-0.021460233
113	0x3da63e5e	0.08117364
114	0xbdb1ec6d	-0.08687673
115	0x3db0c118	0.0863058
116	0x3de719b8	0.11284202
117	0x3dde0c11	0.10842145
118	0x3e79cb6f	0.2439401
119	0x3d32ec4f	0.043682393
120	0xbd73fe3f	-0.05956864
121	0x3e775dcf	0.24156879
122	0x3bbb0aaf	0.0057080607
123	0xbd332d2b	-0.043744247
124	0xbd3beae2	-0.0458783
125	0xbd8ebfd3	-0.06970181
126	0x3e03aa7f	0.12858008
127	0xbca45882	-0.020061735
128	0xbce445d7	-0.027865333
129	0x3e74c582	0.23903468
130	0x3d89ce91	0.067288525
131	0xbcaf5e42	-0.02140725
132	0xbc61494a	-0.013750384
133	0xbe502d16	-0.20329699
134	0xbd2e8566	-0.042607687
135	0x3d0ce62e	0.034399204
136	0x3c71581d	0.0147304805
137	0x3e2d1a46	0.16904554
138	0xbe868c7c	-0.26279056
139	0xbe07e469	-0.13270725
140	0xbce12719	-0.027484464
141	0xbe496d38	-0.1967057
142	0x3e0b19f5	0.1358412
143	0x3b8d0ad3	0.004304269
144	0x3d948665	0.07252196
145	0xbdf545ed	-0.11976228
146	0xbe3bf30b	-0.18354432
147	0x3dcb544b	0.09928187
148	0xbd16af36	-0.036788188
149	0xbc6b69cb	-0.014368485
150	0x3e450571	0.19240357
151	0xbe81d3c7	-0.25356886
152	0x3e18dcc6	0.14927968
153	0x3de9aa6c	0.114094585
154	0xbbec856f	-0.007218055
155	0xbcc0a3b8	-0.023515567
156	0xbcffa5c7	-0.031206978
157	0x3c9b11d3	0.018929398
158	0x3e54d812	0.2078555
159	0xbdab3468	-0.08359605
160	0xbe2925c7	-0.16518317
161	0xbdb280f5	-0.08716003
162	0x3ceb404d	0.028717184
163	0xbe27a3f1	-0.16371132
164	0xbdbd8738	-0.092543066
165	0x3e1a7efc	0.15087503
166	0x3e31529c	0.17316669
167	0x3de4d6ae	0.111737594
168	0xbd91ede0	-0.07125449
169	0xbde64789	-0.11244113
170	0xbc5061fa	-0.012718672
171	0x3d815df8	0.06316751
172	0x3e078b7e	0.13236806
173	0xbd82c1c4	-0.06384614
174	0xbde04ee6	-0.10952549
175	0x3e41e73d	0.18935867
176	0x3da14b7e	0.07875727
177	0xbd927d38	-0.0715279
178	0xbe0c96fb	-0.1372947
179	0x3db5c9e3	0.088763975
180	0xbe00f099	-0.1259178
181	0xbdd0a664	-0.101879865
182	0xbda864bb	-0.08222338
183	0xbdd3fe64	-0.103512555
184	0xbdcc3dc2	-0.09972717
185	0xbe03e70f	-0.1288111
186	0x3ded2343	0.11578991
187	0x3dd97101	0.10617257
188	0xbe17f3cd	-0.14839096
189	0x3e144a07	0.14481364
190	0xbe019659	-0.1265501
191	0x3d8e9089	0.06961162
192	0xbdd33fb0	-0.10314882
193	0x3e06b350	0.1315434
194	0xbdb81a05	-0.08989338
195	0xbe3eb595	-0.18623956
196	0xbe0af909	-0.13571562
197	0xbdeb59b4	-0.11491719
198	0xbd7cbcef	-0.06170362
199	0xbdd04b1f	-0.10170578
200	0x3ddfbce9	0.10924704
201	0xbdc61acb	-0.09673079
202	0x3e140d0c	0.14458102
203	0x3ddfd0f0	0.109285235
204	0xbdfe0c04	-0.124046355
205	0x3dca3530	0.09873426
206	0x3de77df1	0.11303318
207	0xbe19b7fc	-0.1501159
208	0xbd464924	-0.048409596
209	0x3c606504	0.013695959
210	0xbd500db0	-0.050794303
211	0x3e0c450e	0.13698217
212	0x3e4a7026	0.19769344
213	0x3ca43863	0.020046419
214	0xbda12dfd	-0.078701
215	0xbddded5e	-0.1083629
216	0xbd9b7f5e	-0.07592653
217	0x3e037c27	0.12840329
218	0x3e3d322f	0.18476175
219	0x3e2b3c5e	0.16722247
220	0x3db585ba	0.08863397
221	0xbccd4f3c	-0.025062196
222	0xbd49307d	-0.049118508
223	0xbd91c106	-0.071168944
224	0x3c614c0e	0.013751043
225	0x3db14ce8	0.08657247
226	0xbace1f05	-0.0015725797
227	0x3d91d85d	0.07121346
228	0xbd9c9eeb	-0.07647499
229	0x3cb55f4d	0.02214017
230	0x3d560528	0.05225101
231	0xbd803036	-0.062591955
232	0xbdf0d828	-0.117599785
233	0xbd8de165	-0.06927756
234	0x3d50f0f2	0.051011033
235	0xbd90f922	-0.07078768
236	0x3dc9928c	0.09842405
237	0xbdccfb33	-0.1000885
238	0x3db8d5e1	0.09025169
239	0xbc250ef2	-0.010074364
240	0xb90db75b	-0.00013515113
241	0x3df35658	0.11881703
242	0x3dc04f94	0.09390178
243	0xbc849297	-0.01618318
244	0xbd18083f	-0.03711724
245	0x3d8a777f	0.06761073
246	0x3dc7fef3	0.097654246
247	0xbd9b77aa	-0.075911835
248	0xbc812914	-0.015766658
249	0x3dba4e44	0.09096959
250	0x3dc41e86	0.095761344
251	0xbc382e0d	-0.011241448
252	0xbe01e292	-0.12684086
253	0xbdbeff74	-0.093260676
254	0x3c305621	0.010762722
255	0x3d5e10f8	0.0542154
