model_params/full_model.pth (torch, 99768 bytes, 17 tensors)

lstm.weight_ih_l0 f4 [128, 7]
000000 0f 6c 95 be f2 77 78 3d 62 71 ea 3e 6f 3e b0 be
       -0.29184005 0.060661264 0.4578963 -0.34422633
000010 df 0b ea 39 d8 28 20 be f0 65 b6 3c 00 5d 1d 3d
       0.00044640803 -0.1564058 0.022265404 0.03841877
000020 80 44 d3 bd 25 18 7c be 8b d7 58 bb 0c 5b 45 3c
       -0.103158 -0.24618585 -0.0033087458 0.012045633
000030 17 3c 8a 3e 62 79 2e 3e ea 34 0d 3d f2 82 0a 3a
       0.2699897 0.17038491 0.03447429 0.00052837946
000040 59 35 c6 3e 04 1f 5a 3d 50 76 2c 3e ca 88 26 be
       0.38712576 0.053252235 0.16842008 -0.16263118
000050 9a 16 6b 3e 9d ed f5 bd 97 33 89 3c d4 ae fc bd
       0.2295784 -0.12008212 0.016748233 -0.12338033
000060 aa 92 33 be 0d e6 55 bc c4 2e 0b be 3e 92 b4 3d
       -0.17536417 -0.013055337 -0.13592058 0.08816956
000070 c1 ca 0f 3e de a0 83 bd b7 da 80 3f 4a 5f 02 be
       0.14042188 -0.06427167 1.0066746 -0.12731662
000080 29 c3 32 3e ed 1e 9c bd 54 f6 ce 3c 8e f2 d1 3d
       0.1745726 -0.07623086 0.025263943 0.10251342
000090 88 87 96 bd 35 e1 1f be 05 a8 92 bc db b5 8d bd
       -0.07350069 -0.15613253 -0.017902384 -0.06919452
0000a0 aa ac 0d 3e 97 a2 0d be e4 9f 03 be db fd e7 3d
       0.13835397 -0.13831554 -0.12853962 0.11327716
0000b0 4a cd 7b 3e b6 56 da 3d 7a b5 b0 3e 63 93 de 3d
       0.2459003 0.1066107 0.34513456 0.108679555
0000c0 a5 14 2d 3e f3 7c 48 bd 18 28 10 be b9 de 27 3f
       0.16902407 -0.048947286 -0.14077795 0.6557422
0000d0 65 c3 2c be 07 8b f1 3d 03 5c 0e be 02 09 01 3e
       -0.16871412 0.117940955 -0.13902287 0.12601092
0000e0 42 07 84 3e 88 21 ef 3d 64 a2 7c 3e 6f ac cc 3e
       0.25786787 0.116763175 0.24671322 0.39975306
0000f0 ae 63 02 3e 6a 90 b9 3e f0 a3 a8 be 1d 7e f9 3c
       0.12733337 0.36242992 -0.32937574 0.030455643
000100 fe 27 89 be ca 86 2a be 5f 8b 67 3e a6 b3 06 3d
       -0.26788324 -0.1665298 0.2261176 0.03288617
000110 30 fe 7a 3e 00 80 35 3e 06 de fc 3d fd 47 37 3e
       0.24511027 0.1772461 0.12347035 0.17898555
000120 03 e8 8c 3f 2a 3a 8b 3d 78 a7 8d 3c be 21 76 be
       1.1008304 0.06798203 0.01729177 -0.24036309
000130 c6 af b2 3d cb a9 9a 3e d9 e7 d2 bb 4d 91 ce 3d
       0.087249324 0.30207667 -0.00643633 0.10086308
000140 29 ea 8b 3e 5b a9 6a bd 3d 38 72 3e bc cb 8f 3d
       0.27327088 -0.057290416 0.23654266 0.07021281
000150 bb 4c 64 be cd b7 37 bd 08 e3 c5 3e f3 18 d1 bd
       -0.22294895 -0.04485302 0.38649774 -0.10209837
000160 54 51 ce bd c1 e1 63 3e 40 93 4d be 9f 7c 12 be
       -0.10074106 0.22254087 -0.20075703 -0.14305352
000170 81 d7 4f 3d 2a 7d e8 bc e3 44 c1 3d c2 9d 13 3d
       0.05074263 -0.028379995 0.09436967 0.03603912
000180 05 fe 70 3e bf 0b c3 bd 9c 6a fd bd 16 f8 23 be
       0.23534401 -0.09523725 -0.1237385 -0.16012606
000190 4a 3c 92 bc 6d 6a 65 be 3a fc 05 3d 91 06 63 be
       -0.017851014 -0.2240388 0.032711245 -0.22170474
0001a0 a1 85 75 be 0d 4c 80 be 90 41 c8 3e 69 b2 33 bf
       -0.23976757 -0.25058022 0.3911252 -0.7019411
0001b0 19 15 73 be 1d 53 59 3e 2c 9c 2c 3e bb 4d ad 3d
       -0.23738517 0.21223111 0.1685645 0.084620915
0001c0 d7 8d 29 3d 89 d4 10 be da 59 0a be 98 ad f5 3d
       0.041395035 -0.14143576 -0.13510838 0.11996001
0001d0 f1 28 6b bd 60 dc a5 3c 4d c1 18 be a1 f2 10 3e
       -0.05741209 0.020246685 -0.14917488 0.14155056
0001e0 92 be c0 bd 80 4a e0 3c 33 61 27 3e d1 19 8a bd
       -0.094113484 0.027379274 0.16345672 -0.06743205
0001f0 9d e3 17 3e 41 40 5b 3e de b7 af 3c 81 80 5b bc
       0.14832921 0.2141123 0.02144998 -0.013397337
000200 fd e2 1e 3e 43 ba 95 3e 66 d4 7b be c1 22 29 be
       0.15516277 0.2924367 -0.24592742 -0.16517164
000210 03 54 8b bc 09 4c 7f bd 9d d9 21 3d 98 4a 31 bf
       -0.017007833 -0.062328372 0.039514173 -0.69254446
000220 71 aa 4d be 98 a7 60 3e 19 a2 bd 3e bc 0c 08 3f
       -0.2008455 0.21938932 0.37037733 0.5314443
000230 34 88 30 3d e0 20 47 bd 98 d8 23 3f 0b 36 5f 3e
       0.043098643 -0.048615336 0.6400237 0.2179796
000240 22 ff 60 bd b0 02 a4 3e 33 22 63 bd 0a 12 8f be
       -0.054930814 0.320333 -0.055452537 -0.2794345
000250 06 b5 1e 3e 00 cf 54 be eb f4 81 be 25 eb 82 3e
       0.15498742 -0.20782089 -0.2538217 0.25570026
000260 f9 45 bb bc cc 8a d4 3d 1c 87 66 3e c7 d6 b7 3b
       -0.022860514 0.10378036 0.22512478 0.0056103203
000270 e2 f5 bf 3e 88 20 16 3e 4b ed 68 3e 73 11 b6 3b
       0.3749228 0.14660847 0.2274677 0.0055562793
000280 0a 3d 21 be ac 8e 5f 3e b1 80 16 3e 85 52 d3 3e
       -0.15745941 0.21831769 0.1469753 0.41273895
000290 a0 fb a8 bd f4 6a 59 bd 8b 63 c0 3d 78 70 51 3e
       -0.08251119 -0.053080514 0.09393986 0.2045306
0002a0 d6 2b 17 bd e1 2e 6c bd 2c db c2 3e c8 9f d9 bd
       -0.03690704 -0.057661895 0.3805784 -0.10626179
0002b0 c3 06 92 bd cc 29 60 be 5c 8a 66 bd 86 97 91 be
       -0.07130196 -0.21890944 -0.056284294 -0.28435916
0002c0 ff 92 02 bd 19 eb 6d 3e 96 1d cd be 78 f5 63 3d
       -0.031878468 0.23234214 -0.40061635 0.05565402
0002d0 84 6b 64 bd ce 37 57 bd 04 5c 89 3e c7 b7 eb bd
       -0.055766597 -0.052543454 0.26828015 -0.11509662
0002e0 7d 43 45 be 49 70 2c 3e a3 84 1c 3e 01 95 6b 3e
       -0.19264026 0.16839708 0.15284972 0.23006059
0002f0 7e 9d 96 3d 79 43 ba 3c 55 29 85 bd dd b2 88 be
       0.07354258 0.022737252 -0.06502024 -0.26698962
000300 06 64 7f bd f9 67 95 be b2 c2 e9 3c 3a 96 7a bd
       -0.06235125 -0.29180887 0.02853522 -0.061178423
000310 b2 10 1c be 19 07 ce bd ae 70 fb bd ee 23 4e be
       -0.15240744 -0.100599475 -0.12277351 -0.20130894
000320 5c 6a b9 3d 4d 81 ea bd 07 3c 30 3d 3e e6 42 3e
       0.090534896 -0.114504434 0.043025997 0.19033143
000330 77 a2 39 be 09 9e 83 3c 37 6e b1 3e 30 6e db bc
       -0.18128382 0.016066568 0.346544 -0.02678594
000340 44 5f fd 3e 73 f3 46 bd e2 3f 12 be de 0b 7c be
       0.49486744 -0.048572015 -0.14282182 -0.24613902
000350 f9 2d fc 3e 6a d0 11 3e a5 43 73 be ec d5 6e be
       0.49253824 0.1423966 -0.23756273 -0.23323792
000360 e0 94 b2 3d 89 80 93 3e dd fc 9a bc 60 59 6e 3f
       0.08719802 0.28809002 -0.018919403 0.93105125
000370 c6 49 1c 3e d3 c3 ff 3d 95 7c 04 3e 81 ab 27 bd
       0.15262517 0.124885224 0.1293815 -0.040935043
000380 ed a9 94 be 85 7b bc 3d e1 23 a0 be 8e 5b ca bd
       -0.29035893 0.09203247 -0.31277373 -0.09880744
000390 4e e5 bc bd 4a e5 e6 3e a6 ce f9 3d d7 1c c1 be
       -0.09223424 0.4509681 0.12197618 -0.37717316
0003a0 66 c3 64 be 94 50 e2 3e 7e d9 d6 be aa ba 82 3d
       -0.22340164 0.442021 -0.41962808 0.063832596
0003b0 fa c7 98 be 75 f5 05 be 90 dc 18 3e 86 bd 7b 3a
       -0.2984007 -0.13081916 0.14927888 0.00096031313
0003c0 a6 81 ee 3e da 86 05 3a 87 7e 83 be f3 a1 3c bd
       0.4658329 0.0005093642 -0.2568247 -0.046052884
0003d0 4d aa 39 be 18 f6 83 3c c3 7d 19 3e cb f3 67 be
       -0.18131371 0.016108558 0.1498938 -0.22651593
0003e0 73 5b 33 be ef bb 35 3e ac 46 1e 3e 4a 58 2c 3e
       -0.17515354 0.17747472 0.15456647 0.16830555
0003f0 a9 a7 b5 bd aa db 92 bd 0c 2a cc bd 14 ed f8 bd
       -0.08869869 -0.07170804 -0.09968957 -0.12154594

lstm.weight_hh_l0 f4 [128, 32]
000000 dc c9 2a 3f c8 66 4d bf 99 71 f9 bd d0 e6 4a be
       0.6671426 -0.80234957 -0.1217987 -0.1981461
000010 f3 e6 8e be f3 16 b3 3c 4c 89 c9 3e 76 1f dc 3b
       -0.27910575 0.021861529 0.39362562 0.0067176176
000020 53 9c 46 bf 09 70 b0 bf f2 91 4e 3c 6b fb cc bd
       -0.7758228 -1.378419 0.012608038 -0.10008892
000030 9e f3 11 bf 19 f1 68 3d df 34 18 bc 44 38 8a 3e
       -0.57012355 0.056870554 -0.009289949 0.26996052
000040 27 08 39 3f 2c 72 2e bf c8 f9 8f 3f 22 90 87 bd
       0.72278064 -0.6814296 1.1248102 -0.06619288
000050 91 dc ad bd 29 a5 06 bf 38 1f 5a be e9 36 83 bf
       -0.08489335 -0.52595764 -0.21300972 -1.0251132
000060 41 c9 54 be 3f db 22 3f 54 b3 51 be 6d f5 72 3d
       -0.20779897 0.63615793 -0.20478565 0.059316088
000070 e8 27 df 3d 5e 5e e6 3d fd 97 86 be 98 fa ea 3d
       0.108962834 0.11248468 -0.26287833 0.11473578
000080 5b 6a ba 3e 6d 86 d2 bd 18 de d2 bd a4 24 76 3e
       0.36409268 -0.10279546 -0.10296267 0.24037415
000090 23 9a 10 be b1 80 0a 3f 93 a3 f2 bd 34 ea 2b be
       -0.14121298 0.5410262 -0.118476056 -0.1678856
0000a0 7b 7d 98 3e dc 97 ee 3e 7f 10 cb 3e 4e b8 f4 3e
       0.29783234 0.46600235 0.39661023 0.47796863
0000b0 3d a7 85 bd 99 89 2a 3e 0d 35 8c be af c9 27 be
       -0.06526039 0.16654052 -0.27384225 -0.1638553
0000c0 3d 35 65 be 38 12 0c 3f 7c a2 dc be 57 5f 15 3d
       -0.2238359 0.547153 -0.43092716 0.036467876
0000d0 55 49 ec 3d 86 51 dd 3d e2 9b 87 bd 9a 9b 8a 3e
       0.115374245 0.10806565 -0.06621529 0.2707184
0000e0 3a ed 4b 3d 59 0a 61 3d c3 24 8e bd 27 8d 9c bc
       0.049786784 0.05494151 -0.069406055 -0.019110275
0000f0 85 b9 4b 3e 7d 72 a8 be d1 a1 13 3d 5d ba 54 bf
       0.19894989 -0.32899848 0.036042992 -0.8309687
000100 d3 cd 41 be eb d0 ef bd b4 a7 52 3e 0b 86 68 be
       -0.18926172 -0.1170977 0.20571786 -0.22707383
000110 d4 23 87 3e 6e 35 35 be 29 0f ae 3e b0 ab 86 bd
       0.26394522 -0.17696163 0.3399594 -0.065757155
000120 19 b3 29 3e de 0a 92 bd 6a 74 d0 bd c6 b1 0d 3e
       0.16572227 -0.07130979 -0.10178454 0.13837346
000130 3f e9 1b be f7 96 0f be cf 05 d8 3d 42 49 94 3e
       -0.15225695 -0.14022432 0.10547983 0.2896214
000140 b4 33 40 3e 78 90 da be 67 e0 bb 3e 83 cf 88 3e
       0.18769723 -0.42688346 0.36694643 0.2672082
000150 85 4b 8a 3e c9 da 00 be d9 e3 af bd 3f 1f 76 be
       0.27010742 -0.1258346 -0.0858838 -0.24035357
000160 35 83 af be ca 05 e3 bc 55 d6 5a 3e f3 5e c6 bd
       -0.3427979 -0.027712721 0.21370824 -0.09686079
000170 e2 86 a5 3d 80 7c 61 3e 63 2c 9b bd a7 da 3c bc
       0.080823675 0.22020149 -0.075768255 -0.01152674
000180 35 df b4 be 32 ab ee be aa 10 00 bf ce c5 bb bc
       -0.35326543 -0.46614987 -0.5002543 -0.022921469
000190 36 39 62 3e 4c 85 38 3e b7 f4 98 3d d0 7d 53 3d
       0.22092137 0.18019599 0.07468551 0.051633656
0001a0 52 b8 6b bd c1 ce 0f 3e 28 61 ab bb 9d e8 89 3e
       -0.05754883 0.14043714 -0.005230088 0.26935282
0001b0 7b 1e 13 3f e3 09 0f be fa 33 b6 be a2 ce 75 bc
       0.57468385 -0.13968615 -0.3558653 -0.015002878
0001c0 ec 73 a4 3d 81 31 13 3e f2 a9 29 bd 15 e4 01 be
       0.08029923 0.14374353 -0.041421838 -0.12684663
0001d0 bd 89 41 3e 9b b9 bb 3d 13 49 61 be d0 9f 16 be
       0.18900199 0.09166261 -0.22000532 -0.14709401
0001e0 81 f2 13 be 8a b4 6c 3d a3 51 87 3d b9 71 53 be
       -0.14447977 0.057789363 0.06607368 -0.2064885
0001f0 10 bc 8e be 95 5a 9e bd 52 3a 10 3e e2 19 d1 be
       -0.27877855 -0.07732121 0.14084747 -0.4084006
000200 3f e5 93 be 55 fa 14 3e fa bc 9a be d5 50 41 be
       -0.28885838 0.14548619 -0.30222303 -0.18878491
000210 b1 ff 91 3d f2 a7 5f 3d f0 ae 1c 3e a9 53 e5 bd
       0.071288474 0.054603525 0.15301108 -0.111975975
000220 8e 7d 91 3e c5 c5 02 3e b7 29 e6 3e 14 ba af 3e
       0.28416103 0.12770756 0.449537 0.34321654
000230 c0 12 c5 3d e9 c7 0a 3e 6e ba e9 be 4f 0d 32 be
       0.09622717 0.13552822 -0.45650047 -0.1738789
000240 07 fb 9d 3e 9c 37 51 3f 65 ec 6c 3c 9d 6d 38 be
       0.3085558 0.8172548 0.014460658 -0.18010564
000250 47 0e ee 3e c4 fc bb 3e 05 69 e3 3d 0e f9 86 be
       0.46495268 0.36716282 0.11104015 -0.2636189
000260 5a 7b 25 bf 8e e9 b1 3d 60 ef 6d be 0c a0 4c bf
       -0.64641345 0.08687125 -0.23235846 -0.7993171
000270 9b fc 27 be 1a e6 be be b5 ab be 3e e0 12 37 bf
       -0.16404955 -0.3728493 0.37240377 -0.71513176
000280 46 b6 f4 be fd 96 ed be f2 ab 15 bf 8b 99 97 be
       -0.47795314 -0.46404257 -0.5846549 -0.2960933
000290 96 92 8f 3e 0c a2 cc bd b0 a2 44 3d d3 a2 6f be
       0.28041524 -0.099918455 0.048006713 -0.23401956
0002a0 37 09 1e be 62 2f 84 3e a0 c2 45 3e f4 10 2d 3f
       -0.15433203 0.258174 0.19312525 0.67603993
0002b0 f6 00 8f 3e 44 be 79 be d3 7c 47 be 30 6c 26 3c
       0.2793042 -0.24388987 -0.1948121 0.01015763
0002c0 39 97 5b be ea 92 79 3e 3c ac 9c bd 75 00 91 3e
       -0.21444406 0.2437245 -0.076500386 0.2832066
0002d0 65 9b 25 3d 7c 00 a4 3e 21 07 85 bd f4 d8 e6 3e
       0.0404314 0.3203162 -0.064955 0.45087397
0002e0 12 f0 a3 be 07 97 83 bd 69 2b d6 3e 06 39 b2 be
       -0.32019097 -0.064252906 0.41829994 -0.3480913
0002f0 47 25 c6 bd 4d 89 51 3e f8 32 01 3e 67 28 8e be
       -0.09675079 0.20462532 0.126171 -0.277652
000300 88 ec fc bd 62 a6 53 be ef 76 bf 3e 7b fe c3 bd
       -0.12349802 -0.20668939 0.37395427 -0.09570023
000310 9c 6d 71 bd 9b f8 64 be 69 57 bd bb 1e 7f e6 3d
       -0.058942422 -0.2236046 -0.0057782424 0.112547144
000320 77 66 88 3e 9a aa 59 be 3c 21 bb 3d d8 ba dc 3e
       0.26640674 -0.21256486 0.09137198 0.431113
000330 6e 28 64 bd f2 01 82 bc 54 e4 9f bb 18 21 00 bd
       -0.05570262 -0.015870068 -0.0048795138 -0.03128156
000340 b0 35 dd 3e aa f0 ab 3d e6 3a a6 3c 5a 85 ae be
       0.43205023 0.083955124 0.020291757 -0.34086114
000350 3b 80 64 3e 2e 65 2c 3d f4 ed a8 39 0b 0a c6 be
       0.22314541 0.04208868 0.00032220746 -0.38679537
000360 71 5b ab bd 06 11 c6 be e6 b9 45 be aa 67 c5 3d
       -0.083670504 -0.38684863 -0.19309196 0.09638913
000370 5c 01 71 be 06 b4 89 be e1 c1 0f bf 89 df 95 be
       -0.23535675 -0.2689516 -0.5615521 -0.29272106
000380 1a 69 37 be d3 c9 57 bf 32 2e 58 be a6 b8 5a 3e
       -0.17911187 -0.84292334 -0.21111372 0.213595
000390 0c d0 40 3e b0 e7 d2 3d ba 14 08 3f 40 37 9f bd
       0.18829364 0.10298097 0.53156626 -0.0777421
0003a0 71 7b 08 bf a2 80 be be 35 d3 b3 3d 73 6b 02 3d
       -0.53313357 -0.37207514 0.08780519 0.031840753
0003b0 d0 b3 05 be 48 21 e1 bc 95 59 ef be 68 db c6 3c
       -0.13056874 -0.02748169 -0.46748033 0.024274543
0003c0 25 08 3a 3c be 43 59 bd 07 90 3e 3e 28 b4 89 3d
       0.011354481 -0.05304312 0.1860963 0.06723815
0003d0 14 60 16 be 02 a8 f1 bc 26 16 b3 3d 7f 78 fc bd
       -0.14685088 -0.029499058 0.08744459 -0.1232767
0003e0 99 0b 41 be bb b0 4d 3e ce c8 16 be 35 e6 03 bf
       -0.1885208 0.20086949 -0.14725038 -0.51523143
0003f0 9d ff 92 3e 27 21 f3 3c 08 09 a1 3e 7b c7 65 3e
       0.28710642 0.029678894 0.31452203 0.22439377

lstm.bias_ih_l0 f4 [128]
000000 c7 42 20 3f 3d 9b d7 bd 7d 9e 1e 3d 13 4e 68 3e
       0.62601894 -0.10527656 0.038725365 0.22686033
000010 85 41 6f 3f 25 29 ef 3b da bd da 3e 00 a9 c8 3e
       0.9345935 0.007298606 0.4272297 0.39191437
000020 d8 6f d3 3e 63 c3 c3 bd 06 58 2e 3f 70 c3 81 3e
       0.41296268 -0.095587514 0.68103063 0.2534442
000030 62 c9 93 3e cc 84 2e bd ad 32 07 3e 24 8d 51 3e
       0.2886458 -0.042607114 0.13202925 0.20463997
000040 ea e9 bf 3d 05 3e 98 3e c9 7f 1a be 4d e2 6f 3d
       0.093707874 0.29734817 -0.15087809 0.058565427
000050 55 d4 33 3d 02 0e 4e 3d db 8b a6 3d b0 8f f1 bd
       0.043903667 0.050306328 0.08132144 -0.11794984
000060 93 b0 80 3e 51 6c f0 3e a0 d3 60 3e b5 ae a0 3e
       0.25134715 0.4695764 0.21955729 0.3138329
000070 8a 19 c2 3d 5c a3 a3 3e 02 f8 98 3e cd dc 15 3f
       0.094775274 0.3196057 0.29876715 0.5854004
000080 d2 12 c9 be 80 56 ea 3e 8f b3 49 3d f6 47 ba 3e
       -0.3927217 0.4576912 0.049243506 0.36383027
000090 cb 97 16 bf 05 28 80 3e f3 07 e6 be 58 be 41 be
       -0.5882537 0.25030532 -0.4492794 -0.18920267
0000a0 70 87 6b be 61 d7 82 bd c7 da 1a bf 57 25 14 bf
       -0.23000884 -0.063887365 -0.6049008 -0.57869476
0000b0 2f d8 e7 be b8 60 4a 3d fa 72 1f be a2 d0 2c be
       -0.45282122 0.049408644 -0.15571204 -0.16876462
0000c0 e2 3e d8 3d bf c6 46 3c d6 b2 35 be d0 3a c7 bd
       0.10558869 0.012132346 -0.17744002 -0.097280145
0000d0 c4 07 ca be 1e 3b a3 bc fd fe d5 be 8a aa 5a 3e
       -0.3945905 -0.01992565 -0.41796103 0.21354118
0000e0 e1 57 f6 be 69 bf 36 bf 60 6e 0d be 22 81 d2 bc
       -0.4811392 -0.7138582 -0.13811636 -0.025696341
0000f0 e3 99 72 be f7 13 88 be 50 6f 45 bf 00 c8 11 bf
       -0.23691516 -0.26577732 -0.77122974 -0.569458
000100 22 8b 7b 3e 2b f2 6f be f7 0d a1 bc 8c e5 c8 3e
       0.24564794 -0.23432223 -0.01965998 0.3923763
000110 2f b9 d9 3d 2a 22 83 3e 11 f0 b7 be bd 74 03 be
       0.10631024 0.25612003 -0.35925344 -0.12837501
000120 9a c1 9d be 7a d0 da bd 9f 79 11 3e d1 f9 79 be
       -0.3081177 -0.10684295 0.14206551 -0.24411704
000130 5f 8c 51 bd 03 cf 88 bd 74 d7 73 3e 65 0e 99 be
       -0.05115926 -0.06680109 0.23812658 -0.29893795
000140 c5 15 9a 3b dc 06 44 3e de a8 05 bd 1f 4f ed be
       0.004702302 0.19143242 -0.032631747 -0.46349427
000150 17 c6 1b be 1a f2 c0 3e 08 7e ec 3d d9 d2 9c bd
       -0.15212284 0.3768471 0.11547476 -0.076574035
000160 1e 27 78 3d b6 c7 48 3e 3a 4e 69 be bc 86 2f 3e
       0.06058418 0.19607434 -0.22783747 0.17141241
000170 e6 d0 7d 3e 0c e0 b7 3c b2 05 b6 bc 04 d2 f9 3d
       0.2478672 0.022445701 -0.022219513 0.121982604
000180 1e 6c 93 3f 84 27 f6 3d 6c 2e 5c 3e e6 db 5d 3e
       1.151737 0.12019256 0.21502084 0.21665916
000190 8d 5d 70 3f 47 ce 87 3e 4d 8a a9 3e 1e 43 8a 3e
       0.9389275 0.26524565 0.33113328 0.2700433
0001a0 69 43 7e 3f cd c0 d7 3d 69 11 55 3f 07 bb b5 3e
       0.9932161 0.10534821 0.8322969 0.35494253
0001b0 0f b1 6b 3e bc d5 66 bd b2 90 34 3e c9 69 01 3f
       0.23016761 -0.056356177 0.17633322 0.5055204
0001c0 02 2c a2 3e 6b d1 84 3e cd b1 05 be 0f c0 e4 3e
       0.316742 0.25941023 -0.13056107 0.4467778
0001d0 2f 32 40 3e ae 6e c3 3e bb 06 5a 3c 8b ff 1d 3f
       0.18769144 0.3817038 0.013307269 0.6171805
0001e0 45 e2 de 3e 25 26 ea 3e 51 71 d1 3e 09 00 87 3e
       0.43532005 0.45732227 0.40906766 0.26367214
0001f0 cb b5 8f 3d 8c f6 9f 3e 4a c6 2c 3e 58 d2 5c 3f
       0.07017096 0.31242788 0.16872516 0.8625846

lstm.bias_hh_l0 f4 [128]
000000 8c b2 27 3f ba 2f df bd cb fe d7 bd 33 e1 ab 3e
       0.65506816 -0.10897775 -0.10546645 0.3357025
000010 fb e2 62 3f 24 35 1c 3d 9e 8b a0 3e 9b 74 c0 3e
       0.88627595 0.038136616 0.3135652 0.37588963
000020 c0 58 ba 3e 58 cc 35 3d b3 55 4d 3f 12 59 5f 3e
       0.36395836 0.04438433 0.8020889 0.21811321
000030 bf 82 86 3e 7f 07 84 bd 5b 4d fe 3d 00 81 2c 3e
       0.26271626 -0.06446742 0.12417098 0.16846085
000040 f2 d0 85 3d 13 09 07 3e e6 ee 46 be 73 3a 23 3d
       0.06533994 0.13187055 -0.1942707 0.039850663
000050 1c f4 98 3e ad 81 17 be 02 48 64 3e 35 92 eb bd
       0.2987374 -0.14795561 0.22293094 -0.11502496
000060 fb 88 87 3e c2 02 2a 3f a7 95 67 3e 00 08 9d 3d
       0.26471695 0.6641046 0.22615682 0.076675415
000070 37 7b cb bc d0 c4 a2 3e 52 ef a3 3e 3e f0 fc 3e
       -0.024839027 0.3179078 0.32018524 0.4940204
000080 b6 cb bc be 0f 01 19 3f 34 2d 29 be 98 b5 78 3e
       -0.3687417 0.5976724 -0.1652115 0.24288023
000090 a8 c8 2e bf 55 f4 c7 3e 6e a8 13 bf 30 34 b5 be
       -0.6827493 0.39053598 -0.5767888 -0.35391378
0000a0 13 34 9b be 2c 9a e3 bd e5 69 2f bf b4 68 ca be
       -0.30313167 -0.1111339 -0.6852096 -0.39533007
0000b0 a8 35 18 bf ea 58 29 3a c5 62 9d bd 0a b5 9a bb
       -0.5945687 0.00064600876 -0.076848544 -0.0047212886
0000c0 3d 90 92 3d b6 e5 48 3e 91 66 c7 bd 2b 1e 56 bd
       0.071564175 0.19618878 -0.0973636 -0.052274864
0000d0 10 75 3e be ab 36 bf bd 91 1c 96 be dd 44 b6 3e
       -0.18599343 -0.09336599 -0.2931867 0.35599414
0000e0 66 4e 04 bf 3f 41 2e bf dc b8 6e be fb ef 9d bc
       -0.51682127 -0.6806831 -0.23312706 -0.01927947
0000f0 00 07 db be d8 ec 74 be 51 26 4c bf a0 e2 0f bf
       -0.42778778 -0.23918474 -0.79745966 -0.5620518
000100 0d d3 ce bc 36 e9 40 be cb 13 18 3e b1 2c 19 3e
       -0.025247121 -0.18838963 0.148513 0.14958455
000110 a4 1b 3e be 78 c6 7c 3e e7 d2 5e be af 9d a9 be
       -0.18565232 0.24685085 -0.2176014 -0.33128116
000120 da 80 3b be 40 d5 b0 be 72 43 e8 bd e4 36 36 bc
       -0.18310872 -0.34537697 -0.11340989 -0.011121485
000130 1a 2a 76 bd e7 4c 50 3e 68 4a 66 3e 24 82 1f be
       -0.060098745 0.20341836 0.22489321 -0.15576988
000140 09 b9 70 bc bd ab 36 3e 38 e4 66 3e 96 bd 86 be
       -0.014692553 0.1783895 0.22547996 -0.26316518
000150 b4 ff 47 be df bd 47 3e af e9 af 3e 82 2b 7a be
       -0.19531137 0.19506024 0.34357974 -0.2443066
000160 02 ad a8 3d 38 9b bb 3e 2a fe 94 be 65 9a 6c 3e
       0.082361236 0.3664186 -0.29100162 0.23105772
000170 0f c4 b0 3e 37 e1 8f 3e b9 a5 18 be 1e fd 56 3d
       0.3452458 0.28101513 -0.14906968 0.052487485
000180 72 12 99 3f 25 7f b2 3e 97 5d cc bd 70 a5 18 3d
       1.1958754 0.3486263 -0.09978788 0.03726715
000190 31 18 6a 3f aa 2b 09 3f dd ce cf 3e 89 97 b3 3e
       0.91443163 0.5358225 0.40587512 0.3507655
0001a0 f5 7d 7a 3f 5f 1d da 3d 6d 14 41 3f 37 45 4e 3e
       0.97848445 0.10650133 0.7542179 0.20143591
0001b0 ed c2 82 3e 1b 47 29 3e 6b fb 62 3e d3 8d cc 3e
       0.25539342 0.16531031 0.22166221 0.39951953
0001c0 ee 4d 03 3f 6d 76 33 3e d8 4e c2 be 66 86 eb 3d
       0.51290786 0.17525645 -0.37950778 0.11500244
0001d0 2e 76 64 3e 67 bc ab 3e 09 9d da 3d f7 57 0b 3f
       0.22310707 0.33542177 0.10674483 0.544311
0001e0 c0 ca 96 3e 96 df a6 3e b3 a1 e0 3e 54 98 89 3e
       0.2945156 0.32592458 0.43873367 0.2687403
0001f0 33 ae 7a 3e e3 ff b7 3e 66 b2 c3 3e 28 1e 41 3f
       0.24480514 0.35937414 0.38222045 0.7543664

lstm.weight_ih_l1 f4 [128, 32]
000000 9e 5f 6d 3d 46 6c 40 3f 7f 62 b7 ba 22 61 a0 be
       0.057952516 0.7516521 -0.0013991146 -0.31324106
000010 c1 a2 47 be 02 09 2c be f8 1a 80 3e 62 0b aa 3e
       -0.1949568 -0.16800311 0.25020576 0.3321181
000020 5b 32 49 3e 58 5c c7 3d 3d 20 cc 3e 20 07 6c bd
       0.19648115 0.0973441 0.39868346 -0.057623982
000030 29 43 b3 3e 1d 79 94 be ce b3 85 be fb 5c 93 bc
       0.35012177 -0.28998652 -0.26113743 -0.017988672
000040 74 8a d9 bd c9 09 d2 3c e7 bb 4b 3e 32 f4 2f be
       -0.10622111 0.025639432 0.19895898 -0.17182997
000050 2b 93 f6 3e e9 5a 64 be fb 4d b4 bd fa 1e da 3c
       0.48159155 -0.22300304 -0.08803936 0.026626099
000060 e8 59 12 be d7 5a 40 bd 17 93 88 3d b0 ca 87 be
       -0.14292109 -0.04696163 0.0666868 -0.26521826
000070 86 fb bc be 01 f1 08 bd 93 29 0f 3e 81 9e e1 bd
       -0.36910647 -0.033432964 0.13980703 -0.1101656
000080 af 70 30 be 71 64 0b bf 7b 11 3a 3d 7b d6 fa 3d
       -0.17230485 -0.54450136 0.045426827 0.1224794
000090 3f c0 7c bc 9e df 07 3e 41 7c 6f 3c 4e 88 d0 3e
       -0.015426694 0.13268897 0.014617027 0.40728992
0000a0 cf eb ec 3e f9 af 00 3d 50 fc 10 be 43 95 96 bd
       0.46273658 0.03141782 -0.1415875 -0.07352688
0000b0 69 3c 7a bd 2b 92 96 bc 2d 81 c4 be 34 e3 36 3e
       -0.061092768 -0.018380245 -0.38379803 0.17860109
0000c0 ab 9b 03 bd d4 e0 bd bc 0c 1c 2c bd 53 b5 b2 bd
       -0.03213088 -0.023178495 -0.042018935 -0.08725991
0000d0 03 49 90 3e fc 55 a0 3b 82 2c 8e 3e 1a e6 dd 3d
       0.28180704 0.0048930626 0.27768332 0.10834904
0000e0 c0 f0 1e be 0e fa 24 be ef 50 0b 3e 2f 33 31 be
       -0.15521526 -0.16111013 0.13605092 -0.17304681
0000f0 24 c0 ed bd 1f 29 dd be da ce 76 3e 08 ba 2d bd
       -0.116089135 -0.43195435 0.24102345 -0.04241374
000100 16 3f 44 3e 23 99 b2 be 8f db 0d bf 9a f6 1e bd
       0.1916469 -0.3488246 -0.55413145 -0.038809396
000110 86 b5 88 3c d7 3e d2 3d b9 b2 8c 3f 0d 02 23 be
       0.01668812 0.10265892 1.0992042 -0.15918751
000120 0f bc b3 3d 6b 44 b4 bd 1b e0 cc bd fc c8 22 bd
       0.08776104 -0.08802112 -0.10003682 -0.039742455
000130 5d 96 59 be db 38 47 3e f6 4e e4 bd 83 00 8e 3e
       -0.21248765 0.19455282 -0.11147873 0.27734765
000140 af cb 7e 3d f1 1e 38 bc 90 62 9c 3e da 20 89 3e
       0.062205967 -0.011237846 0.30543947 0.26782876
000150 73 76 13 3f 59 c5 bb be ac 18 0f bf 27 26 b6 bc
       0.57602614 -0.36674002 -0.5589702 -0.02223499
000160 96 6f 8e 3c 3a d2 0f 3e a1 25 ee 3c 9b ca 8d be
       0.017387193 0.14045039 0.029070677 -0.27693638
000170 2c a8 1b 3e 9e ea be be 6f ea a6 3d fe ee ac 3e
       0.15200871 -0.37288374 0.081501834 0.33776087
000180 9f 3d 49 3e 9b 7d b9 be 7c c6 1f 3e fb 21 16 3e
       0.19652413 -0.36228642 0.1560306 0.146614
000190 96 94 38 bd f0 76 75 bc 8f 1b f9 bd 37 84 0e 3d
       -0.045063578 -0.01498197 -0.121634595 0.03479406
0001a0 4b 6b 82 3e f0 21 3d 3e ce 23 56 3c 27 eb 3d 3e
       0.25472483 0.18469977 0.01307006 0.18546735
0001b0 63 d7 31 be e1 00 99 3e 9a c2 39 be a4 91 db 3b
       -0.1736732 0.29883483 -0.18140641 0.0067007113
0001c0 a5 06 83 bd b5 bb 8f 3e 0c ba c7 be 57 ac a1 3d
       -0.06397752 0.28072897 -0.3900913 0.07894199
0001d0 11 61 79 3e 96 4d fc 3d 3f d3 b2 3d 10 62 0f be
       0.24353434 0.12319486 0.08731698 -0.14002252
0001e0 8a e4 94 3e c4 00 ea 3c a2 34 86 be 43 d5 6f be
       0.2908061 0.028564818 -0.2621203 -0.23421197
0001f0 2d 2b 29 3e b2 4b d0 be 4e a3 87 3e 27 86 51 be
       0.16520377 -0.4068275 0.2649178 -0.20461331
000200 0c e7 10 be 52 ec 36 bb 39 9a 99 be 22 51 a9 3c
       -0.14150637 -0.0027911854 -0.30000475 0.02066857
000210 59 ee 41 3e 06 a8 9f 3e 0c b3 ed 3e 5c 6f 27 3e
       0.18938579 0.3118288 0.46425664 0.16351074
000220 b6 cc a7 3d 20 b8 09 be 85 2a a2 3d ed 90 bc bd
       0.081933424 -0.13449144 0.07918266 -0.0920733
000230 61 a1 04 be e1 3d 38 bd 8c 3f 23 bf d8 52 d6 3e
       -0.12952186 -0.044980887 -0.6376884 0.4186008
000240 1d eb 30 bd c2 48 7d 3e 87 3b 15 3e fe f6 b6 3e
       -0.04319297 0.24734786 0.14573489 0.35735315
000250 93 f1 19 3f 41 c8 f4 be fa ca af be c7 1d b7 bd
       0.6013424 -0.47809032 -0.34334546 -0.089412265
000260 d8 12 a1 be 9c 2a 1a be 02 61 fd 3d 2b ef 8c be
       -0.3145969 -0.15055317 0.123720184 -0.2752622
000270 8c c7 5b 3d cc 17 15 bf 1e ab 07 3f 98 1b 14 3e
       0.0536571 -0.58239436 0.5299548 0.14463651
000280 72 b0 0a bf e4 ee 42 3f 76 e8 72 be 58 72 98 3e
       -0.54175484 0.7614577 -0.2372149 0.29774737
000290 de 20 d5 3c 35 c1 75 bd bf a6 a6 3d 01 ee 3e be
       0.026016649 -0.05999871 0.08137273 -0.18645479
0002a0 d9 ea a1 3d a3 20 a3 3e 36 b1 2f 3e 4d ea da 3d
       0.07906122 0.31860837 0.17157444 0.106892206
0002b0 9d d2 46 3e 6e d9 6a 3e 5c c1 50 3e 05 55 88 bd
       0.1941628 0.22934505 0.20386261 -0.06656841
0002c0 69 e0 b8 bd 67 4a 9c be 32 e3 61 be 42 5e 5e 3d
       -0.09027178 -0.30525514 -0.22059324 0.05428911
0002d0 48 fd 40 3c 2a d4 78 3e cd 24 69 bd dc e7 06 3e
       0.011779137 0.24299684 -0.05691986 0.13174385
0002e0 6d e0 fe bd 9b 5e de be 6b df 29 bb 2d 60 6e 3c
       -0.124451496 -0.43431553 -0.002592052 0.014549297
0002f0 e4 bf b3 3b c9 4f dc bd ad 32 03 3f 6f e3 6d 3d
       0.0054855216 -0.10757405 0.512492 0.058078226
000300 6c 97 bc 3e 39 42 3b be d0 e0 16 be 51 e3 b6 3d
       0.36834276 -0.1828698 -0.14734197 0.08930076
000310 74 e1 6d bd de 2b 09 3e 1a 59 c8 3e 64 4d 3a 3e
       -0.058076337 0.1339564 0.3913048 0.18193585
000320 6f 58 b4 bd 2a c1 2e be 64 8b 62 3e 88 35 a6 3e
       -0.0880593 -0.17065874 0.22123486 0.32462716
000330 91 16 9e bd 1f df c6 bd 6f 36 65 be 13 43 01 3f
       -0.07719148 -0.09710526 -0.22384046 0.5049297
000340 d8 86 a3 3e e1 80 c5 3d 16 a2 1d 3c a2 aa a6 3c
       0.31938815 0.09643722 0.009621164 0.020345036
000350 82 b7 2b 3f 4c 11 e7 be 91 f6 ab be 28 a1 15 3d
       0.67076886 -0.45130384 -0.33586553 0.036530644
000360 1b 12 ec bd 46 6b 2d be 88 48 89 be 6a b0 c2 be
       -0.11526891 -0.16935453 -0.2681315 -0.38025218
000370 9a 43 19 bc 5c 3a 87 be 4e 24 18 3d 52 ee 02 be
       -0.009354496 -0.26411712 0.037143998 -0.12786224
000380 c8 85 45 bd e8 6d da 3e 18 c4 6c 3d ea be 0a be
       -0.048223287 0.42661977 0.057804197 -0.1354939
000390 52 2e 88 3d d0 e7 bf 3d b2 d6 0f 3e 68 5b 10 bd
       0.0664946 0.093703866 0.14046744 -0.03524342
0003a0 82 fd 24 3d 9b 3c 0c 3d 1d 72 3e 3e 1f 5a a5 3e
       0.040280826 0.034237485 0.18598218 0.3229532
0003b0 32 44 5d 3e e4 9e e1 3e 0f d1 8c be db 39 28 be
       0.21608046 0.44066536 -0.2750325 -0.1642832
0003c0 c8 07 fd bd 61 b5 66 be 54 ff 65 3d db 55 e7 bd
       -0.12355 -0.22530128 0.056151703 -0.112956725
0003d0 a1 82 b9 3e 06 c5 2a be a7 45 6c be c6 21 ba 3d
       0.36232474 -0.16676721 -0.23073445 0.09088473
0003e0 0b 48 07 be 93 22 04 3d bb 98 1b 3e 92 95 b6 bd
       -0.13211076 0.032259535 0.15194981 -0.08915247
0003f0 b9 be 72 3d d1 37 89 bd 91 87 db 3e b7 6a b7 3d
       0.05926392 -0.06700099 0.42876866 0.08955901

lstm.weight_hh_l1 f4 [128, 32]
000000 7c 9c 93 be e4 41 0f bb 1a e9 09 3e 05 6b b4 3d
       -0.28830326 -0.0021859342 0.13467827 0.08809475
000010 a9 ad a5 3d 61 f7 af bd ab 3a d8 3c e0 ec c0 be
       0.08089764 -0.08592106 0.026395163 -0.3768072
000020 83 c5 0f be 29 a3 46 3c ab 46 94 bd ef e8 16 be
       -0.14040188 0.012123861 -0.07240041 -0.14737295
000030 94 c2 b7 bc f3 77 0e 3e 4c 7e b1 be f7 2d bd 3e
       -0.02243165 0.13912944 -0.3466667 0.3694913
000040 07 ad 81 be f2 45 76 3d 3d fd 07 3d ee 33 41 bd
       -0.25327322 0.0601253 0.03320049 -0.047168665
000050 61 17 de bc 90 f8 23 be b8 4a 20 3e 77 b2 05 3d
       -0.027110757 -0.16012788 0.15653503 0.0326409
000060 62 96 f7 3d 69 f4 bb bd 62 70 a6 be 34 3c 54 3c
       0.1208923 -0.09177477 -0.32507616 0.012953807
000070 1c ed 98 3c 30 d6 45 3e 2e f3 98 3e 68 05 5c 3e
       0.01866775 0.19319987 0.2987303 0.21486437
000080 4e cc 5c 3e 24 5d ee bd a5 84 6a bc f1 66 c0 be
       0.21562311 -0.11638859 -0.0143138515 -0.37578538
000090 49 09 f6 bd 88 39 14 be 05 6a 77 bd ab 44 90 3e
       -0.1201349 -0.14475071 -0.060403842 0.2817739
0000a0 ef aa d5 3c b0 68 0c 3e 91 2f 10 be c1 65 40 3e
       0.026082484 0.1371181 -0.14080645 0.18788816
0000b0 fb 28 b3 3e aa 6b 5f bd d0 a5 30 be ff 02 26 be
       0.34992203 -0.054546036 -0.17250752 -0.1621208
0000c0 96 c1 fb bd 43 72 09 3e 28 01 2b be bf 44 0e 3e
       -0.12292783 0.13422494 -0.1669966 0.13893412
0000d0 56 86 5c 3e c0 9c 8d 3d c7 dc 81 be c8 03 52 be
       0.2153562 0.06914663 -0.25363752 -0.20509255
0000e0 c7 93 65 be 8f d6 0e be bd b4 a9 3b 9b 5d 3f 3e
       -0.22419654 -0.13949035 0.0051790164 0.18688051
0000f0 ee a1 8e bd ce 2e 3b bd 05 7d 2d be f7 63 db bc
       -0.069644794 -0.045698933 -0.16942222 -0.026781065
000100 3e 48 34 3e 80 3f 12 be e3 d9 0e 3e cf 74 e4 bd
       0.17605683 -0.14282036 0.13950305 -0.11155092
000110 05 ff 72 be da b9 9d 3d 3c a4 d0 3c 92 ff c7 bb
       -0.23730095 0.07701464 0.025468938 -0.0061034644
000120 9a 11 81 3e d8 3c 99 bd 72 51 cb 3d 05 29 08 3d
       0.2520874 -0.07482308 0.09927644 0.033242244
000130 75 93 82 3d bb f8 33 be ef ea 17 bd ec 11 20 be
       0.063757814 -0.17575352 -0.037089285 -0.15631837
000140 d3 65 06 3e d4 a6 9c bd e8 a4 c9 bc 02 91 07 bd
       0.1312478 -0.076490074 -0.024614766 -0.033097275
000150 f3 57 8e 3e 45 3f 0f 3e 41 e7 67 3b 16 56 80 bd
       0.27801475 0.13988979 0.003538564 -0.062664196
000160 74 7c 68 be 03 bb 19 3e c5 a3 94 3d ff d9 1a be
       -0.22703725 0.15012746 0.07257799 -0.15122221
000170 42 32 4c be 75 bf 62 3e 31 35 88 be 2e cf 2e 3e
       -0.19941047 0.22143348 -0.26603082 0.1707122
000180 92 13 a9 be ed e7 99 3d 8d b3 39 3d e4 7c 4f be
       -0.33022743 0.075149395 0.04533725 -0.20262486
000190 25 5c 28 3e 03 31 99 3e 82 55 f1 3d dc a5 60 3e
       0.164414 0.29920205 0.117838874 0.2193827
0001a0 2c 6c ae 3e 18 69 61 be ad c6 fc bb 31 10 90 bd
       0.34066904 -0.22012746 -0.0077141137 -0.07034338
0001b0 23 c7 84 bd 41 ff eb bc e6 d9 99 3e ca 72 37 3e
       -0.06483295 -0.028808238 0.30049056 0.17914882
0001c0 79 3a d0 bc 19 e8 53 3e a7 f4 8f 3e b9 6e 00 be
       -0.025418507 0.20694007 0.28116342 -0.12542237
0001d0 d6 cf 72 3c 50 52 91 bc 29 94 56 3e b0 97 00 3e
       0.01482006 -0.017739445 0.20954956 0.12557864
0001e0 a0 c6 b5 bd c5 f4 2c be 48 ba 0e bd 74 3c e1 3d
       -0.08875775 -0.16890247 -0.03484562 0.10997859
0001f0 bb 45 f7 3d 23 4f 1e 3e 9f ca aa 3d 45 e5 af bd
       0.12073847 0.15459876 0.08339428 -0.085886516
000200 b2 e2 57 bd 79 53 31 3e ed 70 0a bd 05 9c 9d 3c
       -0.052706428 0.17316999 -0.0337991 0.019239435
000210 1a c5 2c be 84 bd c8 ba ca fb 1d 3d 94 c9 9e bd
       -0.16872063 -0.0015315269 0.038570203 -0.07753292
000220 09 45 7f 3d 21 d6 ea bd 21 7e 51 bd 37 fd 17 3e
       0.062321696 -0.11466623 -0.051145677 0.14842688
000230 05 5e 06 3e b9 9c cc 3d 4d d0 86 bc 94 eb 2b be
       0.13121803 0.0999083 -0.016456747 -0.16789085
000240 cb 52 e9 3c be 73 90 3e d0 4f e3 bc 5f e8 e7 3d
       0.028481862 0.28213304 -0.027748019 0.11323618
000250 ce b6 ce 3d 01 51 4c 3d 71 df 5c be 8a 42 29 be
       0.10093461 0.04988194 -0.21569611 -0.16529289
000260 46 46 3f 3e 2b 7e e4 bc c3 64 64 3e 05 3e 3f be
       0.18679151 -0.027892193 0.22304063 -0.18676002
000270 1c ad e4 bd 97 15 9c 3c a1 fd 0f 3d 9c 61 16 bc
       -0.111658305 0.019053264 0.03515399 -0.009178545
000280 d2 28 15 3e a4 f6 7e bd ee 93 67 3e 9d 91 17 3e
       0.14566353 -0.062246934 0.22615024 0.14801641
000290 3c d4 c8 3c 43 f1 2a 3e ee b6 49 be 51 13 96 bd
       0.024515264 0.16693597 -0.19698688 -0.07327903
0002a0 48 34 15 3e 2f cd 17 3e 58 45 6f 3e 25 06 06 3d
       0.14570725 0.14824365 0.23366296 0.032720704
0002b0 25 aa 97 3d 60 5d 0e bb 5c 22 e2 bb 12 6a c1 bd
       0.07405499 -0.0021723136 -0.0069010686 -0.094440594
0002c0 38 3f 0c be 8b 36 fd bd 22 65 36 bd aa 15 e1 bd
       -0.13695991 -0.12363919 -0.04453004 -0.1099046
0002d0 58 56 dd bd 21 50 3d 3e 4b 51 38 3e 02 d0 c0 3e
       -0.108074844 0.18487598 0.17999761 0.37658697
0002e0 42 16 62 bd 23 89 b8 3d 4d 72 ea 3d f4 54 e6 3d
       -0.055197008 0.09010532 0.114475824 0.11246672
0002f0 7a 77 98 bd 91 79 40 3d f8 55 36 bd 46 ce 1e bd
       -0.07444663 0.046990935 -0.04451558 -0.038770936
000300 9c 01 bd 3c b9 00 39 be b4 d9 9b 3d 0d 4d a6 bd
       0.023072056 -0.18066682 0.07609883 -0.08120165
000310 6e ad 55 bd bd 6b 77 3e d0 af 14 3e 0e dc a7 bd
       -0.05216735 0.24162193 0.14520192 -0.08196269
000320 e8 04 bd 3d 21 12 63 3d f0 13 ef bd 72 72 5d 3e
       0.092294514 0.05543721 -0.11673725 0.21625689
000330 93 f5 11 bd 83 71 1c bd f7 c5 10 3e 8f 6a 02 3e
       -0.03563459 -0.03819419 0.14138018 0.12735961
000340 e4 4e 0d 3d 7d 77 2d 3d d7 5c 35 3d 6f d9 56 be
       0.034499064 0.04235028 0.044277992 -0.20981382
000350 1d c1 89 bc 04 4d f9 3c 6f 47 24 3e 10 aa 6e bd
       -0.016815716 0.030432232 0.16042875 -0.058267653
000360 9e 7b c3 3d f8 ed 83 3d 87 13 58 be 2a 14 95 bd
       0.095450625 0.06441873 -0.21101199 -0.072792366
000370 1f 88 e1 3c fb 88 b7 bd 8e 05 b3 bb 17 ca cc 3d
       0.027530728 -0.08961674 -0.0054633087 0.09999483
000380 17 9a db 3c c4 8b 26 be 2a a8 92 3d c5 af ec bc
       0.026806874 -0.16264254 0.07160981 -0.028892407
000390 d7 9b 98 be 1e 5a 9d bd 24 93 1d be 03 58 a7 bd
       -0.29806396 -0.07683204 -0.15388161 -0.08171084
0003a0 20 9d a5 3e a5 a8 37 3e 72 c3 2a 3e 23 09 09 3d
       0.3234644 0.17935427 0.16676119 0.03345598
0003b0 f5 08 91 3d c6 00 61 bd 39 3e 5d be 45 28 3c be
       0.070817865 -0.05493238 -0.21605767 -0.18374737
0003c0 dc 27 c1 3d d9 9b 4a be 6f 16 b9 be 54 e8 cb 3d
       0.09431431 -0.19786014 -0.36149928 0.099564224
0003d0 aa 7d f2 3d 1a b9 05 3f e3 29 10 3e b7 50 cb ba
       0.11840375 0.5223557 0.14078479 -0.0015511726
0003e0 38 1f 34 be 2c 7c 9c 3e c8 70 07 be ae 3c 7a 3e
       -0.17590034 0.30563486 -0.13226616 0.2443721
0003f0 8c c7 5d bd 70 f8 f8 3d 60 0d 9f 3d be d9 5e 3e
       -0.05414538 0.12156761 0.07766223 0.2176275

lstm.bias_ih_l1 f4 [128]
000000 79 fb ac bd 9a e0 59 3e 14 82 96 3c dc e0 6b 3e
       -0.08446402 0.21277085 0.018372573 0.23034996
000010 63 ad 1c 3e d5 40 bd 3c a8 33 e0 3d 61 ea 3f be
       0.15300517 0.023102203 0.10947353 -0.18741752
000020 3d 30 96 bc 00 51 d7 3c 01 2a 42 be e4 15 a2 be
       -0.018333549 0.026283741 -0.18961336 -0.31657326
000030 fe 9c fc bb 0a 2b 08 be 6d 39 22 ba 22 8a f9 3d
       -0.0077091446 -0.13297668 -0.00061883667 0.1218455
000040 2d 50 9f 3d e4 72 07 bd 1c ad ed bc d7 16 c3 3d
       0.07778964 -0.033068553 -0.029013209 0.09525841
000050 df 16 8f 3d 46 f6 04 3e 54 b5 13 be ec 32 82 3d
       0.06986784 0.12984571 -0.1442464 0.06357369
000060 95 3b 7d 3d d2 35 08 bd 8c 3e 91 3d 38 cf 20 bd
       0.0618244 -0.033254452 0.07092008 -0.03926012
000070 32 6d bf bb 45 66 1b 3d e6 6a 71 be 43 91 4d be
       -0.0058418745 0.03793933 -0.23575935 -0.20074944
000080 fb 23 0b bf 1f 03 e9 be be 5a 91 be 25 9e 8b bd
       -0.54351777 -0.45510194 -0.28389543 -0.06817273
000090 02 cc b9 be 2a f9 ec be a6 03 00 bf 89 d9 91 3d
       -0.36288458 -0.46283847 -0.5000557 0.0712157
0000a0 91 93 8e be 91 44 9e be 34 71 de be 98 82 3f 3f
       -0.2784696 -0.30911687 -0.43445742 0.74808645
0000b0 fb 64 c6 be 16 dc 30 be 59 79 21 be 9b 74 fa be
       -0.38748917 -0.17271456 -0.15768947 -0.48917088
0000c0 ab 5e dd be 05 dc ec be 56 19 f4 be 1e ea 87 be
       -0.43236288 -0.46261612 -0.4767558 -0.26545805
0000d0 92 d9 94 be 94 0a f0 bd 99 70 83 be cf 27 b7 bd
       -0.29072243 -0.117207676 -0.25671843 -0.0894314
0000e0 28 de c9 be cf 1f e5 bd 65 15 a4 be 17 8b 4a be
       -0.39427304 -0.11187708 -0.32047573 -0.19779621
0000f0 96 87 53 be 62 82 cf be 20 fd ac 3d d5 bb a6 be
       -0.2065719 -0.40529162 0.08446717 -0.3256518
000100 9e 7d 9d bd 56 7b 99 3d f2 a8 42 be 56 50 92 3c
       -0.07689975 0.074942276 -0.1900976 0.017860573
000110 1e f1 84 bd b7 7a 7f 3d b9 b1 cc bd 3f 2a a1 3c
       -0.06491302 0.06237289 -0.099948354 0.019673465
000120 31 a7 09 3d d3 ea c7 bc 9f 18 8c bd 6f 27 0a bc
       0.03360671 -0.024403965 -0.068406336 -0.008432253
000130 12 47 8f 3d ca f5 f6 3d b5 51 22 3e e8 ce 07 bd
       0.069959775 0.12058599 0.15851481 -0.033156306
000140 cc ca 05 3e e8 3b a5 bb a0 c1 cc bc 25 0c ac bd
       0.13065642 -0.005042542 -0.024994671 -0.08400754
000150 29 c6 20 3e 7d b8 fe bd f3 aa d6 3c 71 9f 99 3c
       0.15700592 -0.12437532 0.026204562 0.018752785
000160 78 55 19 3e d5 2f e6 3d 14 13 60 bc a8 34 f4 3c
       0.1497401 0.11239592 -0.013676424 0.029810265
000170 e4 52 af bd 7b 44 ec 3c e4 fd 52 bb 1d 58 d2 bd
       -0.08560732 0.028841248 -0.0032194788 -0.102707125
000180 3f 0b ae 3b 43 78 0f 3e ed 47 a0 3d f1 bb a0 3e
       0.005311399 0.1401072 0.07826219 0.31393388
000190 a5 ab 5f be ff 8a f2 3c 0d c1 4e 3e 4e f1 3b be
       -0.21842821 0.029607294 0.2019083 -0.18353769
0001a0 f8 6f e9 3d 0d 4e 8f 3c c0 1a aa bd 3f de 69 bd
       0.113983095 0.017493272 -0.083058834 -0.057096716
0001b0 8f de cf bd bc ed 86 bd 02 c8 07 3d 3f f6 b0 bd
       -0.101498716 -0.06588313 0.033149727 -0.08640718
0001c0 52 31 11 3e 82 85 0e bc 2d 88 d6 bc 9d 59 1b 3c
       0.1417897 -0.008698823 -0.02618798 0.009481815
0001d0 57 59 1c 3d 50 53 44 3d 97 35 0d be b3 e0 07 3e
       0.03817114 0.047931015 -0.13789974 0.1326931
0001e0 a5 de 28 3d d9 fa 2b 3e b0 f2 9d 3d ea 0e 85 3c
       0.041227955 0.1679491 0.077123046 0.016242463
0001f0 7b 7b eb bc 86 e5 1e 3d 0c 17 31 bd 15 df b8 bb
       -0.028745404 0.03879311 -0.04323487 -0.005641828

lstm.bias_hh_l1 f4 [128]
000000 95 19 98 be 5f fc 9b bc 52 08 c8 bc 7a 92 9f bb
       -0.29707018 -0.019041238 -0.02441803 -0.0048697563
000010 3d 4a 07 be e2 3b 4b be fe 0a 27 bd 39 49 70 be
       -0.13211913 -0.19847062 -0.040781967 -0.23465432
000020 cd 65 8c be 9b bc b6 3d 29 43 7e bd 02 24 6d be
       -0.27421418 0.089226924 -0.062075768 -0.23158267
000030 60 cd 04 be c2 8d fd 3d 08 49 3a 3e 0a c6 fa 3d
       -0.1296897 0.12380554 0.18191922 0.12244804
000040 01 15 65 be f2 f6 24 be 08 4e b8 3d 8b 9d a7 bd
       -0.22371294 -0.16109827 0.08999258 -0.08184346
000050 eb 55 43 3d 35 34 fb bd b9 07 5b be 21 34 28 bd
       0.04768936 -0.12265817 -0.21389665 -0.04106534
000060 e9 8a 5b be 45 60 9b 3d ac 3e ad bd 4c 7e 44 be
       -0.21439709 0.07586721 -0.08459219 -0.19188803
000070 43 0c 1c 3d 3e 28 28 be bf 44 d8 bd fa 82 27 be
       0.03809763 -0.16421601 -0.10559987 -0.16358557
000080 60 6a b7 be a2 fb 20 be 56 82 97 be ec cd 12 be
       -0.35823345 -0.1572099 -0.29591626 -0.14336365
000090 77 df df be 36 fb cd be 91 c4 80 be 56 1a 61 3e
       -0.43725178 -0.4023072 -0.25149968 0.21982703
0000a0 d8 33 dc be 4b d6 93 be 69 58 ee be 16 f6 30 3f
       -0.43008304 -0.2887443 -0.46551827 0.691255
0000b0 fc 23 a1 be 43 4a 86 be a3 94 63 be 3e 10 78 be
       -0.31472766 -0.26228532 -0.22224669 -0.24224946
0000c0 83 87 d9 be d7 7b 1a be f0 cf d4 be 03 7f 93 be
       -0.424862 -0.15086304 -0.41564894 -0.2880784
0000d0 57 84 9e be 5c 57 de be f5 11 fd be ea 96 46 be
       -0.30960342 -0.43426025 -0.49427763 -0.19393507
0000e0 b0 ad 9c be 50 1e de bd f9 f1 06 bf b6 f7 8d be
       -0.30601263 -0.108456254 -0.5271297 -0.2772805
0000f0 a9 09 e9 be 41 6b cb be d3 63 41 3e 57 f7 be be
       -0.45515183 -0.39730266 0.18885736 -0.3729808
000100 e4 48 41 3d 70 15 6e 3d ff 1a 02 bd b7 60 63 3c
       0.047188655 0.058125913 -0.031764027 0.013878039
000110 f9 45 dd 3c 55 04 33 bc cc 90 a7 3c 8f 8f 1d 3e
       0.027010905 -0.010926326 0.020454787 0.15386795
000120 5f 20 61 bd 6f 32 bf 3c ef f1 9a bd 92 6a 6f bc
       -0.054962512 0.023339478 -0.075656764 -0.014612811
000130 82 32 2e be 72 80 80 3c 1c 39 9d bd 9b 85 00 bd
       -0.17011455 0.015686247 -0.076769084 -0.031377416
000140 61 e0 ee bd 16 9e 15 3e 7b 9e 14 3e 7c 51 ea 3d
       -0.11663891 0.14611086 0.1451358 0.11441323
000150 19 ad 66 bd 4d db a0 3d b3 7b eb 3c 29 6b df bc
       -0.056317423 0.07854328 0.028745508 -0.027272778
000160 60 07 e7 3c 06 e5 16 be 12 15 3e 3d d2 f9 c4 bd
       0.028201759 -0.14735803 0.046406813 -0.09617962
000170 18 31 95 3d 61 6d 19 bc 7a 4d 8a bb 01 1d 22 3c
       0.072847545 -0.009364457 -0.0042206617 0.00989461
000180 67 70 e2 bb 0a 0b 24 3e 3f c4 87 bd 01 25 92 3e
       -0.006910372 0.16019836 -0.06629228 0.28543857
000190 b2 26 c3 bd e9 03 05 be 99 3d 36 3d 1b 25 0b bc
       -0.09528865 -0.12989773 0.044492338 -0.008492733
0001a0 3e b1 b9 3d 28 85 00 be c8 5c 2a 3e a4 5a cd bb
       0.090670094 -0.12550795 0.16636956 -0.0062669087
0001b0 61 22 75 3d c2 29 ce 3c b0 26 aa 3d 5b c7 32 3d
       0.05984724 0.025166396 0.0830816 0.04364715
0001c0 07 e0 ea bc d2 3f a3 3d 8c 6e a0 3c 73 4e a9 bd
       -0.028671278 0.07971157 0.019583963 -0.08266916
0001d0 1c 6c 01 bd 4e 8c eb 3c 57 20 1a bd 64 24 39 3e
       -0.03159724 0.028753426 -0.037628498 0.18080288
0001e0 c2 78 3c 3e cc 4b 55 3e 75 47 35 3c 7c fb 32 3e
       0.1840544 0.20829695 0.0110644 0.17478746
0001f0 3a 05 ec 3d 8f fb 8d bc 5a 16 83 3e 57 6d 12 be
       0.115244344 -0.017331867 0.2560299 -0.14299522

lstm.weight_ih_l2 f4 [128, 32]
000000 67 bc 46 bd 22 b8 8e be dd 0d 93 3e 59 00 16 be
       -0.04851952 -0.27874857 0.28721514 -0.1464857
000010 13 5d f3 3d 62 43 65 3e 3b e8 67 be 8e 9c f2 bd
       0.11882987 0.22388986 -0.22647183 -0.11846267
000020 74 6a e3 bd cc ef 0f 3e 22 5e 42 be c8 54 31 3c
       -0.11104289 0.14056319 -0.18981221 0.010823436
000030 c1 f1 9c bd 31 21 21 bd 46 ba 29 be 39 1c 95 bd
       -0.076632984 -0.039338294 -0.16574964 -0.07280774
000040 aa 27 57 3e 87 dc 5a 3d 49 d3 64 be ee 85 59 3e
       0.21011224 0.053432968 -0.22346224 0.21242496
000050 a3 c0 6f 3e 5e e3 3e bd 72 99 0c 3e fc 92 fc 3d
       0.23413329 -0.046603553 0.1373041 0.123327225
000060 e6 37 9f bd 8d 5c dc 3d df db d8 3d 0f 8f 51 bd
       -0.07774334 0.1075984 0.10588812 -0.051161822
000070 83 75 e6 3d 5f a1 31 3e 21 05 9e 3e 48 82 7a 3d
       0.11252882 0.17346714 0.30863288 0.061159402
000080 3f 54 24 3f 12 c7 69 3e 4a 78 ca be d0 92 37 3e
       0.6419105 0.22829846 -0.39544898 0.17927098
000090 1d eb 80 bd 76 2d c9 be da bf ab be 03 97 2e be
       -0.06294844 -0.39292496 -0.3354481 -0.17049794
0000a0 d2 8d c0 be e0 fc 3c be 34 64 af be b0 5b 6b 3f
       -0.376082 -0.18455839 -0.34256136 0.9193678
0000b0 66 bc 42 bd 01 51 fc 3e 59 e0 ca bd 7c f9 20 3e
       -0.047542952 0.4928055 -0.09906072 0.1572017
0000c0 06 1e df 3d d7 66 16 3e 0b 5b 62 bd 61 8a 1f 3e
       0.108943984 0.14687668 -0.055262607 0.15580131
0000d0 28 c4 f1 3b e9 ee 34 bd 3c 18 4b be 05 57 a0 3e
       0.00737812 -0.044173155 -0.19833463 0.3131639
0000e0 a2 c3 15 3e 1c e0 53 3d aa da 2f be 67 f9 17 be
       0.14625409 0.0517274 -0.17173257 -0.14841233
0000f0 98 c2 43 3d 7d 5f 4f be 78 41 ad 3e 7d 45 8f 3e
       0.047793 -0.2025127 0.3383901 0.27982703
000100 75 85 4e 3e 59 f7 5a 3e 2c 8c aa be 15 b5 d6 3e
       0.20168097 0.21383418 -0.33310068 0.4193503
000110 d7 aa 76 3d c1 d4 b0 be 59 50 52 3d e3 ed c8 bd
       0.06022152 -0.34537318 0.051346157 -0.09810998
000120 81 a1 9d bc 70 da 83 be 35 60 2a be 9e c4 ee bd
       -0.01924205 -0.25752592 -0.16638263 -0.116585955
000130 04 c5 60 bd e9 d5 9b 3e b4 7b 45 bd f9 70 47 3e
       -0.05487539 0.30436638 -0.048213676 0.1947669
000140 ca de 8b 3d e0 20 48 3e 63 0d 25 bd cf 93 37 3b
       0.06829603 0.19543791 -0.04029597 0.0028011685
000150 d8 e1 7f be 02 71 62 3d 7a d9 ce bd 82 76 89 3e
       -0.24988496 0.055283554 -0.10100074 0.26848227
000160 2a f4 ed 3d c2 0e 9d 3d 2d 31 51 3e b2 41 5f be
       0.11618836 0.076688305 0.20428915 -0.21802405
000170 66 0f 8c 3c 1c d9 6f be ee 1a 4b 3e 53 77 6b 3d
       0.017097186 -0.23422664 0.19834492 0.057486843
000180 52 cc 10 3f 84 11 8e 3e 0d d9 36 3d 1d 70 0c 3d
       0.5656177 0.27747738 0.04464059 0.034286607
000190 32 e9 40 3d 2b 1c 82 be 6f fd d9 bd e5 70 cf be
       0.047097392 -0.25412115 -0.10644042 -0.4051582
0001a0 3f 8f 8b be 8e 2b a2 bc 05 19 0a be c1 95 20 3b
       -0.27257726 -0.01979616 -0.13486107 0.0024503323
0001b0 a2 ce 0d be 5a 4d 51 3d db 89 be 3d a0 a3 81 be
       -0.13848355 0.05109916 0.093036376 -0.25320148
0001c0 0d 4d bd 3e 85 b8 90 3e b3 c5 da 3d fc b6 b9 bc
       0.36972848 0.28265777 0.106822394 -0.022670262
0001d0 72 57 f6 bd 25 f5 36 3d e6 e0 43 be 2f 02 b3 be
       -0.120283976 0.04466738 -0.1912876 -0.34962603
0001e0 6f aa 10 3e 9b 33 bf bd cb 7d 30 3f b6 44 c5 bc
       0.14127515 -0.09336015 0.68941945 -0.024080615
0001f0 fa a0 82 bd 93 97 64 bd cc 27 c0 3e 16 ce c3 3c
       -0.0637836 -0.055808615 0.37530363 0.02390198
000200 37 e5 d1 3e 9c 47 c8 3e 84 1a 9f be d1 d1 4d 3f
       0.4099519 0.39117134 -0.31074917 0.8039828
000210 57 dc 06 be e9 c5 c9 be 7c fe 76 be 33 4e bf be
       -0.1316999 -0.39408806 -0.24120516 -0.3736435
000220 1b 3f dd be b9 04 93 3c 00 74 c2 be 55 e1 4b 3e
       -0.43212208 0.017946588 -0.37979126 0.19910176
000230 1c ca aa be d2 59 d3 3e 66 2c 8d bd 60 f0 2f 3c
       -0.33357322 0.41279465 -0.06893234 0.010738462
000240 eb bd e6 3d ae a9 52 3e 96 25 4e bd fa 8c 64 be
       0.11266693 0.2057254 -0.050328813 -0.22319403
000250 2f 28 36 be ce f1 e7 3e ba a0 5e 3e fa 75 00 3d
       -0.17788766 0.4530167 0.21741 0.03136251
000260 eb f6 6b 3d cf 96 6d 3b 2b 23 f1 3c 94 4f c2 bd
       0.057608526 0.003625322 0.029435715 -0.094878346
000270 92 ea 5b 3e 05 79 84 be a9 f7 4c 3f 7a 84 6a bd
       0.214762 -0.2587358 0.800654 -0.057255246
000280 90 19 9a 3e 64 75 97 be 91 87 96 bd b0 6b 71 3e
       0.30097628 -0.2958175 -0.07350076 0.23576236
000290 84 2b d5 bd 82 17 7f be 1b da bb 3d 85 b2 d1 be
       -0.104086906 -0.24911311 0.0917246 -0.40956512
0002a0 33 5e 16 be 07 93 87 3d a5 9a 5a be 2c cb 81 bd
       -0.14684372 0.0661984 -0.21348055 -0.0633758
0002b0 95 82 22 3e 28 75 0c be bc b1 54 3d 33 4c 91 3e
       0.15870126 -0.13716567 0.051927313 0.28378448
0002c0 5d 57 0f bc 59 07 88 3d 20 04 6c be fb 8a 04 be
       -0.008748856 0.066420265 -0.23048449 -0.12943642
0002d0 59 7d bb 3e b1 c4 98 3d a7 db 76 bc 0e 2d c3 bc
       0.3661907 0.07459391 -0.015067018 -0.023825195
0002e0 ad fc 5e be 7a bc 27 3c 19 86 9a 3d 67 9d 4c be
       -0.21776076 0.010237807 0.07545108 -0.19981919
0002f0 8b 8e 87 bd b4 36 fe 3c 93 dc e9 bd 81 5e ed 3d
       -0.06618985 0.031031944 -0.11419024 0.11590291
000300 22 f7 8a 3e d2 4c 96 3e ba 12 99 bd 79 6f 3d be
       0.27141672 0.29355484 -0.07474275 -0.18499555
000310 b7 52 4f bb 89 9b 7b be 69 cb 84 be c3 7c 9f be
       -0.0031634995 -0.2457105 -0.2593644 -0.31149873
000320 31 6a 46 bf 9d 99 b3 be 82 f9 05 be 4e 02 4a 3e
       -0.77505785 -0.35078135 -0.13083461 0.19727442
000330 35 c8 b2 be ae 4d eb 3e 1c 60 17 3e 17 1e 7d be
       -0.3491837 0.45957702 0.14782757 -0.2471851
000340 df 66 76 be bd 65 b9 bb 11 99 67 3e 48 72 c3 be
       -0.2406268 -0.00565788 0.22616984 -0.38173127
000350 00 1f fe be fb 3e a4 3c 50 39 2e be 41 f0 dc bd
       -0.49633026 0.020049563 -0.1701405 -0.10788012
000360 79 4a 4b 3d 69 bb 41 be 16 86 9d bc f2 22 1d be
       0.04963157 -0.18919148 -0.019228976 -0.15345362
000370 bb 5e 86 3d 05 d8 d8 3d 48 4a 09 3f b1 bf 80 bd
       0.06561037 0.105880775 0.5362897 -0.06286562
000380 4b 00 27 3e 22 63 6d be e3 05 da 3e 69 4d 75 3d
       0.16308706 -0.23182347 0.42582616 0.059888277
000390 e5 33 42 be b9 bd 60 3e fb 9d 6f 3e 17 72 08 bf
       -0.18965109 0.21947373 0.23400109 -0.5329909
0003a0 a0 f3 10 3e 39 6f 2d 3e c7 4e fb 3d 59 99 1b be
       0.14155436 0.1693696 0.12270885 -0.15195216
0003b0 47 f2 c4 3d 0d e0 0e bf 88 7b 37 3c 50 f7 1a 3e
       0.09616523 -0.55810624 0.011198886 0.15133405
0003c0 a4 51 6c 3d d5 44 c7 be 30 a4 24 be 95 a9 77 3e
       0.057695046 -0.38919702 -0.16078258 0.24185784
0003d0 37 f1 e8 3e 1e 3f aa bd 0e 4a 81 3d 11 b0 a8 bc
       0.45496532 -0.0831282 0.06312953 -0.020591768
0003e0 e2 b7 5a be ab 2b ac 3e 03 3b 80 3d d0 fc a6 3e
       -0.21359208 0.33627066 0.062612556 0.32614756
0003f0 c5 8d 81 bd 93 cf 47 3e 49 0c fa 3c 60 f8 a2 3d
       -0.063258685 0.19512777 0.030523436 0.0795753
